chapter1_transformers/exercises/monthly_algorithmic_problems/october23_sorted_list/AF_sorted_list_model.pt (torch, 205747 bytes, 16 tensors)

embed.W_E f4 [52, 96]
0	0x3adfda5d	0.0017078627
1	0x3ade5f9b	0.0016965749
2	0x3adfa542	0.00170628
3	0xbc09963c	-0.008397635
4	0x3adfb60d	0.0017067805
5	0xbbb65c7e	-0.005565225
6	0x3adf9d5f	0.001706045
7	0x3ae03448	0.0017105425
8	0x3adf31a7	0.0017028347
9	0x3c5270ee	0.012844307
10	0x3b5cda4d	0.0033699453
11	0x3adf5499	0.0017038762
12	0x3adec69d	0.0016996447
13	0x3adf5235	0.0017038049
14	0xbbe1786b	-0.00688081
15	0x3adfc4da	0.0017072216
16	0x3adf4d23	0.0017036538
17	0xbd3c5ab4	-0.04598494
18	0x3cbe9239	0.023263084
19	0x3adf2522	0.0017024616
20	0x3adf3ffb	0.0017032617
21	0xbbfc06a6	-0.0076912222
22	0x3adf4c9e	0.0017036384
23	0x3cd62948	0.026142731
24	0x3adfd1d6	0.0017076086
25	0x3d3f3951	0.04668552
26	0x3adf6215	0.001704278
27	0x3cd6bcb1	0.026213022
28	0x3adf4ada	0.0017035857
29	0x3adf511b	0.0017037721
30	0xbba1febd	-0.0049436972
31	0x3adf41dd	0.0017033179
32	0xbc6ce073	-0.01445781
33	0x3ba85887	0.0051375064
34	0x3adf47e9	0.0017034981
35	0x3adf8ddc	0.0017055827
36	0xbd98781e	-0.074447855
37	0x3adf6d91	0.0017046203
38	0x3adf58f6	0.0017040062
39	0x3c9bf510	0.019037753
40	0x3adf5270	0.0017038118
41	0x3adf888d	0.0017054245
42	0xbd6adc68	-0.057339102
43	0x3adf4ed9	0.0017037048
44	0x3c1ab6de	0.009443013
45	0x3adf50a5	0.0017037584
46	0xbb757d1e	-0.003745861
47	0xbc90a2b7	-0.017655713
48	0x3adf8b8a	0.0017055136
49	0x3adf4912	0.0017035326
50	0x3adf6c86	0.0017045892
51	0x3adf685a	0.0017044649
52	0x3adbb144	0.0016761203
53	0xbab04d78	-0.0013450822
54	0x3adf4d3b	0.0017036566
55	0x3adf7114	0.001704725
56	0xbba399e9	-0.0049927128
57	0x3ade2ac3	0.001695
58	0x3ae0e546	0.0017158173
59	0x3adf27f1	0.0017025453
60	0x3adf54a2	0.0017038772
61	0x3ae08e6b	0.0017132288
62	0x3adf73a7	0.0017048017
63	0x3adfac1c	0.0017064842
64	0x3ad007ed	0.0015871503
65	0x3adf8b9e	0.0017055159
66	0x3adf5021	0.001703743
67	0x3adfe20c	0.0017080917
68	0xbba3243d	-0.004978685
69	0x3adfe9b4	0.0017083199
70	0x3adf6d92	0.0017046204
71	0x3adf82b4	0.0017052502
72	0x3adf5b24	0.0017040712
73	0x3d36e6d1	0.044653717
74	0x3adf4007	0.0017032631
75	0x3adf648e	0.0017043517
76	0xbd7d7310	-0.06187731
77	0x3adf3499	0.0017029225
78	0x3a4aca92	0.0007735874
79	0xb879b368	-5.953331e-05
80	0x3adf7927	0.0017049656
81	0x3adee319	0.0017004936
82	0xbc131025	-0.008976017
83	0x3ae0bd5b	0.0017146276
84	0x3ae0f072	0.0017161502
85	0xbcc40b06	-0.023931038
86	0x3adf62a4	0.0017042947
87	0x3adf5c71	0.00170411
88	0x3ade8e30	0.0016979631
89	0x3adecf77	0.0016999085
90	0xbcee24d6	-0.0290703
91	0x3b791f51	0.003801305
92	0x3adf4c41	0.0017036275
93	0x3adfb5a4	0.0017067683
94	0x3adf825e	0.0017052402
95	0x3adf85e3	0.0017053451
96	0x3a9ea88c	0.0012104674
97	0x3a9d902d	0.0012021117
98	0x3a9df43d	0.0012050938
99	0xbba8e1e8	-0.0051538832
100	0x3a9e25f9	0.001206576
101	0x3b7e0493	0.003876005
102	0x3a9e4418	0.0012074737
103	0x3a9ef427	0.0012127206
104	0x3a9e046a	0.0012055759
105	0x3c6e9cf9	0.014563792
106	0xbc3350e0	-0.010944575
107	0x3a9e0e40	0.001205869
108	0x3a9dbe4d	0.0012034863
109	0x3a9e16f0	0.0012061279
110	0xbc4e8507	-0.012604958
111	0x3a9e27ee	0.0012066343
112	0x3a9dff23	0.0012054186
113	0x3c4e0ff9	0.01257705
114	0xbc698bdc	-0.0142545365
115	0x3a9e0709	0.001205654
116	0x3a9e0289	0.0012055199
117	0x3a72d9b0	0.00092640053
118	0x3a9e43b9	0.0012074626
119	0x39956bb5	0.00028499743
120	0x3aa037e4	0.0012223688
121	0x3d85b1a8	0.06528026
122	0x3a9e0793	0.0012056701
123	0x3b3f8186	0.002922149
124	0x3a9e1819	0.0012061625
125	0x3a9e32ea	0.0012069617
126	0x3b8f1fe4	0.0043678153
127	0x3a9df972	0.001205249
128	0x3c8004aa	0.015627224
129	0x3b8b4bc2	0.0042509744
130	0x3a9e1f42	0.0012063759
131	0x3a9e1f71	0.0012063814
132	0xbdc5467c	-0.096325845
133	0x3a9e09a9	0.0012057322
134	0x3a9e1726	0.0012061342
135	0x399fc03b	0.00030470066
136	0x3a9e26b0	0.0012065973
137	0x3a9e2504	0.0012065475
138	0x3c11a1d0	0.008888677
139	0x3a9e0cec	0.0012058294
140	0x3b7d72ff	0.003867328
141	0x3a9e0d7b	0.0012058461
142	0xbc531901	-0.012884379
143	0x3c964eed	0.018348182
144	0x3a9e1d4b	0.0012063173
145	0x3a9e099a	0.0012057305
146	0x3a9e0ee5	0.0012058882
147	0x3a9e2e95	0.0012068326
148	0x3aa071bd	0.0012240928
149	0x3c8a0464	0.016847797
150	0x3a9e1eef	0.0012063662
151	0x3a9e0a38	0.0012057489
152	0x3c912228	0.017716482
153	0x3a9d44b4	0.0011998625
154	0x3a9fdadf	0.0012195966
155	0x3a9e07d6	0.0012056779
156	0x3a9e0d85	0.0012058472
157	0x3a9e0aa4	0.0012057615
158	0x3a9dd5da	0.0012041882
159	0x3a9e6749	0.0012085225
160	0x3a941a76	0.001129939
161	0x3a9e5471	0.0012079609
162	0x3a9e114f	0.0012059602
163	0x3a9e31fd	0.0012069341
164	0x3a4b3fe1	0.0007753354
165	0x3a9ff419	0.0012203484
166	0x3a9dfd0e	0.0012053566
167	0x3a9e9772	0.0012099578
168	0x3a9e8641	0.0012094454
169	0xbc1b5722	-0.009481223
170	0x3a9dfceb	0.0012053525
171	0x3a9e05c8	0.0012056166
172	0xbca3dccd	-0.020002747
173	0x3a9e1b46	0.0012062571
174	0x39ca7989	0.00038618993
175	0x3b97a8af	0.004628263
176	0x3a9e09a0	0.0012057312
177	0x3a9e63e6	0.0012084215
178	0x374e1e7c	1.22856545e-05
179	0x3aa210bb	0.0012364605
180	0x3aa1a782	0.0012333246
181	0x3bc6dc44	0.006068738
182	0x3a9e4f35	0.0012078049
183	0x3a9e1355	0.0012060205
184	0x3a9dcd88	0.0012039402
185	0x3a9e1f33	0.0012063741
186	0xbb3123bd	-0.0027029358
187	0x3bb72d0d	0.0055900873
188	0x3a9dfc1e	0.0012053286
189	0x3a9e0b68	0.0012057843
190	0x3a9de448	0.0012046183
191	0x3a9e4352	0.0012074506
192	0xba36367c	-0.0006950868
193	0xba381d78	-0.0007023434
194	0xba36369d	-0.0006950887
195	0x3c017f3e	0.007903872
196	0xba361a7e	-0.00069466967
197	0xbbfa0fb9	-0.007631269
198	0xba361128	-0.00069453055
199	0xba362ce6	-0.00069494394
200	0xba366dce	-0.0006959111
201	0xbd267822	-0.04064191
202	0x3ce9b94d	0.028530741
203	0xba361704	-0.00069461786
204	0xba36ea68	-0.0006977678
205	0xba360709	-0.00069437973
206	0x3c97515d	0.018471414
207	0xba3625fb	-0.00069484086
208	0xba362a28	-0.0006949031
209	0x3d127a8e	0.03576141
210	0x3bdda548	0.006764088
211	0xba3653e7	-0.00069552514
212	0xba36493f	-0.00069536635
213	0x3c9d7354	0.019220032
214	0xba35a4c6	-0.0006929155
215	0xbc527a35	-0.012846519
216	0xba35b511	-0.0006931583
217	0x3cbce01b	0.02305608
218	0xba3629a6	-0.0006948955
219	0x3c1ebeb3	0.009689021
220	0xba35f2de	-0.0006940792
221	0xba3622aa	-0.00069479144
222	0xbbc38bb4	-0.0059675816
223	0xba364040	-0.0006952323
224	0xbc1a689b	-0.009424354
225	0x3b53c488	0.0032313187
226	0xba363816	-0.00069511065
227	0xba361f21	-0.00069473876
228	0xbda51c1a	-0.080620006
229	0xba361388	-0.00069456594
230	0xba360bf0	-0.0006944528
231	0x3b9350a5	0.0044956976
232	0xba36393c	-0.00069512776
233	0xba36131d	-0.0006945597
234	0xbd0588e4	-0.032601252
235	0xba360cfa	-0.00069446827
236	0x3c710c8a	0.014712462
237	0xba3640d2	-0.0006952408
238	0x3ce50fa9	0.027961569
239	0xbd39bf9d	-0.045348752
240	0xba36328a	-0.000695028
241	0xba362dc4	-0.00069495686
242	0xba360e18	-0.0006944849
243	0xba36085d	-0.0006943995
244	0xba37ab7f	-0.0007006451
245	0xbc8f3ab5	-0.017484048
246	0xba361741	-0.0006946214
247	0xba364728	-0.0006953352
248	0x3d23d827	0.04000106
249	0xba37c9f4	-0.00070109894
250	0xba3567bc	-0.00069200597
251	0xba3664d5	-0.0006957774
252	0xba361d41	-0.0006947108
253	0xba3667ae	-0.00069581985
254	0xba36bd55	-0.00069709617
255	0xba35fec3	-0.00069425645

pos_embed.W_pos f4 [21, 96]
0	0x3a27370c	0.0006378747
1	0x3a2c7dc7	0.00065800216
2	0x3a2601da	0.00063326734
3	0x3af93eb1	0.0019015876
4	0x3a26c604	0.0006361904
5	0xb93c36b7	-0.0001794946
6	0x3a25a6ec	0.0006319124
7	0x3a2720a8	0.00063754106
8	0x3a26beb8	0.0006360817
9	0x37e459c4	2.7221518e-05
10	0x3b02476c	0.0019878997
11	0x3a2565d4	0.0006309424
12	0x3a27efd1	0.000640628
13	0x3a256230	0.00063088816
14	0x3aecc524	0.0018064124
15	0x3a26b8e7	0.000635995
16	0x3a25af84	0.00063204044
17	0x35b36d60	1.3368372e-06
18	0xbb0993ce	-0.002099264
19	0x3a26adf5	0.0006358319
20	0x3a26267e	0.0006338133
21	0x3b2748a0	0.0025525466
22	0x3a2ec0e7	0.0006666318
23	0xbac27400	-0.0014835596
24	0x3a285c53	0.0006422449
25	0x3bcc67fa	0.006237981
26	0x3a260395	0.0006332931
27	0x3a5a2155	0.0008321007
28	0x3a255161	0.0006306377
29	0x3a25ff87	0.0006332327
30	0x3ae31efc	0.001732796
31	0x3a25d89a	0.00063265266
32	0x3b0f5dcc	0.0021875976
33	0x38a1460f	7.690128e-05
34	0x3a261469	0.0006335439
35	0x3a25dd88	0.0006327261
36	0x3c578176	0.0131534245
37	0x3a258d70	0.00063153263
38	0x3a257648	0.0006311876
39	0x3aad096e	0.0013201663
40	0x3a262bbd	0.0006338915
41	0x3a2581f4	0.0006313615
42	0x3c5ea5e2	0.013589354
43	0x3a2588b1	0.0006314619
44	0x3ab6f225	0.0013957663
45	0x3a261ef2	0.00063370087
46	0xba346364	-0.00068812654
47	0x3a353c8e	0.00069136254
48	0x3a25f7e4	0.0006331189
49	0x3a25fc5f	0.0006331857
50	0x3a259f11	0.0006317953
51	0x3a260365	0.0006332903
52	0x3a3dd2bf	0.00072411814
53	0x3914da7a	0.00014195769
54	0x3a25b02d	0.0006320503
55	0x3a2674f8	0.0006349827
56	0x3a421419	0.00074035075
57	0x3a2b1958	0.0006526909
58	0x3a2b05d4	0.0006524001
59	0x3a266201	0.0006347001
60	0x3a25abf9	0.00063198764
61	0x3a27f88f	0.00064075826
62	0x3a28f023	0.00064444746
63	0x3a258ad4	0.00063149375
64	0x3a573040	0.0008208789
65	0x3a25b927	0.00063218403
66	0x3a257b44	0.00063126185
67	0x3a28c23d	0.0006437635
68	0x3a897831	0.001048809
69	0x3a2bd0e5	0.000655426
70	0x3a262fac	0.0006339501
71	0x3a26873f	0.00063525507
72	0x3a273569	0.0006378503
73	0xbb006309	-0.001959028
74	0x3a25eaa0	0.00063292123
75	0x3a2681f3	0.00063517614
76	0x3bffed0d	0.007810241
77	0x3a25fe03	0.0006332101
78	0x3adc90ce	0.0016827823
79	0xbc183536	-0.00929003
80	0x3a25ed5c	0.000632962
81	0x3a2c52ec	0.00065736356
82	0x3ad20ad2	0.0016024953
83	0x3a2a7ef0	0.00065039005
84	0x3a32645a	0.00068051147
85	0x3a4e303f	0.00078654656
86	0x3a26266f	0.00063381245
87	0x3a256cbb	0.00063104526
88	0x3a284fdf	0.0006420593
89	0x3a2c6e6e	0.00065777346
90	0x3a3c559f	0.00071843894
91	0x3a51bcc3	0.0008000845
92	0x3a275ccf	0.0006384374
93	0x3a26371f	0.0006340611
94	0x3a2726ec	0.0006376344
95	0x3a2618cb	0.0006336092
96	0xb9334e7c	-0.00017100008
97	0xb921421a	-0.00015378781
98	0xb9375ba7	-0.00017486383
99	0x3a2da20e	0.00066235743
100	0xb935551a	-0.00017293208
101	0xba211729	-0.0006145114
102	0xb9389560	-0.00017603254
103	0xb9348ac8	-0.00017217838
104	0xb934773c	-0.00017210556
105	0xba3d836f	-0.0007229363
106	0x3a9aea13	0.0011819027
107	0xb939498d	-0.00017670375
108	0xb9323290	-0.00016994239
109	0xb9394b14	-0.00017670944
110	0x3a949506	0.0011335916
111	0xb93500d6	-0.00017261817
112	0xb9389668	-0.00017603638
113	0xbaa8e4f0	-0.0012885612
114	0xbb39f6a1	-0.0028375762
115	0xb9356f34	-0.00017302932
116	0xb936f893	-0.00017449474
117	0x3add50fa	0.0016885095
118	0xb923571e	-0.00015577345
119	0xbb1f32b3	-0.0024291694
120	0xb92fd2e3	-0.00016767862
121	0x3bb07092	0.005384513
122	0xb9376f18	-0.00017493626
123	0x39136783	0.00014057574
124	0xb93983ce	-0.00017692076
125	0xb9378026	-0.00017499979
126	0x39d05308	0.00039734715
127	0xb937e63e	-0.00017538012
128	0x3ab30c65	0.001366031
129	0xba8f9e7d	-0.0010957267
130	0xb9374164	-0.000174766
131	0xb937e5a1	-0.00017537783
132	0x3c483c28	0.012221374
133	0xb938d85d	-0.00017628209
134	0xb93916dc	-0.0001765149
135	0x3a1c0949	0.00059523113
136	0xb936d0f4	-0.00017434714
137	0xb9391040	-0.00017649028
138	0x3c5352ff	0.012898206
139	0xb938eb1a	-0.0001763519
140	0x398f403b	0.0002732294
141	0xb9370e5b	-0.00017457588
142	0xbaa89a8a	-0.0012863439
143	0x3915ff0d	0.00014304761
144	0xb9377293	-0.00017494922
145	0xb937c3fe	-0.00017525253
146	0xb9387c6d	-0.0001759396
147	0xb9377a81	-0.00017497876
148	0xb8e824d6	-0.00011069483
149	0xba0052b8	-0.00048951386
150	0xb9381e5b	-0.00017558916
151	0xb9362374	-0.0001737008
152	0xb81da65c	-3.758665e-05
153	0xb929b12b	-0.00016183096
154	0xb92bcecc	-0.00016384869
155	0xb9363999	-0.0001737833
156	0xb93858ce	-0.0001758069
157	0xb9323cec	-0.00016998098
158	0xb92f6dc3	-0.0001673019
159	0xb938ef7a	-0.0001763682
160	0xb6bd2388	-5.6367753e-06
161	0xb9385d58	-0.0001758238
162	0xb938eb2f	-0.0001763522
163	0xb92f19d7	-0.00016698927
164	0xb88dbd40	-6.7586545e-05
165	0xb925e562	-0.00015821078
166	0xb936c4a3	-0.00017430125
167	0xb937029d	-0.00017453214
168	0xb933d5e8	-0.00017150457
169	0xbb1e2cab	-0.002413551
170	0xb9378824	-0.00017502956
171	0xb936100a	-0.00017362848
172	0x3be9594a	0.00712124
173	0xb937c289	-0.0001752471
174	0x3a5f2f9a	0.0008513868
175	0xbc26ace4	-0.010173056
176	0xb937a011	-0.0001751187
177	0xb924f6c7	-0.0001573219
178	0x3a6c8b91	0.00090234826
179	0xb9295262	-0.00016147786
180	0xb916d806	-0.0001438559
181	0x3a382c34	0.000702563
182	0xb93745ae	-0.00017478198
183	0xb9393c34	-0.00017665402
184	0xb93393b7	-0.00017125798
185	0xb925952d	-0.00015791199
186	0xb9a9722f	-0.00032319265
187	0x3a136c6e	0.0005623762
188	0xb93381f9	-0.00017119189
189	0xb93738a0	-0.00017473334
190	0xb9343e61	-0.00017189376
191	0xb9374d99	-0.00017481147
192	0x3a99553a	0.0011698373
193	0x3a9a7469	0.001178396
194	0x3a9946be	0.0011694056
195	0x3ad8074f	0.001648167
196	0x3a994178	0.0011692485
197	0x39414826	0.00018432792
198	0x3a992ecd	0.0011686921
199	0x3a99708d	0.0011706516
200	0x3a994cd5	0.0011695871
201	0x39da340d	0.0004161898
202	0x3b38641e	0.0028135846
203	0x3a993234	0.0011687935
204	0x3a999287	0.0011716642
205	0x3a992e53	0.0011686779
206	0x3b10b3fb	0.0022079933
207	0x3a993cea	0.0011691127
208	0x3a99397f	0.0011690109
209	0x39b8de0d	0.00035260656
210	0xba7a84f0	-0.00095565524
211	0x3a993b83	0.001169071
212	0x3a994c83	0.0011695776
213	0x3b362dd3	0.002779831
214	0x3a99316d	0.0011687704
215	0xba9889e4	-0.0011637774
216	0x3a98c4c5	0.0011655322
217	0x3bdb3a3a	0.0066902908
218	0x3a993813	0.0011689685
219	0x3ab3566a	0.001368237
220	0x3a992cb7	0.00116863
221	0x3a993535	0.001168883
222	0x3aca91e3	0.0015454855
223	0x3a993ca6	0.0011691048
224	0x3b3163cf	0.0027067547
225	0x39a5017a	0.00031472353
226	0x3a993624	0.0011689109
227	0x3a993acc	0.0011690496
228	0x3c5f8c84	0.013644341
229	0x3a993036	0.0011687342
230	0x3a99300a	0.001168729
231	0x3abb981f	0.0014312303
232	0x3a993e7b	0.0011691594
233	0x3a99318d	0.0011687741
234	0x3c63f9b1	0.013914512
235	0x3a993413	0.0011688493
236	0x3a91babe	0.0011118276
237	0x3a994628	0.0011693882
238	0xb9c1a817	-0.00036937065
239	0x3ab98905	0.0014155215
240	0x3a99329d	0.0011688058
241	0x3a9941db	0.00116926
242	0x3a99328d	0.0011688039
243	0x3a993f32	0.0011691807
244	0x3a9cab7a	0.001195296
245	0x3a0ef948	0.0005454016
246	0x3a993e99	0.0011691629
247	0x3a9948a1	0.0011694619
248	0x3a8eb71a	0.0010888309
249	0x3a9a171b	0.0011756154
250	0x3a98d1b5	0.0011659177
251	0x3a995e25	0.0011701031
252	0x3a9936bb	0.0011689285
253	0x3a995708	0.0011698911
254	0x3a996e25	0.0011705799
255	0x3a992e20	0.001168672

blocks.0.ln1.w f4 [96]
0	0x22de52d5	6.0260922e-18
1	0x27724146	3.3619631e-15
2	0x24dc9819	9.5667455e-17
3	0x3ed64503	0.41849527
4	0x201c8d93	1.3260557e-19
5	0x3ed5af7b	0.41735443
6	0x27c2e061	5.408909e-15
7	0x21cdad5e	1.393723e-18
8	0x2272ff04	3.293212e-18
9	0x3eefc45d	0.468295
10	0x3ed6dd63	0.4196578
11	0x23ee32f0	2.5825585e-17
12	0x1fb53516	7.6744305e-20
13	0x238d5487	1.532305e-17
14	0x3ec0794d	0.37592545
15	0x27147baa	2.0606164e-15
16	0x1fcd63d1	8.698601e-20
17	0x3f927fed	1.144529
18	0x3f4d8fe9	0.80297714
19	0x1d509703	2.7606642e-21
20	0x23055f93	7.230183e-18
21	0x3f5fa384	0.8735888
22	0xae1dca04	-3.5877093e-11
23	0x3f294ff3	0.6613762
24	0x2928da0c	3.749262e-14
25	0x3f975940	1.1824112
26	0x23e94ce1	2.529447e-17
27	0x3f5705cd	0.83993226
28	0x25ae854d	3.0274517e-16
29	0x2432e6d6	3.8793123e-17
30	0x3f2bad07	0.67060894
31	0x2493be69	6.4073655e-17
32	0x3ed92fc4	0.42419255
33	0x3eb5d46f	0.35513636
34	0x2472c68b	5.2643558e-17
35	0x202130c8	1.3653371e-19
36	0x3fc3d10b	1.529817
37	0x249cff71	6.808695e-17
38	0x209adcde	2.6234772e-19
39	0x3f583687	0.844582
40	0x226e83f4	3.232487e-18
41	0x1fd8b9d0	9.178696e-20
42	0x3f8e67fe	1.1125486
43	0x240f2ced	3.1046236e-17
44	0x3eb87865	0.36029354
45	0x23df10f7	2.4184893e-17
46	0x3f07ad11	0.52998453
47	0x3ee451ce	0.44593662
48	0x214092f3	6.5246616e-19
49	0x213e7de2	6.454111e-19
50	0x25c654e0	3.4405038e-16
51	0x2495c76c	6.495628e-17
52	0x36848de2	3.950424e-06
53	0x3eb961a8	0.36207318
54	0x2b624648	8.0388864e-13
55	0x249d9c76	6.835295e-17
56	0x3f75500f	0.95825285
57	0x24094366	2.9764228e-17
58	0x296e64ea	5.2934145e-14
59	0x20879f1e	2.2975184e-19
60	0x2187c353	9.199658e-19
61	0x25392637	1.605914e-16
62	0x240aa1a4	3.0060895e-17
63	0x209a7a04	2.6169358e-19
64	0x35953e3b	1.1119477e-06
65	0x20467308	1.6809313e-19
66	0x20c6aa9f	3.3655412e-19
67	0x211f33c0	5.3939786e-19
68	0x3e955a2d	0.2917036
69	0x27d914d5	6.0252185e-15
70	0x22eab32f	6.3615545e-18
71	0x225d7752	3.0014253e-18
72	0x2394372f	1.6069563e-17
73	0x3f5c885c	0.8614557
74	0x1fc4219f	8.306485e-20
75	0x23b34df0	1.9440227e-17
76	0x3f7cc7e3	0.987425
77	0x25df931f	3.8784027e-16
78	0x3bbdf64b	0.0057971827
79	0x3f943854	1.157969
80	0x21ba2076	1.2612443e-18
81	0x27f14947	6.6970385e-15
82	0x3ed50af4	0.4160992
83	0x28c1065f	2.1430067e-14
84	0x31c0d1e1	5.611796e-09
85	0x3ec6d7ca	0.3883651
86	0x245b81ac	4.759789e-17
87	0x269bd8bb	1.081403e-15
88	0x2327b61a	9.09165e-18
89	0x25c92d1c	3.489851e-16
90	0x3f67ad59	0.9049888
91	0x3642cbd4	2.9026896e-06
92	0x25d982bf	3.7732096e-16
93	0x1e938a3e	1.5621406e-20
94	0x26b67982	1.2661722e-15
95	0x2760fd24	3.1223472e-15

blocks.0.ln1.b f4 [96]
0	0x1fd9cac0	9.2238497e-20
1	0x246f5779	5.1898956e-17
2	0x21c084e6	1.3045604e-18
3	0x3a554c1a	0.0008136645
4	0x1d210d90	2.1315184e-21
5	0xbaddf582	-0.0016934129
6	0x24a924ef	7.3354635e-17
7	0x1ed7975b	2.282661e-20
8	0x1f89d602	5.83758e-20
9	0x3b856bf9	0.0040717092
10	0xbb4ac0e5	-0.0030937728
11	0x20eaaa07	3.9753657e-19
12	0x1e512772	1.1072525e-20
13	0x20874bc9	2.292004e-19
14	0xbbc47962	-0.0059959153
15	0x23d81c9a	2.343088e-17
16	0x1cd1d9fe	1.388681e-21
17	0x3d6ec5a6	0.05829396
18	0x3c39572b	0.011312286
19	0x1acfce35	8.594634e-23
20	0x1fde08c9	9.403519e-20
21	0xbbc8d517	-0.006128918
22	0xb18250ac	-3.7926693e-09
23	0x3aff81c2	0.0019493627
24	0x25f8f050	4.3183984e-16
25	0xbd2ea36e	-0.042636327
26	0x20dae1c7	3.7080043e-19
27	0x3c0e8713	0.008699196
28	0x22ac2c93	4.666789e-18
29	0x212295c5	5.5085953e-19
30	0xbc01e75d	-0.007928696
31	0x21891f55	9.291775e-19
32	0x3c168f1c	0.009189393
33	0xbb0bdd64	-0.0021341676
34	0x2148166b	6.7792306e-19
35	0x1d239588	2.1650176e-21
36	0x3ce956fb	0.028483858
37	0x218d0f6a	9.558612e-19
38	0x1da15c95	4.2712073e-21
39	0x3cc37075	0.023857335
40	0x1f74099e	5.1676965e-20
41	0x1cd139de	1.3845418e-21
42	0xbd1fc4da	-0.03900609
43	0x2109123f	4.6441554e-19
44	0xba19e2e3	-0.00058702956
45	0x20b4b2e2	3.061156e-19
46	0xbbe5415e	-0.0069963178
47	0xba9b2cce	-0.0011838914
48	0x1e37403b	9.701222e-21
49	0x1e3d2ee4	1.00152734e-20
50	0x22bf4547	5.1844004e-18
51	0x2184e500	9.005284e-19
52	0xb761acca	-1.3451276e-05
53	0xbaa4d840	-0.0012576655
54	0x283c13ca	1.04403875e-14
55	0x21808a65	8.71025e-19
56	0xbd06e0be	-0.032929175
57	0x2301b6a5	7.0317805e-18
58	0xa9e01b4d	-9.952334e-14
59	0x1da07a4b	4.2478095e-21
60	0x1e7fab42	1.3535003e-20
61	0x222303ca	2.2092625e-18
62	0x2174afd0	8.29031e-19
63	0x1d9b7eb4	4.1159166e-21
64	0x34e1961c	4.2018735e-07
65	0x1d463e41	2.6237266e-21
66	0x1dd3f3f0	5.610346e-21
67	0x1ecca26a	2.1666513e-20
68	0x3a9b8712	0.0011865816
69	0x2700ec8d	1.7891803e-15
70	0x1fd90678	9.1913776e-20
71	0x1f4f6c95	4.3923772e-20
72	0x20c0713a	3.2600992e-19
73	0x3bb9884c	0.005662
74	0x1cad5531	1.1470201e-21
75	0x20b5a223	3.0769886e-19
76	0xbcc9b516	-0.024622481
77	0x22c52922	5.344051e-18
78	0xba10a467	-0.0005517662
79	0x3d9d3b8c	0.07677373
80	0x1ec5f28a	2.0958498e-20
81	0x2934276a	4.0002215e-14
82	0x3b6c4788	0.0036053378
83	0x25a75819	2.902958e-16
84	0x34908b32	2.6923368e-07
85	0x3bf855f1	0.0075786044
86	0x213a9ade	6.3224216e-19
87	0x2387cbf9	1.4723115e-17
88	0x2127cd02	5.6853126e-19
89	0xa9b6c290	-8.116175e-14
90	0xbcd77989	-0.02630307
91	0xb8247e33	-3.921818e-05
92	0x22f309dd	6.5875725e-18
93	0x1ba77986	2.7706365e-22
94	0x23881336	1.4753286e-17
95	0x24473082	4.3192334e-17

blocks.0.attn.W_Q f4 [2, 96, 48]
0	0x1df51b01	6.487888e-21
1	0x1e454cfb	1.0445012e-20
2	0x1e7ea210	1.3480162e-20
3	0x9ee55751	-2.4282431e-20
4	0x9e9263f8	-1.5499697e-20
5	0x1e51de3f	1.1110327e-20
6	0x9e5a947f	-1.1571532e-20
7	0x9e015c7f	-6.848331e-21
8	0x9d8af852	-3.6785053e-21
9	0x9d4f53ec	-2.7439608e-21
10	0x1e1c70aa	8.28187e-21
11	0x9df677f3	-6.5239682e-21
12	0x1dd433ec	5.616962e-21
13	0x9dd25a38	-5.567982e-21
14	0x1ecd8864	2.1761629e-20
15	0x9e15d668	-7.9323325e-21
16	0x9eaf13da	-1.8537056e-20
17	0x9e3b0279	-9.900209e-21
18	0x9db90e86	-4.898411e-21
19	0x1f5271ab	4.4563254e-20
20	0x1e371e3c	9.694192e-21
21	0x9f071f63	-2.8613324e-20
22	0x1e408dc3	1.0193711e-20
23	0x1d428d33	2.5748684e-21
24	0x9e822f8e	-1.3783954e-20
25	0x1ddf0f8c	5.9043684e-21
26	0x9eda9ac9	-2.3145665e-20
27	0x9e10867e	-7.651109e-21
28	0x1ef0e33d	2.5504972e-20
29	0x9e26b4fa	-8.825392e-21
30	0x1efcb287	2.6755375e-20
31	0x9e0403f6	-6.988841e-21
32	0x9ec6495a	-2.0994403e-20
33	0x1f192b6b	3.2434925e-20
34	0x1e170222	7.9943145e-21
35	0x1ed20a55	2.2238888e-20
36	0x1d22782d	2.150265e-21
37	0x9e8e1c3a	-1.5046509e-20
38	0x1e8726b4	1.4309688e-20
39	0x1c4ee9a6	6.8461666e-22
40	0x1de1a91f	5.973187e-21
41	0x1ed6eb52	2.2755458e-20
42	0x1d6097ba	2.9724594e-21
43	0x9d90aef4	-3.829738e-21
44	0x1e247187	8.705565e-21
45	0x9e7ed52c	-1.3490731e-20
46	0x9ebf1a76	-2.0233856e-20
47	0x1c8dceb7	9.384032e-22
48	0x22809df2	3.48617e-18
49	0x22d3d5d8	5.741808e-18
50	0x23090915	7.428708e-18
51	0xa371946a	-1.3096064e-17
52	0xa31bc25a	-8.443722e-18
53	0x22ddddb2	6.01369e-18
54	0xa2f8d659	-6.7447484e-18
55	0xa25139f2	-2.8355458e-18
56	0xa21667f4	-2.0383823e-18
57	0xa1d72623	-1.4579061e-18
58	0x22a2ed65	4.416154e-18
59	0xa2872629	-3.6632227e-18
60	0x227adc24	3.399786e-18
61	0xa25c3caa	-2.9847675e-18
62	0x234eef45	1.121795e-17
63	0xa2b229cf	-4.8291263e-18
64	0xa331fae4	-9.648317e-18
65	0xa2be56b6	-5.159141e-18
66	0xa23d3715	-2.5643437e-18
67	0x23dd91e7	2.402266e-17
68	0x22bbf88e	5.094962e-18
69	0xa38fa85d	-1.5575396e-17
70	0x22c93c1d	5.4544807e-18
71	0x21d27fd8	1.4263993e-18
72	0xa3101862	-7.811419e-18
73	0x226a65c1	3.1766782e-18
74	0xa378377c	-1.3455856e-17
75	0xa296a552	-4.083262e-18
76	0x237f2ee4	1.3833507e-17
77	0xa2ad5170	-4.697797e-18
78	0x2389da57	1.494604e-17
79	0xa29d42d3	-4.262569e-18
80	0xa34beea5	-1.1055187e-17
81	0x23a10041	1.7455763e-17
82	0x22b01226	4.772411e-18
83	0x235a083f	1.181955e-17
84	0x21b3bee2	1.2180038e-18
85	0xa317f0a0	-8.236681e-18
86	0x232157d8	8.746429e-18
87	0x219c2034	1.0579495e-18
88	0x2252e9e8	2.8584136e-18
89	0x235f1325	1.2092908e-17
90	0x21e7a9ea	1.5698145e-18
91	0xa1dad692	-1.4829051e-18
92	0x22b075ca	4.782961e-18
93	0xa30a5db7	-7.50084e-18
94	0xa3530707	-1.1439821e-17
95	0x210853c7	4.618947e-19
96	0x1ffc2bf9	1.067989e-19
97	0x2048c2ff	1.7005178e-19
98	0x207e7aab	2.1555224e-19
99	0xa0e87ef8	-3.938635e-19
100	0xa0986ac4	-2.5820453e-19
101	0x2042baa4	1.6494193e-19
102	0xa05c86bb	-1.8679303e-19
103	0x9f1f73b0	-3.3765254e-20
104	0x9f941840	-6.2720556e-20
105	0x9f7906b3	-5.2733342e-20
106	0x200e9b2c	1.207921e-19
107	0x9ff15ef7	-1.02224576e-19
108	0x1f9a8bbf	6.545273e-20
109	0x9fc77f68	-8.4490554e-20
110	0x20c017a0	3.25417e-19
111	0xa00f4677	-1.2135886e-19
112	0xa0b8cc79	-3.130612e-19
113	0xa0368575	-1.5460157e-19
114	0x9fa351e3	-6.9168655e-20
115	0x214dbe57	6.9708614e-19
116	0x2033dbf4	1.5234666e-19
117	0xa1018bf9	-4.389215e-19
118	0x1ffe2c00	1.07645976e-19
119	0x1f532963	4.4715222e-20
120	0xa087701b	-2.2944075e-19
121	0x1fde8490	9.4239963e-20
122	0xa0c2568a	-3.2922145e-19
123	0xa007acc2	-1.1492106e-19
124	0x20de8b40	3.770041e-19
125	0xa025aa4e	-1.4032393e-19
126	0x20e89912	3.9403622e-19
127	0xa01255d5	-1.239508e-19
128	0xa0c15438	-3.2751203e-19
129	0x211caf8d	5.3087195e-19
130	0x2011c6ca	1.2347752e-19
131	0x20d656d5	3.631047e-19
132	0x1f20c00b	3.4040172e-20
133	0xa0917117	-2.4638792e-19
134	0x208cf788	2.3880725e-19
135	0x1ea3fb15	1.7362141e-20
136	0x1fe0a36b	9.513804e-20
137	0x20cc0c87	3.4567234e-19
138	0x1f50a96a	4.418585e-20
139	0x9f001560	-2.7122735e-20
140	0x20240df0	1.3895952e-19
141	0xa08008c0	-2.1689834e-19
142	0xa0aa6543	-2.886613e-19
143	0x1e99639a	1.62407e-20
144	0xbbd17be4	-0.0063929427
145	0xbb1a9c55	-0.0023591716
146	0x3a9a2472	0.0011760129
147	0x3bf87d5e	0.0075833043
148	0xbb587696	-0.0033029667
149	0xbbb4480a	-0.005501752
150	0x3bee853a	0.0072790654
151	0x3c69e665	0.014276122
152	0xbae798ee	-0.0017669478
153	0x3b2d9f1e	0.0026492546
154	0xbbb2ceba	-0.0054567726
155	0xbb25aadc	-0.0025278842
156	0xbba29a3b	-0.0049622334
157	0x3b02d06d	0.0019960657
158	0xbb4d669c	-0.0031341678
159	0x3c4428b5	0.011972596
160	0x3b71b204	0.0036879787
161	0x3c11ad1f	0.008891373
162	0x3a63d013	0.0008690368
163	0xbc9e57d9	-0.019328998
164	0xbc9dac62	-0.019247238
165	0x3c33d891	0.010976926
166	0xbcb92d60	-0.022604644
167	0x3be60727	0.0070198956
168	0x3c0c3bba	0.008559162
169	0x3ae3368c	0.0017334982
170	0x3c36e21c	0.011162307
171	0x3aee67b8	0.001818887
172	0xbca5c240	-0.020234227
173	0xbae52d68	-0.0017484846
174	0xbc7846ec	-0.015153628
175	0xbb4b7670	-0.0031045936
176	0x3c389c3c	0.011267718
177	0xbc8c957f	-0.017161129
178	0x39fd2d7a	0.00048289803
179	0xbc716132	-0.014732646
180	0xbb581e96	-0.0032977215
181	0x3bc6249a	0.0060468437
182	0x3ad6e3ba	0.0016394772
183	0x3c2447b7	0.010026864
184	0xbbd4ea97	-0.006497692
185	0xbc8fb01f	-0.017540036
186	0x38fe9258	0.000121389225
187	0x3c20cb34	0.009814072
188	0xbba18cea	-0.0049301283
189	0x3c3026a8	0.010751404
190	0x3c936c2d	0.017995918
191	0xbb5c9982	-0.0033660834
192	0x1b3009bd	1.4561525e-22
193	0x1b8e139f	2.350461e-22
194	0x1bb62c0f	3.0137846e-22
195	0x9c1e8e58	-5.246179e-22
196	0x9bcd936f	-3.4009682e-22
197	0x1b987ca5	2.522684e-22
198	0x9ba4b906	-2.7251093e-22
199	0x9b10b950	-1.1971279e-22
200	0x9ac5af4b	-8.176049e-23
201	0x9a948b86	-6.143678e-23
202	0x1b58ab44	1.792244e-22
203	0x9b301711	-1.4565832e-22
204	0x1b251991	1.3656741e-22
205	0x9b129ec7	-1.2128141e-22
206	0x1c1032e5	4.7711383e-22
207	0x9b59852f	-1.7992853e-22
208	0x9beea25d	-3.9478722e-22
209	0x9b8348e4	-2.1719237e-22
210	0x9af6099f	-1.0175876e-22
211	0x1c95e251	9.918494e-22
212	0x1b8e7fda	2.3574552e-22
213	0x9c450291	-6.518515e-22
214	0x1b94c1cf	2.4609792e-22
215	0x1a877838	5.6028915e-23
216	0x9bbd5306	-3.132108e-22
217	0x1b1afb5c	1.28198e-22
218	0x9c27fc82	-5.5582024e-22
219	0x9b47cfab	-1.6527995e-22
220	0x1c32a511	5.9108603e-22
221	0x9b6c9375	-1.9569108e-22
222	0x1c359f76	6.0093975e-22
223	0x9b347841	-1.4928107e-22
224	0x9c0b879a	-4.6166503e-22
225	0x1c5d2b0c	7.3178403e-22
226	0x1b5d2464	1.829245e-22
227	0x1c17113b	4.998398e-22
228	0x1a8ac340	5.7390906e-23
229	0x9bcca8c7	-3.385804e-22
230	0x1bca001e	3.3418172e-22
231	0x1a097281	2.842343e-23
232	0x1b1cbc57	1.2964873e-22
233	0x1c1747a1	5.0054287e-22
234	0x1a9b4a07	6.4226095e-23
235	0x9ab7f17e	-7.607718e-23
236	0x1b6bb276	1.9496408e-22
237	0x9bba71ce	-3.0844663e-22
238	0x9c18eee1	-5.0601325e-22
239	0x19cb1c73	2.1001199e-23
240	0xbb18e012	-0.0023326916
241	0x3b90d004	0.0044193286
242	0xb8114238	-3.4632365e-05
243	0xbc86756c	-0.016413413
244	0xbc9c5082	-0.019081358
245	0xbbc9db98	-0.006160211
246	0x3bb19886	0.0054197935
247	0x3cdff62f	0.02733907
248	0xbc0198dd	-0.007909981
249	0xbc1f00f8	-0.009704821
250	0xbc082c30	-0.008311316
251	0x392b9f74	0.00016367232
252	0xbc890573	-0.016726231
253	0x3b229159	0.0024805872
254	0x3ba5e5a6	0.0050627766
255	0x3c40a1c9	0.011757323

blocks.0.attn.W_K f4 [2, 96, 48]
0	0x1d843d51	3.500351e-21
1	0x1dc04efd	5.090365e-21
2	0x9d86cb3b	-3.567964e-21
3	0x9ea1eda1	-1.7144819e-20
4	0x9e05c76e	-7.0822025e-21
5	0x1e00d946	6.821195e-21
6	0x9e336fc3	-9.499293e-21
7	0x1d602b06	2.9668396e-21
8	0x9debd309	-6.2422187e-21
9	0x9e56187f	-1.1334131e-20
10	0x9d323fca	-2.3591082e-21
11	0x1dbe26a1	5.0332523e-21
12	0x9cf441af	-1.6163544e-21
13	0x9bc8f107	-3.3242985e-22
14	0x1e526674	1.1138494e-20
15	0x9da9b7b3	-4.492387e-21
16	0x1d169cb1	1.9933342e-21
17	0x9e2baa3b	-9.0878675e-21
18	0x1d265e7c	2.2018764e-21
19	0x1f1d2363	3.3275314e-20
20	0x1eb270e7	1.8893178e-20
21	0x9d10fde7	-1.9189506e-21
22	0x1e61430e	1.19252674e-20
23	0x9e148e5e	-7.864496e-21
24	0x9e6d7278	-1.2570347e-20
25	0x1d7a4959	3.3125144e-21
26	0x9db3fa4f	-4.763972e-21
27	0x9d305b8b	-2.3340733e-21
28	0x1e9b2473	1.6426338e-20
29	0x9c2dcb79	-5.750388e-22
30	0x1d25ccd7	2.1943468e-21
31	0x9e5783c6	-1.1409255e-20
32	0x9eec8f83	-2.5046827e-20
33	0x1ede2326	2.3519701e-20
34	0x9e02acde	-6.917891e-21
35	0x1e31c8df	9.411841e-21
36	0x1c24fa81	5.4586817e-22
37	0x9e00ec3a	-6.825114e-21
38	0x1e1cb20a	8.295389e-21
39	0x9dc20949	-5.1360973e-21
40	0x1cb76665	1.2136393e-21
41	0x1ee0d484	2.3804817e-20
42	0x9d988e12	-4.0380962e-21
43	0x1d673acc	3.0602993e-21
44	0x9d4037b4	-2.5439786e-21
45	0x9e5dda77	-1.174482e-20
46	0x9d778205	-3.2757396e-21
47	0x1e0c2297	7.418691e-21
48	0x220b1d9e	1.8853692e-18
49	0x224df902	2.7914504e-18
50	0xa1c3e141	-1.3273338e-18
51	0xa33c300c	-1.0201675e-17
52	0xa291c005	-3.9505637e-18
53	0x2282f15b	3.5492116e-18
54	0xa2bcd511	-5.1183095e-18
55	0x2212f481	1.9916129e-18
56	0xa2861132	-3.633898e-18
57	0xa2ee0c99	-6.4523368e-18
58	0xa1aa7f22	-1.15533e-18
59	0x222f267b	2.3737294e-18
60	0xa1a49d4c	-1.1154708e-18
61	0xa1037d74	-4.455056e-19
62	0x22e07415	6.083823e-18
63	0xa22969de	-2.2959817e-18
64	0x21b63964	1.2347991e-18
65	0xa2af017f	-4.743543e-18
66	0x2190f593	9.822823e-19
67	0x23b47e73	1.9569192e-17
68	0x233446c1	9.772802e-18
69	0xa1e0824e	-1.5213322e-18
70	0x22f3d79a	6.609356e-18
71	0xa2993548	-4.1527147e-18
72	0xa306a9da	-7.300122e-18
73	0x2205d4c3	1.8137496e-18
74	0xa24ac50c	-2.748042e-18
75	0xa18bd3b1	-9.475041e-19
76	0x2322f2a2	8.833417e-18
77	0xa05f43ab	-1.8911224e-19
78	0x21ac4296	1.1672799e-18
79	0xa2f0a346	-6.5225003e-18
80	0xa36c1f44	-1.2800206e-17
81	0x237e612a	1.3789943e-17
82	0xa29e8a54	-4.2972446e-18
83	0x22c125a4	5.235261e-18
84	0x20a04c6a	2.715562e-19
85	0xa29181a3	-3.9439587e-18
86	0x22a8bc8c	4.5736123e-18
87	0xa2585d12	-2.932273e-18
88	0x2117b32b	5.1397917e-19
89	0x236fbf28	1.2996695e-17
90	0xa2278d95	-2.2707673e-18
91	0x22080e5f	1.8439045e-18
92	0xa1bd61e0	-1.2833045e-18
93	0xa2ec2e03	-6.4016645e-18
94	0xa1d62c55	-1.4512939e-18
95	0x2293b7d9	4.0039086e-18
96	0x1f857614	5.6523035e-20
97	0x1fbabc9c	7.908609e-20
98	0x9eb21804	-1.8856416e-20
99	0xa0a63120	-2.8154002e-19
100	0xa00298d4	-1.1061995e-19
101	0x1ffe7a14	1.07775146e-19
102	0xa03921b7	-1.5681265e-19
103	0x1f78f3e4	5.2717784e-20
104	0x9feb8587	-9.9747274e-20
105	0xa062880e	-1.9187961e-19
106	0x9ea6fca9	-1.7680431e-20
107	0x1f99472c	6.4915764e-20
108	0x9f069aa4	-2.850352e-20
109	0x9e278b84	-8.8697575e-21
110	0x204bfc87	1.7278323e-19
111	0x9fad8d12	-7.350173e-20
112	0x1f2124de	3.4123572e-20
113	0xa02f422a	-1.4844968e-19
114	0x1f38d424	3.9138994e-20
115	0x21184ecc	5.160389e-19
116	0x209eef07	2.6924416e-19
117	0x9e99cb47	-1.6283579e-20
118	0x20542a4a	1.7971091e-19
119	0xa015c40a	-1.2685655e-19
120	0xa05d60f3	-1.8751506e-19
121	0x1f760863	5.2099464e-20
122	0x9fae188c	-7.3732476e-20
123	0x9f13e92f	-3.1321346e-20
124	0x209541f0	2.5285216e-19
125	0x9df6dbf8	-6.53431e-21
126	0x1f1ed13d	3.363088e-20
127	0xa05713bb	-1.8217737e-19
128	0xa0deab0f	-3.772146e-19
129	0x20ded257	3.7747454e-19
130	0x9ff599e7	-1.04016146e-19
131	0x2030a6ee	1.4963012e-19
132	0x1e09e670	7.300373e-21
133	0x9ff0b8be	-1.01949584e-19
134	0x201899a4	1.2925736e-19
135	0x9fbfe0df	-8.1263664e-20
136	0x1ea30edf	1.7264447e-20
137	0x20ec8a2d	4.0071392e-19
138	0x9fa6991e	-7.0557046e-20
139	0x1f699b06	4.94679e-20
140	0x9f36f440	-3.8742038e-20
141	0xa0560111	-1.8126858e-19
142	0x9f7fa81b	-5.4137404e-20
143	0x2016bfef	1.2769e-19
144	0x3970d7d0	0.0002296858
145	0x3bad628d	0.005291289
146	0x3b9b624e	0.0047419434
147	0xbc8436f6	-0.016139489
148	0xbca76499	-0.02043371
149	0xbc1f7d69	-0.00973449
150	0x3c427de9	0.01187084
151	0x3ca58a6b	0.020207604
152	0x3a242f7a	0.0006263178
153	0x396300ba	0.00021648678
154	0x3a71304a	0.0009200616
155	0xbbf300aa	-0.0074158506
156	0xbc9d9c22	-0.019239489
157	0xb9fd0288	-0.00048257806
158	0xbab42022	-0.0013742486
159	0x3bebb0fc	0.007192729
160	0xbc3fb73d	-0.011701402
161	0x3b397a31	0.0028301592
162	0xbbc99ae3	-0.006152497
163	0x3c14f3fb	0.009091373
164	0xbc0d3f7a	-0.008621091
165	0xbb7cb717	-0.0038561278
166	0xbc783378	-0.01514899
167	0x3b7b3058	0.0038328376
168	0xbbcafea9	-0.0061949086
169	0x3b355113	0.0027666732
170	0x3cb49b21	0.022046627
171	0x3a1bb7aa	0.0005940149
172	0xbc88229f	-0.016618071
173	0xbcb80afb	-0.022466173
174	0xbc292e58	-0.010325991
175	0xb96e0558	-0.0002269944
176	0xbbc1c685	-0.005913558
177	0x3c12de25	0.008964096
178	0xbc1b2ca3	-0.009471091
179	0x3c97c959	0.018528627
180	0xbaa575b3	-0.0012623578
181	0xbc2b84e1	-0.0104686925
182	0x3c2a93db	0.010411228
183	0x3bf0aabf	0.0073445733
184	0xbb981205	-0.00464082
185	0xbc0d7e80	-0.008636117
186	0x3b710ff1	0.0036783183
187	0x3b7ccbce	0.0038573625
188	0x3c5538e9	0.013014057
189	0x3b2d18ab	0.0026412408
190	0x3c575325	0.013142382
191	0xbb77a92a	-0.0037790039
192	0x1ac72cc7	8.237681e-23
193	0x1b092aeb	1.1346242e-22
194	0x186f1256	3.0899283e-24
195	0x9be66b16	-3.811951e-22
196	0x9b3f5f55	-1.5829953e-22
197	0x1b4a9402	1.6756872e-22
198	0x9b87998d	-2.2433106e-22
199	0x1a900d65	5.9578644e-23
200	0x9b25147e	-1.3655101e-22
201	0x9ba45339	-2.7185305e-22
202	0x99ea2c8a	-2.4213022e-23
203	0x1b305fd0	1.4589337e-22
204	0x99f13ec4	-2.4944167e-23
205	0x99d74d10	-2.2261604e-23
206	0x1b972f5e	2.5011465e-22
207	0x9afc4647	-1.04338296e-22
208	0x1a537e98	4.373604e-23
209	0x9b6dd3f1	-1.9672662e-22
210	0x1a3b6f09	3.8760387e-23
211	0x1c5049f1	6.8916994e-22
212	0x1c0a11e0	4.5683473e-22
213	0x9ad22dff	-8.6928275e-23
214	0x1b977d59	2.5061859e-22
215	0x9b4c4c0a	-1.6899054e-22
216	0x9b93c839	-2.44485e-22
217	0x1ab566d5	7.502598e-23
218	0x9b02b9f1	-1.0813429e-22
219	0x9a7cd110	-5.2281258e-23
220	0x1be302ae	3.7555732e-22
221	0x98054c1c	-1.7228273e-24
222	0x1a8ead04	5.9009345e-23
223	0x9b99bbd5	-2.543311e-22
224	0x9c1b44dd	-5.13742e-22
225	0x1c1b42a0	5.137131e-22
226	0x9b1c32e5	-1.2920462e-22
227	0x1b8088e4	2.1264287e-22
228	0x19801142	1.324186e-23
229	0x9b2a89a7	-1.4106548e-22
230	0x1b5fe7ca	1.8521023e-22
231	0x9aece539	-9.797764e-23
232	0x19dad3f3	2.2626277e-23
233	0x1c25bc26	5.4837097e-22
234	0x9ac49f5d	-8.1321165e-23
235	0x1a948661	6.1428466e-23
236	0x9a871c47	-5.5880376e-23
237	0x9b971c7e	-2.4999267e-22
238	0x9ae8ac90	-9.623174e-23
239	0x1b55ae45	1.7675257e-22
240	0xbb45674c	-0.0030121384
241	0x3b7a1567	0.003815973
242	0x3b817632	0.0039508576
243	0xbc297532	-0.010342883
244	0xbc606c44	-0.013697688
245	0x3a8a6ad5	0.0010560403
246	0xbb086e29	-0.0020817614
247	0x3c8f0fcb	0.017463585
248	0xbc12e277	-0.008965126
249	0xbbf64500	-0.0075155497
250	0xbbe21688	-0.0068996586
251	0xb9e95673	-0.00044505633
252	0xbb9bf1f6	-0.0047590686
253	0x3a83e3e2	0.0010062421
254	0x3c307b32	0.01077156
255	0x3c093e74	0.008376706

blocks.0.attn.W_V f4 [2, 96, 48]
0	0x9d59e8aa	-2.8839995e-21
1	0x1fd6c2c6	9.095475e-20
2	0x1ea72049	1.7695166e-20
3	0x1e379013	9.717733e-21
4	0x9e0dc64b	-7.505484e-21
5	0x9e605365	-1.1875707e-20
6	0x1f211735	3.4112273e-20
7	0x9f50d2d8	-4.422012e-20
8	0x9f108c8c	-3.0609444e-20
9	0x9fb436e2	-7.632376e-20
10	0xa0151918	-1.2629094e-19
11	0x9f18f1c5	-3.238724e-20
12	0x9f106608	-3.0577584e-20
13	0x9f1f47a1	-3.372881e-20
14	0x1f7e39dd	5.3834456e-20
15	0x9f8bf213	-5.926927e-20
16	0x9eaa365e	-1.8021936e-20
17	0x2032c7c3	1.5143282e-19
18	0x9f9c7ce7	-6.6275203e-20
19	0x9fab5598	-7.256292e-20
20	0x9ea96006	-1.7933285e-20
21	0x1f41902f	4.0988606e-20
22	0x1f47eb6c	4.2334626e-20
23	0x1e255bb7	8.7539935e-21
24	0x9f0143fd	-2.737305e-20
25	0x1eb5f909	1.9267119e-20
26	0x9fd73ddd	-9.1158386e-20
27	0x9fe59b22	-9.724192e-20
28	0xa04865b8	-1.6974315e-19
29	0x1efef3b9	2.6994097e-20
30	0x9f3b7cd0	-3.9702033e-20
31	0x1fabf083	7.281921e-20
32	0x1f6fd2b8	5.078452e-20
33	0x9e819fc8	-1.372449e-20
34	0x1f77d48a	5.2480093e-20
35	0x9f3143b5	-3.7537214e-20
36	0x9ee2ae51	-2.4000776e-20
37	0x9fc84ba1	-8.482841e-20
38	0x1fdc9bf5	9.3431633e-20
39	0x9ed0f480	-2.212398e-20
40	0x1c0948dd	4.542367e-22
41	0x1f066c22	2.846505e-20
42	0x1f1c395e	3.3081738e-20
43	0x9eaa7e5c	-1.8051711e-20
44	0x1f54f97f	4.5099125e-20
45	0x9e25dd7f	-8.7808316e-21
46	0x9eb1ca1a	-1.8824191e-20
47	0x9f0dafeb	-3.0003427e-20
48	0xa0dd1d93	-3.7458427e-19
49	0x2485c2ef	5.8009786e-17
50	0x232937ec	9.17335e-18
51	0x22f6afe8	6.686468e-18
52	0xa1327574	-6.0464194e-19
53	0xa32a3ae1	-9.2281866e-18
54	0x23bdb2ae	2.0567095e-17
55	0xa4124931	-3.17207e-17
56	0xa3bbac9a	-2.034768e-17
57	0xa47091da	-5.2165245e-17
58	0xa4dd45f4	-9.596198e-17
59	0xa4023db4	-2.824152e-17
60	0xa3c30ad5	-2.114653e-17
61	0xa40227e7	-2.8223055e-17
62	0x24459c6e	4.2850067e-17
63	0xa4497eb1	-4.369224e-17
64	0xa34b99e2	-1.1037238e-17
65	0x24fa1992	1.08463535e-16
66	0xa47ccb9a	-5.4816247e-17
67	0xa4474125	-4.3206426e-17
68	0xa35f3c28	-1.2101593e-17
69	0x2418e8e5	3.3157015e-17
70	0x23f75db1	2.6819474e-17
71	0xa1e7cf77	-1.5708084e-18
72	0xa3a44af9	-1.7812668e-17
73	0x235995af	1.179529e-17
74	0xa499b2b4	-6.665591e-17
75	0xa4926a33	-6.3497315e-17
76	0xa519146f	-1.3277558e-16
77	0x23a2f027	1.7665784e-17
78	0xa3c11124	-2.0932361e-17
79	0x244fe3a2	4.5078782e-17
80	0x241e7a73	3.4364507e-17
81	0xa31ae66b	-8.39715e-18
82	0x241a025f	3.3395435e-17
83	0xa3f87ab1	-2.6940176e-17
84	0xa3877651	-1.4686838e-17
85	0xa4929698	-6.357252e-17
86	0x24868d1a	5.835227e-17
87	0xa33a7a9b	-1.0109043e-17
88	0xa23d8473	-2.5684394e-18
89	0x239f6752	1.7282572e-17
90	0x23c0b3c4	2.0892815e-17
91	0xa38bfa83	-1.5176506e-17
92	0x242740ea	3.6267337e-17
93	0xa34f7ec4	-1.1248336e-17
94	0xa3adaa75	-1.8828889e-17
95	0xa3614b76	-1.2213254e-17
96	0x9fb5f4e4	-7.706162e-20
97	0x21bb7077	1.2701382e-18
98	0x20a2cda2	2.7579944e-19
99	0x20272e05	1.4160677e-19
100	0xa084ef3a	-2.2519977e-19
101	0xa0519952	-1.7753718e-19
102	0x2116190b	5.085512e-19
103	0xa13c7a53	-6.385877e-19
104	0xa0d4b69c	-3.6035038e-19
105	0xa1904313	-9.775574e-19
106	0xa1f1fe5c	-1.6398124e-18
107	0xa0b6d61b	-3.0973682e-19
108	0xa13c4752	-6.379127e-19
109	0xa0ff200c	-4.3219887e-19
110	0x216a0668	7.929076e-19
111	0xa1736dee	-8.2477093e-19
112	0xa07a3cd4	-2.119595e-19
113	0x221c31d1	2.1168315e-18
114	0xa1595b79	-7.3643523e-19
115	0xa1b62b8d	-1.2344328e-18
116	0xa09bd18f	-2.6396696e-19
117	0x211f3c1a	5.395084e-19
118	0x21109bec	4.899546e-19
119	0x20c19358	3.2792976e-19
120	0xa0fc3a4f	-4.2729046e-19
121	0x20ccafbd	3.4675238e-19
122	0xa1bea8c8	-1.2919577e-18
123	0xa1c8fd03	-1.3619499e-18
124	0xa210cdcf	-1.9624593e-18
125	0x20ee9fd0	4.0424523e-19
126	0xa058c4ab	-1.8360984e-19
127	0x21b86c04	1.2496916e-18
128	0x215a7513	7.401622e-19
129	0xa082648b	-2.208939e-19
130	0x21668d19	7.811377e-19
131	0xa1113e73	-4.921056e-19
132	0xa0ea36cf	-3.967741e-19
133	0xa192dde4	-9.952079e-19
134	0x21dcce3d	1.4962371e-18
135	0xa117845b	-5.133596e-19
136	0x1f82c5d2	5.538441e-20
137	0x2116add9	5.105206e-19
138	0x20f3ec61	4.1322224e-19
139	0xa0810643	-2.1857594e-19
140	0x20d75853	3.6480865e-19
141	0x200a0613	1.1691064e-19
142	0xa0508499	-1.7662158e-19
143	0xa15d34ab	-7.494742e-19
144	0xbc40db1c	-0.01177099
145	0x3afb8024	0.0019187969
146	0xbcafc681	-0.021456959
147	0x3c69c1ec	0.014267426
148	0xbcbf3e29	-0.02334507
149	0x3d1dff2f	0.03857344
150	0xbba685dd	-0.0050818757
151	0xbd7aa465	-0.061191935
152	0xbc15843a	-0.009125764
153	0x3d0d635e	0.034518592
154	0xbcc9f6c7	-0.024653805
155	0x394f0122	0.0001974148
156	0x3bb5f9df	0.0055534686
157	0xbc0c2f75	-0.0085562365
158	0xbd82a7b4	-0.06379643
159	0xbb37a890	-0.0028024055
160	0xbbdc5fcc	-0.006725287
161	0xbb256f4b	-0.0025243338
162	0x3acc727b	0.0015598083
163	0x3d2f8987	0.042855766
164	0x3c0c97f3	0.008581149
165	0x3cb996d3	0.022654926
166	0x3b3860d9	0.0028133898
167	0xbc38419b	-0.01124611
168	0xb98cb708	-0.0002683925
169	0x3c0884e3	0.008332464
170	0x3d0e79f1	0.03478426
171	0x3c4ac0ba	0.012375051
172	0xbc9ee6ef	-0.019397227
173	0xbd95e6de	-0.07319425
174	0x3ca59ea1	0.020217242
175	0x3b110eee	0.0022134143
176	0xbad77129	-0.0016436923
177	0x3d1eb49d	0.038746465
178	0xbd853673	-0.06504526
179	0x3ce69755	0.028148333
180	0xbcf3c92a	-0.029759008
181	0xbc453751	-0.012037114
182	0xbd290d97	-0.041272726
183	0x3b139453	0.0022518828
184	0x3c91d669	0.017802434
185	0xbb8207d1	-0.003968217
186	0xbc6f0ba3	-0.014590177
187	0xbb3d3edb	-0.0028876576
188	0xba5c9d3e	-0.0008415765
189	0x3cdf7a6f	0.02728006
190	0xbb6af199	-0.003584957
191	0x3cd90d2b	0.026495537
192	0x9ab26d1d	-7.3795357e-23
193	0x1d10abb3	1.9147008e-21
194	0x1bee9036	3.9466991e-22
195	0x1b7553bf	2.0292985e-22
196	0x9b84b0cb	-2.1951818e-22
197	0x9b951363	-2.466251e-22
198	0x1c6890e9	7.6949653e-22
199	0x9c89dc5a	-9.122859e-22
200	0x9c20f3f8	-5.325488e-22
201	0x9ce75048	-1.530705e-21
202	0x9d30b4c2	-2.3386856e-21
203	0x9c32de77	-5.918279e-22
204	0x9c7e12eb	-8.4066e-22
205	0x9c42d3aa	-6.4462785e-22
206	0x1c94c539	9.844799e-22
207	0x9cab323f	-1.1328819e-21
208	0x9ba19232	-2.6729692e-22
209	0x1d77c903	3.2794098e-21
210	0x9cb09bd2	-1.1686982e-21
211	0x9d043243	-1.749604e-21
212	0x9be6e39c	-3.8197397e-22
213	0x1c6f6e6c	7.9221183e-22
214	0x1c73a0cf	8.0609796e-22
215	0x1c0be8ed	4.629229e-22
216	0x9c38649f	-6.1010543e-22
217	0x1c0b4737	4.6083285e-22
218	0x9d101057	-1.9066689e-21
219	0x9d1f75d0	-2.1104382e-21
220	0x9d81dd8b	-3.4375086e-21
221	0x1c330d4d	5.9243323e-22
222	0x9c283ee9	-5.5667847e-22
223	0x1cf5e699	1.6272348e-21
224	0x1ca66c24	1.1012912e-21
225	0x9bc3e879	-3.2410276e-22
226	0x1caeca95	1.156672e-21
227	0x9c78f2a6	-8.236993e-22
228	0x9c1fc05d	-5.285731e-22
229	0x9cf32962	-1.6091088e-21
230	0x1d1df656	2.090613e-21
231	0x9c32837a	-5.906519e-22
232	0x1aadbcf7	7.185641e-23
233	0x1c4ea601	6.837424e-22
234	0x1c3d99b6	6.273352e-22
235	0x9c0066d7	-4.2484565e-22
236	0x1c61742f	7.459642e-22
237	0x1a837738	5.437294e-23
238	0x9b74e8f9	-2.0258484e-22
239	0x9c7804ab	-8.206235e-22
240	0xbcbc05df	-0.022952018
241	0xbc52f3d8	-0.01287552
242	0x3c2a10d4	0.010379989
243	0x3b7e37b6	0.003879053
244	0x3cdf898e	0.02728727
245	0xba8c3064	-0.0010695574
246	0xbcc69449	-0.02424063
247	0x3d0f713a	0.03502009
248	0x3d0138a0	0.031548142
249	0x3cd57bb1	0.026059957
250	0x3d2f079f	0.042731877
251	0xbd4f0d98	-0.050550073
252	0xbc668916	-0.01407077
253	0xbc8aed0f	-0.016958741
254	0xbc494ed1	-0.012286858
255	0x3cbeb829	0.023281174

blocks.0.attn.W_O f4 [2, 48, 96]
0	0xba53db51	-0.0008081692
1	0xba551444	-0.0008128325
2	0xba53e7cb	-0.0008083551
3	0xbba244b9	-0.00495204
4	0xba53ebce	-0.0008084149
5	0xbb269c6b	-0.0025422822
6	0xba53f7cc	-0.0008085936
7	0xba53f15f	-0.00080849783
8	0xba53cddc	-0.00080796867
9	0x3ccc5662	0.024943534
10	0x3b9defc0	0.00481984
11	0xba53f0f5	-0.00080849166
12	0xba53a0ac	-0.0008072953
13	0xba53db34	-0.0008081675
14	0x3c460717	0.012086651
15	0xba540bfa	-0.0008088943
16	0xba53c306	-0.0008078072
17	0xbac82987	-0.0015271165
18	0x3c4f26f2	0.012643563
19	0xba541200	-0.00080898404
20	0xba53fe6c	-0.0008086923
21	0xbd1d0a81	-0.038340095
22	0xba511ded	-0.00079771766
23	0xbcac0ccd	-0.021002198
24	0xba540f51	-0.00080894405
25	0x3bd46b02	0.006482483
26	0xba53c73c	-0.00080786995
27	0xbd0f33df	-0.034961578
28	0xba539e05	-0.0008072558
29	0xba53c1ac	-0.00080778706
30	0x3c81a490	0.01582554
31	0xba53c119	-0.0008077785
32	0x3be19bce	0.0068850284
33	0x3c94401e	0.01809698
34	0xba53eb23	-0.00080840493
35	0xba53eaf8	-0.00080840243
36	0x3c81106d	0.015754903
37	0xba53ddbe	-0.00080820534
38	0xba53cbbd	-0.00080793706
39	0xbc479ae9	-0.01218293
40	0xba53955c	-0.00080712675
41	0xba535ff6	-0.00080633105
42	0x3cbe49c5	0.023228535
43	0xba53f13e	-0.0008084959
44	0xbc88b164	-0.016686149
45	0xba53fc51	-0.00080866093
46	0x3d649bc5	0.055812616
47	0x3ca1f025	0.01976783
48	0xba53aded	-0.0008074928
49	0xba53e7a6	-0.00080835295
50	0xba53b658	-0.00080761826
51	0xba541bdc	-0.00080913096
52	0xba3758f3	-0.00069941505
53	0x3bb31e6e	0.005466274
54	0xba540c3c	-0.0008088981
55	0xba539950	-0.00080718566
56	0x3cf014d7	0.029306812
57	0xba54dbb1	-0.0008119895
58	0xba53ad17	-0.00080748036
59	0xba541e14	-0.000809164
60	0xba53d417	-0.0008080615
61	0xba53ceb7	-0.0008079814
62	0xba53fb65	-0.0008086472
63	0xba53e13b	-0.0008082573
64	0xba553853	-0.0008133698
65	0xba53f51e	-0.00080855365
66	0xba53be7a	-0.00080773945
67	0xba540824	-0.0008088371
68	0xbbe87f3a	-0.0070952447
69	0xba545825	-0.0008100293
70	0xba540dfa	-0.0008089241
71	0xba540f04	-0.00080893957
72	0xba5484ec	-0.0008106965
73	0xbc099550	-0.008397415
74	0xba541f2e	-0.00080918043
75	0xba53d9fe	-0.00080814946
76	0xbc70a7e6	-0.014688468
77	0xba53fbb3	-0.00080865173
78	0xba552a15	-0.0008131576
79	0xbcaf4aa3	-0.021397894
80	0xba53db16	-0.00080816576
81	0xba5421b5	-0.0008092181
82	0xbc953489	-0.018213527
83	0xba53ca55	-0.0008079161
84	0xba54f0de	-0.000812305
85	0xbcc314a1	-0.023813548
86	0xba53e911	-0.0008083741
87	0xba53bb09	-0.00080768816
88	0xba51b1c8	-0.0007999209
89	0xba5501ba	-0.00081255625
90	0x3b718418	0.0036852416
91	0xbcb1e12d	-0.021713817
92	0xba541c2a	-0.0008091355
93	0xba538e77	-0.000807024
94	0xba53e7f6	-0.0008083576
95	0xba53bd45	-0.00080772146
96	0xbba96eda	-0.0051706852
97	0xbba9dcd7	-0.005183797
98	0xbba95347	-0.005167398
99	0x3d0b2626	0.033971928
100	0xbba95b5c	-0.0051683616
101	0xbcd69b9d	-0.02619725
102	0xbba943d3	-0.005165556
103	0xbba96335	-0.005169297
104	0xbba9647a	-0.0051694484
105	0x3d6b4cab	0.057446163
106	0x3d23f8ba	0.040032126
107	0xbba945a9	-0.005165775
108	0xbba9a1df	-0.0051767672
109	0xbba94966	-0.0051662205
110	0x3db58477	0.08863156
111	0xbba963a4	-0.005169349
112	0xbba94db3	-0.005166733
113	0xbc40592b	-0.011740009
114	0x3c1fe575	0.009759297
115	0xbba967b7	-0.0051698345
116	0xbba95621	-0.005167738
117	0xbc5c99c5	-0.013464396
118	0xbbaaf755	-0.0052174726
119	0x3c8fc693	0.017550742
120	0xbba984a2	-0.0051732818
121	0xbc17f83b	-0.009275491
122	0xbba94850	-0.005166091
123	0xbc6d55ab	-0.014485757
124	0xbba9529c	-0.0051673185
125	0xbba953f4	-0.0051674787
126	0x3c8a5451	0.016885908
127	0xbba9490f	-0.00516618
128	0x3beee30f	0.007290251
129	0xbd5e3aff	-0.05425548
130	0xbba948c5	-0.0051661455
131	0xbba947e1	-0.0051660393
132	0x3bba8f38	0.0056933425
133	0xbba941da	-0.005165321
134	0xbba94a9d	-0.0051663653
135	0xbc67fa04	-0.014158729
136	0xbba9547d	-0.0051675425
137	0xbba93e8c	-0.005164927
138	0xbb8c6fe0	-0.0042857975
139	0xbba941e9	-0.005165328
140	0x3db8bddf	0.0902059
141	0xbba94baa	-0.0051664906
142	0x3d3ea4f3	0.046544027
143	0xbc968fe8	-0.018379167
144	0xbba945e9	-0.0051658046
145	0xbba95c75	-0.0051684924
146	0xbba94e71	-0.0051668216
147	0xbba961a3	-0.00516911
148	0xbbac546b	-0.005259087
149	0xbca8b321	-0.020593228
150	0xbba950bb	-0.0051670945
151	0xbba95888	-0.0051680245
152	0xbbb06bbb	-0.005383936
153	0xbba9d928	-0.0051833577
154	0xbba9c1fa	-0.0051805945
155	0xbba965fc	-0.005169628
156	0xbba95671	-0.0051677753
157	0xbba96ac8	-0.0051702
158	0xbba9730a	-0.0051711844
159	0xbba9418a	-0.0051652836
160	0xbbab685e	-0.0052309474
161	0xbba94a1f	-0.0051663066
162	0xbba952a8	-0.005167324
163	0xbba97b75	-0.005172188
164	0xbcab1e8c	-0.02088859
165	0xbba9cdd6	-0.0051820083
166	0xbba9488b	-0.0051661185
167	0xbba952f2	-0.0051673586
168	0xbba98222	-0.0051729837
169	0x3b36fd08	0.0027921814
170	0xbba940ba	-0.0051651867
171	0xbba9576f	-0.0051678936
172	0xbbe3695c	-0.00694005
173	0xbba96f79	-0.0051707593
174	0xbbadae2a	-0.005300303
175	0x3b1822d9	0.002321413
176	0xbba96319	-0.005169284
177	0xbba9dc48	-0.0051837303
178	0x3d3716aa	0.04469935
179	0xbba999f3	-0.005175823
180	0xbbaab92a	-0.0052100616
181	0x38197e5c	3.6595724e-05
182	0xbba966de	-0.0051697334
183	0xbba942cc	-0.0051654335
184	0xbbaa1ff6	-0.0051917983
185	0xbbaa3307	-0.005194071
186	0x3d918dc5	0.071071185
187	0x3c6e963f	0.014562189
188	0xbba979b7	-0.0051719802
189	0xbba9468a	-0.0051658796
190	0xbba954fc	-0.0051676016
191	0xbba969ca	-0.0051700817
192	0xbb62b280	-0.0034591258
193	0xbb624ac9	-0.0034529439
194	0xbb62cb0c	-0.0034605889
195	0xbd3c4690	-0.04596573
196	0xbb629d99	-0.0034578799
197	0x3c87c6f8	0.016574368
198	0xbb62c9ab	-0.0034605067
199	0xbb62a5b0	-0.003458362
200	0xbb62ca30	-0.0034605376
201	0x3ceeebdd	0.029165203
202	0x3d956fdf	0.07296728
203	0xbb62c528	-0.0034602378
204	0xbb626ff7	-0.00345516
205	0xbb62c4f3	-0.0034602254
206	0xbc94a96b	-0.018147191
207	0xbb628eff	-0.0034570096
208	0xbb62dce0	-0.0034616515
209	0x3d1d8329	0.038455162
210	0xbc6e66f4	-0.014550913
211	0xbb6289ac	-0.0034566922
212	0xbb62ba79	-0.003459601
213	0x3b96a25f	0.004596993
214	0xbb611682	-0.003434569
215	0xbc68b500	-0.01420331
216	0xbb62a30f	-0.0034582054
217	0xbcba8f59	-0.022773432
218	0xbb62e0e0	-0.00346189
219	0x3bafed98	0.0053688996
220	0xbb62cccf	-0.0034606939
221	0xbb62b5c6	-0.0034593209
222	0xb95b9cd3	-0.00020943889
223	0xbb62ac3f	-0.003458753
224	0x3c763f6a	0.0150297675
225	0x3d0679af	0.03283089
226	0xbb62c684	-0.0034603188
227	0xbb62ce4a	-0.003460782
228	0xbb051ec2	-0.0020312523
229	0xbb62d42a	-0.0034611323
230	0xbb62d04b	-0.0034609016
231	0x3c891ded	0.016737903
232	0xbb62bb1d	-0.0034596391
233	0xbb62c8c9	-0.003460454
234	0xbcd4af6f	-0.02596256
235	0xbb62bfdc	-0.003459922
236	0xbbe7320a	-0.0070555257
237	0xbb62c506	-0.0034602298
238	0x3d3d1ec5	0.046171922
239	0x3cc2dd09	0.023787038
240	0xbb62cd88	-0.003460737
241	0xbb62ac04	-0.0034587393
242	0xbb62b071	-0.003459003
243	0xbb62b46f	-0.003459241
244	0xbb5f97fc	-0.003411769
245	0x3c5a5621	0.013326199
246	0xbb62c2c4	-0.0034600953
247	0xbb62c705	-0.0034603488
248	0x3c5fb5b3	0.01365416
249	0xbb629e7f	-0.0034579334
250	0xbb623b9c	-0.0034520393
251	0xbb62b26b	-0.0034591209
252	0xbb62c010	-0.0034599341
253	0xbb62bdd5	-0.0034598012
254	0xbb62b974	-0.0034595402
255	0xbb62cfe9	-0.0034608787
