chapter1_transformers/exercises/monthly_algorithmic_problems/september23_sum/sum_model_normal.pt (torch, 132619 bytes, 26 tensors)

embed.W_E f4 [13, 48]
000000 77 e7 1b 3c 40 1f 85 3e 60 8a 07 3e 19 e0 0e be
       0.009515635 0.26000404 0.1323638 -0.13952674
000010 45 1d de 3d 3d 15 53 bd d3 52 92 3c 28 37 db bd
       0.108454265 -0.051533926 0.01786176 -0.107038796
000020 dc 4b af bd f1 59 78 3d 0c 81 82 bd 39 b7 28 be
       -0.08559391 0.06063265 -0.0637227 -0.16476144
000030 a7 bf 7c bd e6 f6 fc 3d a0 d2 0d be 51 80 e4 3d
       -0.06170621 0.1235178 -0.13849878 0.11157287
000040 1a 4b 1c 3e bd 99 6c 3d 72 12 15 bd 54 4c 2f 3d
       0.15263024 0.057763804 -0.036394544 0.0427974
000050 6a d0 ca 3d 8f b3 02 3e 5d 3f cd 3d 20 4e 58 3e
       0.09903033 0.12763809 0.10021851 0.21123552
000060 59 b5 1f 3d 9b d5 e2 3d c8 0e 6e bd 5d 52 a4 3d
       0.038991306 0.11075898 -0.058119565 0.08023522
000070 c3 34 9e bc ee 81 16 be a8 06 81 bd 5c 63 29 bc
       -0.019312268 -0.14698002 -0.06300098 -0.0103386305
000080 a4 fd b0 bd 7e 0f f2 bd 44 fd f6 bc 1b 2d 9e 3d
       -0.08642128 -0.11819361 -0.030150063 0.07723447
000090 fb 93 11 3e ae 3f b9 bd f1 54 7e bd c6 b3 3b be
       0.14216606 -0.09045349 -0.062092725 -0.18330297
0000a0 44 aa b6 bd 75 da 6e 3d df c3 c1 3d 28 2c 25 3d
       -0.08919194 0.058313806 0.094611876 0.040325314
0000b0 46 5f 27 be 56 12 4b 3d 3c 43 bd bd f6 28 cb bd
       -0.16344938 0.049578033 -0.092413396 -0.09919922
0000c0 4d d1 61 be e7 fe 32 3d 3a 59 2f 3e 91 cf ae bc
       -0.22052498 0.043700125 0.17123881 -0.02133921
0000d0 4e d3 63 3d 29 08 15 3e 16 c3 c4 bd 0e 47 1e be
       0.055621438 0.14553894 -0.09607522 -0.15456793
0000e0 93 1e 85 be 95 d9 9c 3c c2 b5 9c bb 45 9c 0f bd
       -0.2599989 0.01914672 -0.0047824094 -0.03506114
0000f0 c1 4e 73 3d ef 71 77 3e f4 11 95 bd 33 0e 19 3e
       0.059401277 0.24164556 -0.07278815 0.14946823
000100 07 e4 32 3e 3a 0b 85 3d 5e 5c 35 3e 0c a6 d7 3d
       0.17469798 0.06496282 0.17711017 0.10529718
000110 43 e0 99 3d a9 c4 d2 3c 33 46 06 bd e5 46 01 3e
       0.07513478 0.02572854 -0.03278179 0.126247
000120 bc cc 99 bc e8 17 42 3e b9 ce 8b bd 2f 92 dc 3c
       -0.018774383 0.18954432 -0.068265386 0.026925175
000130 32 3a 1a bd ac a7 13 be 08 5f 63 be bf 63 ef bd
       -0.037653156 -0.1441943 -0.2220422 -0.11688947
000140 44 7c 7a bd 3b e3 56 bc 56 6a 1c be bf 97 89 bd
       -0.061153665 -0.013115699 -0.15274939 -0.067183964
000150 eb f8 ab 3d 7f 46 c0 3b 9e a4 c5 3d 88 aa ae 3c
       0.08397087 0.005867779 0.09650539 0.02132155
000160 88 f5 79 3d bd 3f 90 bd 91 44 85 bd 58 54 31 3e
       0.061025172 -0.07043407 -0.06507219 0.17317331
000170 cb 2b 1a be ea ae b6 bd 3a 5f a4 3d d4 7b cf bd
       -0.15055768 -0.08920081 0.080259755 -0.1013104
000180 08 41 a0 be 04 08 d2 3d f3 64 55 3e 2c bc f2 bc
       -0.31299615 0.10255435 0.2083929 -0.029630743
000190 b8 a7 bd 3d 50 98 56 3e b7 68 98 3d a4 b8 ea bd
       0.092605054 0.2095654 0.07441848 -0.11460999
0001a0 fb bb c5 bd 32 19 80 3e f0 38 f2 3b 98 c8 c7 bc
       -0.09654995 0.25019222 0.0073920414 -0.024387643
0001b0 90 18 9f 3d 2d 4c 85 3e ad fe 8d bd 24 0b 34 3d
       0.07768357 0.2603468 -0.06933341 0.043955937
0001c0 e8 96 39 be 35 8b 83 3c 4b 86 b6 3d 22 c4 f8 3d
       -0.18123972 0.01605759 0.08912333 0.12146784
0001d0 ba 21 cf 3d ff 06 cc 3c 87 b0 5d bd 04 28 d9 3d
       0.10113855 0.02490568 -0.054123428 0.106033355
0001e0 fd df 65 bc 1f a7 cd 3c fa 81 9a 3d ef 87 0a 3e
       -0.014030454 0.025104104 0.07544322 0.13528417
0001f0 4f 9c 0a 3d a0 b1 93 bc 23 03 6e bb 48 58 b9 bb
       0.033840474 -0.018029034 -0.0036317788 -0.005656276
000200 ea c2 24 3e 8a 95 e8 3c 4a da bd bd ab a7 2e be
       0.16089979 0.028391618 -0.09270151 -0.17056148
000210 cc 80 f3 3b 15 24 ed 3c 92 6f 1b 3e dd 4b 37 3e
       0.0074311253 0.02894787 0.1517928 0.17900033
000220 7e af 28 3e 6b f7 b0 3c 11 a4 8e be 4a 84 3e 3e
       0.16473195 0.021602353 -0.27859548 0.18605152
000230 e4 24 59 be b7 3f 57 3c 51 01 a7 3c 53 18 44 3a
       -0.21205479 0.013137749 0.02038637 0.0007480431
000240 e9 5d a3 be 83 3a 82 3d 51 a7 ac 3e 29 94 03 3e
       -0.31907585 0.063588165 0.33721402 0.12849487
000250 3d d6 57 bc 10 7c 4d bc e7 8c 17 3d a6 bd e3 ba
       -0.013173637 -0.012541786 0.03699961 -0.0017375245
000260 bd 59 c2 bc 39 60 99 3e 5f e5 43 3c 0b 13 c3 3d
       -0.023724431 0.29956225 0.011956542 0.095251165
000270 59 ef 51 be 30 cf 8a 3a 12 a9 b4 bd c5 9a 6e 3e
       -0.2050146 0.0010590311 -0.0882131 0.23301227
000280 b8 a5 74 be 0d 60 04 be 9d f3 1c bd c5 d1 80 3d
       -0.23891342 -0.12927265 -0.038318265 0.0629001
000290 17 d9 9f 3c 9c ad fd bd 84 01 bd ba 7e 2a ce bd
       0.019512696 -0.12386629 -0.0014420007 -0.100666985
0002a0 1c 10 86 be 7e cd b0 3d eb 0a 2b 3e 36 4d bf 3d
       -0.26184165 0.086329445 0.16703384 0.09340899
0002b0 f1 f1 f5 bd b2 5c 04 3d 93 25 d6 bc d1 21 47 3e
       -0.12009037 0.032314964 -0.026140964 0.19446494
0002c0 9d 5e f2 3d 29 4f c4 3d d8 cb 52 bb 91 39 28 be
       0.11834452 0.09585411 -0.0032164957 -0.1642821
0002d0 87 09 e8 bd e9 12 50 be 82 26 7c 3c 6c 4d bf 3d
       -0.11329942 -0.20319714 0.01539004 0.09340939
0002e0 84 2c 03 3e 6d 8d 9b 3d 7f 88 56 be b3 94 46 bd
       0.1280995 0.07595334 -0.20950507 -0.048481654
0002f0 6f 31 d1 bd 73 d7 18 be a6 3f 87 bd 43 b3 6f 3c
       -0.10214507 -0.14925937 -0.06603937 0.014630142
000300 3d bc ac 3d 23 06 36 be f9 8c 62 3e c9 13 11 3d
       0.08434341 -0.17775778 0.2212409 0.03541926
000310 91 01 a0 bd 43 ce 10 3d 62 76 38 3d b6 7d 82 3d
       -0.07812799 0.035352957 0.045034774 0.06371634
000320 4e 62 de 3d 4d a4 ad 3e ea d2 e3 3c 21 38 42 bd
       0.10858594 0.33914414 0.027810533 -0.04741681
000330 d1 2f 83 bc 1c 18 f2 3c 79 2e 09 3e 20 b0 58 3e
       -0.016014012 0.029552512 0.13396634 0.21160936
000340 83 1b 3c be 8d 91 13 be 50 d9 83 3d 05 5d b8 bd
       -0.1836987 -0.14410992 0.064379334 -0.09002117
000350 19 0e 38 be 4e a0 d3 bc dd 3a 2a 3e 67 d3 4c be
       -0.17974128 -0.025833275 0.16624017 -0.20002519
000360 ab 7a 21 be 67 f6 90 3e 72 6f 14 be fd d1 0b 3e
       -0.1576945 0.2831299 -0.14495638 0.13654323
000370 cf d0 df bd 4e ed af 3d 88 74 21 3d 97 07 81 3e
       -0.10928499 0.08590184 0.039417773 0.25201103
000380 4d 53 0b 3e f7 02 f4 3d 96 87 7e bc d5 3f 78 be
       0.13605995 0.11914628 -0.015535256 -0.242431
000390 65 d9 6d bd ae bb ad be 99 40 14 3e a6 7c 95 3e
       -0.05806865 -0.3393225 0.14477767 0.29196662
0003a0 54 01 a5 bb 35 67 00 bd 45 2f 6c be 17 0a e0 bd
       -0.0050355587 -0.031348426 -0.23064907 -0.109394245
0003b0 ab ec e2 bc a7 89 fd 3b 4a 52 e3 bc 6a 59 14 3e
       -0.027700743 0.0077373567 -0.0277492 0.14487234
0003c0 82 c1 50 3d a8 7f 2a be 3d 89 b2 bd c1 39 28 3e
       0.050965793 -0.1665026 -0.087175824 0.16428281
0003d0 0b c1 93 bd bc 85 3b 3d 6d d7 97 3c d1 48 9a 3e
       -0.072145544 0.045781836 0.01853534 0.3013368
0003e0 1d 4c 95 3e 18 f5 67 bd c7 80 86 3d a1 0a 43 3e
       0.29159632 -0.056630224 0.06567531 0.19047023
0003f0 37 4e d6 bc e9 ba 4e bd 75 2b 34 3e b2 4a ab 3d
       -0.026160343 -0.05047122 0.17594703 0.083638564

pos_embed.W_pos f4 [15, 48]
000000 9d 12 f0 bd 61 7b 83 3d 9a 00 a4 bd 85 63 24 bd
       -0.117223 0.06420017 -0.08007927 -0.04013397
000010 79 2d 3b 3b a8 3e 22 3b a5 1b 21 3d 78 cd 7c ba
       0.002856104 0.0024756584 0.039333005 -0.00096436543
000020 c4 64 0d be ff 8d 18 bd b8 90 01 3e 44 76 74 3e
       -0.1380797 -0.037244793 0.12652862 0.2387324
000030 3a 58 a2 bd 9f 75 05 3e db 93 8d 3d a0 5b 3a 3d
       -0.07926984 0.1303315 0.06912967 0.045497537
000040 98 8f 40 be 34 54 b0 bc 7b ea c1 3e d3 bf e0 3c
       -0.18804777 -0.021524526 0.37874207 0.027435219
000050 a0 b7 20 bc 93 64 cc bd 9b 56 2f be 14 64 12 bd
       -0.009809405 -0.099801205 -0.17122881 -0.035739973
000060 a8 03 d6 3c 48 0c 6e 3d 85 07 3c be 15 a4 96 3e
       0.02612479 0.05811718 -0.18362243 0.2942206
000070 cf c5 86 3c 91 79 25 bd 17 da 5a 3d e3 98 08 be
       0.016451744 -0.040399138 0.053430643 -0.13339572
000080 f6 49 c6 bd 03 ef c1 bc 04 95 1d bd 1d 5e 5a be
       -0.09682076 -0.02367354 -0.03847219 -0.21324964
000090 d9 1e cc bc bc 89 14 3e 04 5e f5 3b 6c 05 0b bd
       -0.024917053 0.14505666 0.007488014 -0.033940718
0000a0 42 4c 22 be c2 5f 3b bd 51 e0 f6 bd e8 18 bb 3c
       -0.15849403 -0.04574562 -0.12054504 0.022839025
0000b0 36 0c 3c bc 00 a0 fe 3d 6f 25 60 bd c1 df 5b be
       -0.011477521 0.12432861 -0.0547232 -0.21472074
0000c0 d4 10 a2 3e 8a fe 49 be b1 3a d6 bd 40 37 16 bd
       0.31653464 -0.19726005 -0.10460413 -0.036673784
0000d0 4e ee ce bd fc 44 94 3d b7 fc 31 bd 00 38 92 bd
       -0.10104047 0.0723972 -0.0434539 -0.071395874
0000e0 ca 3f 88 be 74 62 66 3c 3a 9e 04 3e 91 81 46 be
       -0.26611167 0.014061559 0.12950984 -0.19385363
0000f0 b0 02 a3 3c 13 5d 11 be 87 62 0f 3e 56 76 de 3d
       0.019898742 -0.14195661 0.14002429 0.108624145
000100 de 34 ba bd b3 97 2b 3d 2f 9c 5a bc 41 9b a5 3e
       -0.09092115 0.04189272 -0.013342901 0.32345012
000110 81 df d2 bd 4a bd 89 3b 70 9e 0e be be 4d c0 3d
       -0.10296536 0.004203473 -0.13927627 0.09389828
000120 e1 13 f1 bc 69 c8 48 3d 94 33 3d 3e 38 18 40 be
       -0.029428424 0.04901925 0.18476707 -0.18759239
000130 b5 f6 89 bd 76 9c 8d 3e 8d ec 8c 3e 9c 9f 2c 3e
       -0.06736509 0.27658433 0.27524224 0.16857761
000140 ac 39 03 3e f6 fc e7 3d ce 9a 17 3e 0e fe 75 3e
       0.12814969 0.11327545 0.14805147 0.24022695
000150 ab 86 4a bd 53 27 a5 3e 89 18 cd bd 98 0c d6 bd
       -0.049444836 0.32256564 -0.10014445 -0.10451621
000160 ac ef c0 bc 60 64 16 be 36 23 29 be 0d 37 4b bd
       -0.023551784 -0.14686728 -0.16517338 -0.049613047
000170 4f 70 9a bc d3 ca 0b bb 8f e0 3f 3e 42 9a db 3d
       -0.018852381 -0.002133061 0.18738006 0.10722782
000180 86 37 2d 3e fe e5 77 3d ee b2 3d 3d a5 1d 60 3e
       0.16915712 0.060522072 0.04631322 0.21886308
000190 8a 76 a1 bd e2 0d 97 bc 5b 9a 4a 3d 8b 3e 83 3d
       -0.07883938 -0.018439237 0.04946361 0.064084135
0001a0 ba f0 ce bd 16 f4 a2 3e f4 4a 35 be 5d 8d a5 3d
       -0.10104509 0.31826848 -0.17704374 0.080836035
0001b0 9b 47 57 3e 57 de 3b be 37 5c 2f be 08 57 9a 3d
       0.21023409 -0.18346535 -0.17125021 0.07536131
0001c0 e0 2c a6 3d ef 7b 06 be 13 48 84 3e 22 88 88 bb
       0.08114028 -0.13133214 0.25836238 -0.004166619
0001d0 28 59 57 3e 98 d3 04 3d d4 74 13 be 63 49 81 be
       0.21030104 0.032428354 -0.14400035 -0.25251302
0001e0 68 a6 a7 3d 6b fa e3 bd 3d 67 fa bd e6 e8 ba 3d
       0.08186036 -0.11131748 -0.122267224 0.09126453
0001f0 de 48 ec 3d 15 fe 98 bd 0c 3d 1a bd fc 39 01 bf
       0.11537336 -0.07470337 -0.037655875 -0.504791
000200 e3 75 8d 3d 6c e2 2d 3d f7 11 2e be c1 bd 91 3c
       0.06907251 0.04245226 -0.1699904 0.017790677
000210 da 00 18 3e e8 1e 75 3d dd e9 0a be a9 69 9c 3e
       0.14844075 0.059843928 -0.13565774 0.30549362
000220 3f 0d 2f 3c 16 ba f9 3d 65 99 80 3e b1 fa 96 3e
       0.01068431 0.12193696 0.2511703 0.29488137
000230 11 40 58 3d d6 42 da bd 02 9f 8a 3d c6 94 6f 3c
       0.052795473 -0.10657279 0.067686096 0.014622873
000240 26 36 77 bd 83 49 c2 be dd e1 a7 bd d6 50 33 be
       -0.060354374 -0.3794671 -0.08197377 -0.17511305
000250 fc d7 26 bd 76 ad ee bd 19 00 b4 3d 84 45 1a 3e
       -0.040733323 -0.11654179 0.08789081 0.1506558
000260 0f 5d 50 3c ee f4 ec bd ef d1 9f be 63 45 09 3e
       0.012717499 -0.11570154 -0.31214854 0.13405375
000270 24 27 9d bd 19 29 e5 3d ae 67 cf bd 22 67 1c 3d
       -0.07673481 0.111894794 -0.10127197 0.038184293
000280 5c 91 b4 bd d9 7f 5f 3e 34 26 87 bc 43 f9 2e 3e
       -0.088167876 0.21826114 -0.016497709 0.17087273
000290 66 e7 f0 bc 08 e2 98 be 5e de 07 bc df ec 7d 3e
       -0.029407214 -0.29859948 -0.008292763 0.2479739
0002a0 5d f6 5c 3c 8a f9 02 3e 6b 88 66 be c5 bd e5 3c
       0.013486472 0.12790504 -0.22512977 0.02804459
0002b0 56 e9 02 bc ac ce 6f 3c 20 58 9e bb a3 06 4f bc
       -0.007990202 0.014636677 -0.0048322827 -0.01263586
0002c0 a3 2d 79 3e 17 90 97 bc 03 40 21 3d cf 11 c5 be
       0.24333815 -0.018501325 0.039367687 -0.3849015
0002d0 ec b8 0b bd 6c e0 08 be e9 07 77 3e 0b 67 93 be
       -0.034111902 -0.1336686 0.24124111 -0.28789553
0002e0 04 5c 2f 3d aa 8f a8 3e f9 7c 8a 3d 02 91 f8 bd
       0.042812362 0.32922107 0.06762118 -0.12137033
0002f0 40 ec 9c bd 54 49 c0 bd 40 2a 40 be e8 47 4b bc
       -0.076622486 -0.09388986 -0.18766117 -0.0124072805
000300 d3 9f 86 be 36 f8 e9 bd 45 c4 a0 3d 85 53 00 bd
       -0.2629381 -0.114242956 0.078499354 -0.03132965
000310 f1 67 b6 3d bf ab 58 bd 22 8f 2c 3e aa 6f 06 be
       0.08906544 -0.052898165 0.16851476 -0.13128534
000320 5e 69 90 3e c5 d5 04 be 97 57 6e be 1c 26 76 3e
       0.2820539 -0.12972172 -0.232756 0.24037975
000330 03 37 98 be 53 01 64 3e 85 3d c6 bd 4f 8e a5 be
       -0.2972947 0.2226613 -0.09679703 -0.32335135
000340 0e 83 1a 3c 7f d1 9e 3d 34 d6 19 3e 2c 10 75 3e
       0.00943066 0.07754802 0.15023118 0.2393195
000350 d0 8d 7a be 2f 4c 9f 3d bc 52 05 be 0c f9 74 be
       -0.2446816 0.07778203 -0.13019842 -0.23923129
000360 8b 38 48 bd e8 b3 6c 3d b0 9e 4c bd 22 14 57 bb
       -0.04888205 0.05778876 -0.049956024 -0.0032818397
000370 8c 1e 96 3d e4 3b 55 3e 7d b4 a1 3c 3d 14 2d 3d
       0.07330045 0.20823628 0.019739384 0.04225563
000380 18 68 30 3e ac 70 6a be 7e bd 64 3e 63 2d 6f 3e
       0.17227209 -0.22894543 0.2233791 0.23357157
000390 c5 88 c9 bc c9 dc 48 3d 1e 16 c8 3d 90 55 16 3e
       -0.02460135 0.049038682 0.097698435 0.14681077
0003a0 5f 71 39 be 08 00 65 be 28 f2 6f 3c 92 b3 ba be
       -0.18109654 -0.22363293 0.014645137 -0.36465126
0003b0 9d 19 bb 3c 5e 37 62 3d ec 65 ea 3d 70 2f b0 3e
       0.022839362 0.055228584 0.11445221 0.34411192
0003c0 9c 96 11 3d 5e 87 ad be 90 19 87 be 8b ce 62 3c
       0.035544023 -0.3389234 -0.2638669 0.013843189
0003d0 35 2d ad 3d 8e 2d c3 3d 5d aa fe 3d c3 9c 5f be
       0.08455888 0.09530173 0.12434838 -0.21837144
0003e0 8a 8a b7 bd f7 4b 66 bd 07 09 5e 3e fd 01 0f 3e
       -0.08961971 -0.05622479 0.21683131 0.13965602
0003f0 97 b2 0e be 77 4b f2 bd 64 21 20 bd 03 03 40 3e
       -0.13935314 -0.118308 -0.039094344 0.18751149

blocks.0.ln1.w f4 [48]
000000 b3 cc 88 3f cc e5 85 3f 3f 8a 69 3f 5c 08 59 3f
       1.0687469 1.0460753 0.9122657 0.8477838
000010 37 2e 62 3f 2c e1 71 3f 48 a9 60 3f 09 1a 6d 3f
       0.8835177 0.9448421 0.877583 0.9261785
000020 7f ee 6f 3f 21 4c 67 3f c8 5e 81 3f 7f 3a 78 3f
       0.9372329 0.9035054 1.010705 0.9696426
000030 fe 5c 53 3f 1d f7 66 3f b6 fb 79 3f 86 08 84 3f
       0.8256377 0.90220815 0.97649705 1.0315101
000040 7c a5 5e 3f 30 55 78 3f 8a da 64 3f 7f c6 7c 3f
       0.8697126 0.97004986 0.89395964 0.9874038
000050 a6 2e 5e 3f e1 f1 70 3f e3 bb 68 3f 0b 27 6e 3f
       0.8678993 0.9411908 0.9091169 0.93028325
000060 ca 09 7b 3f 1e da 55 3f 01 1b 62 3f 40 dc 67 3f
       0.9806181 0.83535945 0.88322455 0.9057045
000070 fe 84 37 3f 18 74 5e 3f 9a 38 71 3f e8 d6 64 3f
       0.71687305 0.86895895 0.9422699 0.8939042
000080 4e 15 68 3f 6b d3 7a 3f 45 84 47 3f b7 63 8a 3f
       0.9065751 0.9797885 0.779362 1.081168
000090 40 75 64 3f 61 42 79 3f e1 f7 73 3f cc 2d 84 3f
       0.8924141 0.9736691 0.9530011 1.0326476
0000a0 95 91 6a 3f 3f 0f 6b 3f 56 a4 68 3f b0 df 84 3f
       0.9162839 0.9182014 0.90875757 1.0380764
0000b0 9d 5b 70 3f a6 0f 44 3f da cd 51 3f 9d 71 6f 3f
       0.9388979 0.7658638 0.8195473 0.93532735

blocks.0.ln1.b f4 [48]
000000 d3 e9 51 3b da 04 8a 3d 15 9b 3b 3b 4a 9e 01 3d
       0.003203024 0.067392066 0.0028626372 0.031645097
000010 80 8a 11 3e 94 05 18 3d 09 f8 88 3d 9a 1d fc 3c
       0.1421299 0.037114695 0.06687934 0.030775834
000020 27 66 c7 bb 45 2d 8b 3d 29 62 00 be 75 3b e9 3c
       -0.0060851756 0.06795744 -0.12537445 0.028470734
000030 65 66 48 bd a2 f6 f7 bc b5 af 64 3d 22 e2 b2 3c
       -0.048925776 -0.03026897 0.05583163 0.021836344
000040 2d 3b c4 3c 58 9c 0e 3d a1 cc 51 3d 60 a8 3d bd
       0.023953998 0.03481707 0.05122054 -0.046303153
000050 f7 4a 1a 3d ba 87 bc 3d 1a f7 69 3d df 43 4f 3d
       0.03766915 0.09205575 0.05712042 0.050601836
000060 3c b2 c7 bb 8c 6e 9c 3d 2f dd b8 bc fa e1 d3 bd
       -0.0060942452 0.07638273 -0.022566406 -0.10345836
000070 20 3e dc 3c e0 9f 0d bd 2a 8f d8 bc a7 3a 32 be
       0.026885092 -0.034576297 -0.026435453 -0.17405187
000080 3d 8c ba 3d 06 2d 14 be 79 06 e5 3c 9f 85 97 3d
       0.091087796 -0.144703 0.027957188 0.07398533
000090 8d f6 11 3d 38 db 39 3c a4 a1 50 bd 75 3b e6 bd
       0.03563552 0.01134377 -0.050935403 -0.11241809
0000a0 63 53 aa bc e5 71 11 bd 9f 93 6a bc f1 c4 c6 bc
       -0.020791715 -0.03550901 -0.014317422 -0.02426383
0000b0 d0 ea 0a 3a cc 8a b7 3c bc 3c 3a bd 81 aa a2 3b
       0.0005299272 0.02240505 -0.045468077 0.0049641733

blocks.0.attn.W_Q f4 [3, 48, 24]
000000 ca ef de bd fb 7e cf bd 59 09 c1 3c b3 88 46 be
       -0.1088558 -0.101316415 0.023564028 -0.19388084
000010 83 da eb 3b be a8 04 3d aa b6 2c be 9b 01 8d bd
       0.0071976795 0.032387488 -0.16866556 -0.06885072
000020 60 bd a8 bd 60 a9 97 bb 4f c2 21 bd de 60 1c be
       -0.082392454 -0.0046283454 -0.039491948 -0.15271327
000030 f7 df 58 bd d6 44 ab 3c 1b f7 89 3c 1e ef 04 3e
       -0.052947965 0.020906847 0.016841462 0.12981841
000040 06 d0 37 3d 7e 8e 0e 3e 4c ea 17 3d c5 95 8d 3e
       0.04487612 0.13921544 0.037088677 0.27653328
000050 ba bc 98 3d bc 2d 1c 3d 6e bd d7 bc ae 66 d2 3d
       0.07457872 0.038129553 -0.026335444 0.10273491
000060 77 4b ce bc 50 e2 aa be 78 04 c7 3c 97 5f 1b be
       -0.025182469 -0.33375788 0.024294123 -0.15173183
000070 98 01 55 3e e5 08 fc 3c 6c 6e 79 be 56 d4 34 be
       0.20801389 0.03076596 -0.24358529 -0.17659125
000080 6b df 8c 3e a1 ef 91 be 7d 1b 88 3e 80 22 51 be
       0.27514204 -0.28503135 0.26583472 -0.20423317
000090 4f 1f 91 be a1 c8 10 3e 67 47 51 3d 18 ee c8 3d
       -0.283442 0.14139034 0.051093485 0.09811038
0000a0 bd 2f dd bd 3f ab 89 bd 67 d7 98 3e d0 91 8a be
       -0.10800121 -0.06722116 0.2985184 -0.2706437
0000b0 fb b9 de bc 79 cf 41 3d 9a 11 c6 3d e4 56 9c bb
       -0.027188292 0.047317002 0.09671326 -0.0047711004
0000c0 c4 4f 41 be e6 5b 08 bc e4 69 1b 3d 0d a4 a9 bd
       -0.18878084 -0.008322692 0.037942782 -0.08283243
0000d0 de 86 34 bd 42 0a 88 3c 60 9b 30 bc a9 27 a4 bd
       -0.044073932 0.016606454 -0.010779232 -0.08015377
0000e0 3e c2 87 3e 06 4b b3 bd 3d be cf 3e 89 a7 18 be
       0.26515383 -0.08754544 0.40574828 -0.1490766
0000f0 da a4 14 3e d4 62 6c 3e 05 ba d5 bc 1a 77 c0 3d
       0.14516011 0.23084575 -0.026089678 0.09397717
000100 6e 57 a1 bd 23 ba 1a be c1 52 17 be c9 7b cb bd
       -0.07878004 -0.15110068 -0.14777662 -0.099357195
000110 4a 74 06 be c1 d2 1d bd 71 4e 31 be b7 6d e0 3d
       -0.13130298 -0.03853107 -0.1731508 0.109584264
000120 f5 a0 15 3e 7c e8 0b bd a8 a7 3d be 48 03 81 be
       0.14612181 -0.03415726 -0.18520987 -0.25197816
000130 00 49 0b be e5 63 6b 3e 4f dd 77 be 28 8e 70 3e
       -0.13602066 0.22987325 -0.24205516 0.23491728
000140 50 aa c4 be bc fb 83 bc fe fe 43 3e 09 0b 07 be
       -0.38411188 -0.016111247 0.1914024 -0.13187803
000150 f4 02 1a be a8 aa 70 3e 52 d6 cc 3e 32 6f 3d 3d
       -0.15040189 0.235026 0.40007263 0.046248622
000160 fd a9 3d 3d 4c 34 e3 bd db f9 69 3e b4 bb b4 3d
       0.04630469 -0.11093959 0.22849219 0.08824864
000170 c7 b5 11 be 80 2e 59 bd e6 99 94 3d 66 96 92 be
       -0.14229499 -0.05302286 0.07255916 -0.2863037
000180 db f6 f8 3c 92 88 e2 bd 0e dc b9 be 2f c5 c2 3b
       0.030391147 -0.11061205 -0.363007 0.0059439163
000190 70 f0 20 be de f3 cc 3d 7c e2 da bd f4 6d 21 3e
       -0.1571672 0.100074515 -0.1068773 0.157646
0001a0 51 49 40 bd a6 11 af 3d 6b 60 12 3e 1b d2 9d bd
       -0.04694492 0.08548288 0.14294593 -0.0770609
0001b0 7c a4 1e be 5a 7e 0b 3e b8 9f 4e bd 77 b1 63 3e
       -0.15492433 0.13622418 -0.05044529 0.22235666
0001c0 cb 48 9b 3d 63 6b 42 be f4 93 c7 3d 64 98 00 be
       0.075822435 -0.18986277 0.09745017 -0.12558132
0001d0 ed 20 0e be 7c 1b 67 3e 16 df 0c be 2e fc 71 be
       -0.13879748 0.22569078 -0.13756976 -0.23631355
0001e0 8b 66 4c 3e 92 ad 4a 3e f3 b3 71 be 22 95 8b 3d
       0.19960992 0.19792774 -0.23603801 0.06815554
0001f0 87 6e 45 bc 2d ab bf 3d 5a 36 a3 bd 72 73 32 3d
       -0.012050278 0.09358821 -0.07969351 0.04356713
000200 6d 3e 68 be c3 64 16 3e f8 f5 5a bc 29 eb 42 3e
       -0.22680064 0.14686875 -0.013364308 0.19035019
000210 70 5a 39 bc 84 f4 c1 bc 2c f7 2f bd bd e6 1d 3d
       -0.011313066 -0.023676164 -0.04296033 0.038550127
000220 33 cd 61 3e 24 e5 c5 be a7 b7 41 bc 5a 5d 1e 3e
       0.22050934 -0.38651383 -0.011823571 0.15465298
000230 82 44 be 3b 68 b7 5a 3e db cc ef bd 2b 36 42 be
       0.0058065066 0.21359026 -0.11708995 -0.18965976
000240 89 01 c9 3d 93 23 90 be 38 64 58 3d 5f 2f 22 3b
       0.09814746 -0.2815214 0.05282995 0.0024747474
000250 3a 6d 00 3e 97 fb d7 ba 71 22 3f be 2f 2a 93 3d
       0.12541667 -0.0016478178 -0.18665482 0.0718578
000260 36 0e cf bd 59 85 90 3c 95 ff 07 be 3f b7 94 bd
       -0.101101324 0.01764171 -0.1328109 -0.07261514
000270 67 54 99 bd 51 f4 e9 3c 45 25 52 bd bb b9 73 3d
       -0.074868016 0.028558882 -0.051305074 0.0595033
000280 62 4b 32 bc 5a 5d 82 bd 70 05 dc bd 13 10 6d bb
       -0.0108822305 -0.06365462 -0.107432246 -0.003617291
000290 07 d0 b2 3c 93 7e 3a 3c 96 d6 5e 3e 7a 54 c2 be
       0.02182771 0.011382717 0.21761546 -0.37955076
0002a0 d3 d8 18 be 99 a6 8c bc 08 6c 25 be 72 4a 23 be
       -0.14926462 -0.017169284 -0.16154492 -0.15946367
0002b0 cc eb eb bd cc a5 4c be 67 81 c9 bd 86 6e 6d 3e
       -0.11519584 -0.19985121 -0.09839135 0.23186693
0002c0 7d 0f 89 be 42 6b 9c bb e9 20 16 3e 97 75 09 3d
       -0.2676963 -0.0047735283 0.14660992 0.033559408
0002d0 14 48 46 3d 8c a0 bd bd d8 af 45 be 10 ac d2 3d
       0.048408583 -0.092591375 -0.1930536 0.102867246
0002e0 e8 59 28 be ec d4 f4 3d f8 8c e9 bd df aa a5 be
       -0.16440547 0.11954674 -0.11403841 -0.32356927
0002f0 91 82 83 3e 04 21 ae bc ec 9e 4c 3d 2e e7 d8 3d
       0.25685552 -0.021255977 0.049956247 0.10590969
000300 4d 69 ef bd 3e 24 0f be 18 f3 9c bc 19 4f 0c be
       -0.116900064 -0.13978669 -0.019158885 -0.13702048
000310 b3 1b c2 3d a5 61 15 3c 01 b3 1e be 3f de b7 be
       0.094779395 0.009117519 -0.15497972 -0.35911748
000320 0a 97 76 3c cc ba 33 be 17 8b ec bd 55 cd bd bd
       0.015050659 -0.17551726 -0.11549967 -0.092676796
000330 8c a5 41 3d 01 1b 84 3e 5a e3 dc 3d 7a d6 87 3a
       0.04727702 0.25801852 0.10785551 0.0010363602
000340 4d b6 fc bd f3 74 d2 bc 6a 0d 75 3e 6a 68 f6 bd
       -0.123394586 -0.025690531 0.23930898 -0.12031634
000350 8c 0f 15 be fb d2 9c bd 8f 2f ba bd a1 4f 2c 3d
       -0.14556712 -0.07657429 -0.09091102 0.042068128
000360 b6 e4 36 be c8 7b 32 be 96 11 d7 bd 96 a8 1f 3e
       -0.17860684 -0.17430031 -0.10501401 0.15591654
000370 45 10 0a 3c cc df cd 3d 12 a0 28 bd e2 6c f7 bd
       0.0084267305 0.100524515 -0.04116828 -0.120813146
000380 43 d9 ab bd df a4 82 3d 12 15 f1 bd 51 43 2a be
       -0.08391049 0.06379103 -0.11771597 -0.16627242
000390 90 5a b0 bd 0d 6b ae bb a3 e1 2e 3e 85 ff a9 bd
       -0.086110234 -0.00532282 0.17078261 -0.083006896
0003a0 01 a9 c0 3d de e8 bc bd f6 ba d6 3d 83 ee 13 3e
       0.09407235 -0.092241034 0.10484879 0.14446454
0003b0 4f f7 b2 3d af fa 90 bb 2d a7 87 3d 77 ed 8c bd
       0.087385766 -0.004424415 0.06623683 -0.0688123
0003c0 91 f3 5e be 77 7b ea 3d e1 86 b0 3c 09 58 d8 3d
       -0.217726 0.1144933 0.02154869 0.105636664
0003d0 79 7c be bd 35 15 86 bd a3 c3 ce 3d 81 ad a1 3d
       -0.09301085 -0.06547014 0.100959085 0.07894421
0003e0 0f b4 e3 3d db 3d 10 bd f3 b5 68 bd 9c ac 0c 3e
       0.11118328 -0.03521524 -0.056814145 0.1373772
0003f0 63 83 50 3e 82 f1 9a 3e 69 de 27 bc f0 4e eb bd
       0.2036262 0.3026238 -0.010245898 -0.114896655

blocks.0.attn.W_K f4 [3, 48, 24]
000000 87 6e 3f be c6 90 34 3e 36 c1 42 bd 7e c4 f7 3d
       -0.18694507 0.17633352 -0.04754754 0.12098025
000010 b2 0d 64 be 63 23 19 be 23 b5 11 3e 99 da 85 be
       -0.2227085 -0.14954905 0.14229254 -0.2614334
000020 d3 3f fa 3d 80 34 22 be 9d ef 01 3e 99 56 e3 3d
       0.12219205 -0.1584034 0.12689061 0.111005016
000030 13 57 c9 3e ab 53 2b 3d df 80 57 be 37 64 a8 bd
       0.39324245 0.04182784 -0.21045254 -0.082222395
000040 72 f3 d0 bd bd 19 8a 3c d6 8b 83 bd 1b f6 4e 3b
       -0.102026835 0.016857976 -0.06423156 0.0031579796
000050 0a 01 bb bd 80 42 80 ba 4e 50 bc 3c 6d fb f9 3d
       -0.091310576 -0.0009785444 0.022987511 0.12206159
000060 cc 53 02 3e c8 7b a2 3d c7 56 a3 3e 11 98 8a 3e
       0.12727278 0.07933766 0.31902143 0.27069142
000070 93 e2 a2 3e 77 43 bc 3e b5 6b 3a bf ff 3f e9 be
       0.31813487 0.36770222 -0.728206 -0.45556638
000080 9a c8 73 3e e1 45 9c be 73 9c ef 3e ff 4b c0 3c
       0.23806992 -0.30522063 0.4679905 0.023473738
000090 e4 62 25 be ba 0d 5c 3d 75 52 a8 3e e4 d5 a1 bc
       -0.16151005 0.05372403 0.3287541 -0.019755311
0000a0 94 48 72 3d 58 40 09 3d 9a 79 36 3e 3b 66 8d bd
       0.059151247 0.03350863 0.17819825 -0.069042645
0000b0 27 22 1f be b9 a6 a9 be e9 02 c1 3d 58 a0 16 3e
       -0.15540372 -0.33135012 0.09424383 0.14709604
0000c0 69 6f d7 bc b6 7f ee bb eb bd 8f bd 6a 65 05 be
       -0.026298242 -0.007278408 -0.07018646 -0.13026968
0000d0 fc 3b 0d be f0 58 0b be 06 2d dd bd e0 08 8d be
       -0.13792413 -0.13608146 -0.10799603 -0.27545834
0000e0 12 aa a0 bd 3e 40 a4 3d 71 f8 95 3c 9d 84 59 be
       -0.07844938 0.08020066 0.018306943 -0.21241994
0000f0 09 a7 c7 3d bb 97 3c be d5 b9 10 bc 1c 8d 48 be
       0.09748656 -0.18417256 -0.008833368 -0.19585079
000100 ec 6e a9 bd fa 6c 1e be 90 a6 26 3e 5d 49 23 3e
       -0.0827311 -0.15471259 0.16274476 0.15945955
000110 bc 87 44 3d 13 58 13 3e 17 a7 de bd ca f5 0e be
       0.04798101 0.14389066 -0.108717136 -0.13960949
000120 2e 49 74 be cc cc f2 3d 07 db 2a 3e c5 34 41 3d
       -0.23856041 0.11855468 0.16685115 0.047169466
000130 a4 01 59 3d b0 5d 24 be 12 9b 05 3e 39 ca 48 3e
       0.05298008 -0.16051364 0.13047436 0.19608392
000140 0b 0d 98 3d ad cb 14 3d f6 34 4f be 1b f5 81 3d
       0.07424363 0.036327053 -0.20235047 0.06345578
000150 29 e0 27 bb 60 27 f3 bd f8 36 09 3b 82 db 93 be
       -0.0025615788 -0.118727446 0.0020937305 -0.2887841
000160 51 58 e1 bd ae e2 83 3d 02 6f be 3d 96 c8 21 bd
       -0.11003173 0.0643972 0.09298517 -0.039497934
000170 92 38 8a 3d 6d f8 e1 bd 31 da b1 3c 15 06 1a 3e
       0.06749071 -0.110337116 0.021710487 0.15041383
000180 0f e8 a5 3d 04 9b 50 be a8 2b b2 3d 6c 88 3e be
       0.08100902 -0.20371634 0.08699733 -0.18606728
000190 1c 47 3c bb 92 b7 92 3d ac 2a 60 bd e4 73 14 3e
       -0.0028728908 0.071639195 -0.054728195 0.14497334
0001a0 7d 43 50 be 36 86 cd bc 54 45 e7 bd e5 7e 0a 3e
       -0.20338245 -0.02508841 -0.1129252 0.13524969
0001b0 3d 75 46 be ee 72 54 3e b4 47 91 3c b5 41 a2 bd
       -0.1938066 0.20746967 0.017734386 -0.07922689
0001c0 a5 84 c8 bc 1d da 40 bd 52 02 b1 bc cd ca 1b 3e
       -0.024477312 -0.04708301 -0.021607552 0.15214081
0001d0 13 5b 00 be 87 2d 5a 3d c6 8e bf bc 37 07 94 3d
       -0.12534742 0.053266075 -0.02338351 0.072279386
0001e0 60 d6 ba 3d 86 b5 49 3d 73 e4 d0 3c 80 a7 0c bd
       0.0912292 0.04924538 0.025499558 -0.034339428
0001f0 a6 7e 10 be 3e 31 b9 bd 73 3b 48 be de 53 b1 3d
       -0.14110813 -0.09042595 -0.19553928 0.086585745
000200 4d bd d8 bd 3e 50 fc 3d f6 11 94 bc 84 6f 94 3b
       -0.10582981 0.123199925 -0.01807497 0.0045298953
000210 ae c6 a6 bb 17 41 2e 3e e5 21 94 3d 85 5c 3c 3d
       -0.0050896024 0.17017017 0.07233027 0.04598667
000220 94 80 54 be 34 58 88 3d 32 07 bf bc 74 08 dc 3d
       -0.20752174 0.066574484 -0.02331886 0.107438
000230 4a cd ec 3d 90 a5 88 bd 19 95 0e bb 1d f6 1c bd
       0.11562593 -0.066722035 -0.002175635 -0.03832065
000240 d1 8e 9a bb 41 9d 0d 3d 0e 44 80 bd eb 54 d0 bd
       -0.004716732 0.034573797 -0.062629804 -0.10172447
000250 16 d9 2f 3e a8 98 7d 3d b1 1f 2b be 2d 28 13 3e
       0.17172655 0.061913162 -0.16711308 0.14370795
000260 86 30 a7 bd c1 90 d1 3c b9 48 77 3c 69 7a 0c be
       -0.08163552 0.02558172 0.015093022 -0.13718571
000270 e3 37 0b be e1 44 25 bd f7 ee 94 3e 7b 5e 71 3e
       -0.13595538 -0.04034889 0.29088566 0.23571198
000280 ad 76 bb 3d 74 be af bd 67 17 1b 3e 13 13 ab 3e
       0.09153495 -0.08581248 0.15145646 0.3341299
000290 f9 b1 75 3d 8b f9 94 3e e4 f5 00 3e c4 11 ff 3d
       0.05998418 0.29096636 0.125938 0.124545604
0002a0 9d 73 8d 3d 43 4c 0f 3e 98 6c ba 3d f8 01 34 3d
       0.06906817 0.13993935 0.09102744 0.04394719
0002b0 9c d2 e8 bd ef 97 9b 3d 2b bc 2c 3e 82 66 88 bd
       -0.113682956 0.075973384 0.16868655 -0.06660177
0002c0 f6 10 80 3e d3 a4 53 3e 09 fa ce bd ba 9c 69 3d
       0.2501294 0.20668344 -0.10106284 0.05703423
0002d0 5a 14 2a 3d 89 3a 1d bd 56 73 bb bc 2e 3e d4 bc
       0.041523315 -0.0383859 -0.022882145 -0.025908556
0002e0 1b e0 aa 3c b1 23 f8 bb c6 8b ca bd b0 34 82 3d
       0.020858815 -0.007572614 -0.09889941 0.063577056
0002f0 ff a5 45 bd 14 d2 36 3e aa c4 45 3e 70 22 00 be
       -0.04825401 0.17853576 0.19313303 -0.12513137
000300 1a 55 81 3e b5 18 21 3d 82 71 a3 bd 3a fe 63 be
       0.2526024 0.039330203 -0.07980634 -0.22264948
000310 1a f1 b5 3d d5 17 5c bd ee 35 1b 3d 94 49 2a 3e
       0.08883877 -0.053733665 0.03789323 0.1662963
000320 da 18 3d be e2 12 3f 3e 04 c1 30 be 2a ce 6c 3e
       -0.18466511 0.18659547 -0.1726113 0.2312552
000330 cc 89 03 be 3c e7 af bd 23 e8 ee bc 6c 6b 6d bd
       -0.12845534 -0.08589026 -0.029163426 -0.057963774
000340 61 61 d1 3c 87 82 04 bd 44 fe 17 be a2 aa 71 3d
       0.02555913 -0.032351043 -0.14843088 0.05900062
000350 e2 fe eb 3d 9f 74 10 3d 7d 7d a0 3d 68 ce ae be
       0.115232244 0.03526747 0.07836435 -0.3414185
000360 31 12 d3 bd b9 15 20 3e 79 8d e0 bc d6 f8 0d 3e
       -0.10306204 0.15633287 -0.02741121 0.13864455
000370 19 63 15 3d 9a ca b0 bc 57 56 c8 3d 29 a3 17 be
       0.03647146 -0.021580983 0.09782093 -0.14808334
000380 b0 f9 8c 3e 85 8b 31 bc 76 41 3a 3e cc 73 9d 3e
       0.27534246 -0.010836487 0.18189034 0.30752409
000390 33 95 1c 3e 0d 07 8d 3d f2 24 32 3e 21 00 43 be
       0.1529129 0.068861105 0.17396906 -0.19043018
0003a0 67 07 cd bc da c2 56 3e 14 83 36 3e 01 a2 e3 bd
       -0.025027944 0.20972767 0.1782344 -0.11114884
0003b0 12 ab ce 3c f1 c3 54 be c7 9d 1a 3e 33 00 96 3e
       0.025228057 -0.2077787 0.1509925 0.29297027
0003c0 11 a8 a6 bd d7 36 83 be 7d fb 55 be 59 ff 56 be
       -0.08137525 -0.25627777 -0.20896716 -0.20995845
0003d0 b4 9c a6 3d 51 b4 9c be 55 7b 49 3e 69 7e ec ba
       0.081353575 -0.3060632 0.19675954 -0.0018043044
0003e0 bb 3b 16 3c 09 81 9d 3e fc a6 8c 3d b8 37 81 be
       0.009169514 0.3076251 0.06867787 -0.25237823
0003f0 60 13 f4 3d 11 a9 34 3e 79 9d 75 bd 18 3c 49 3e
       0.11917758 0.17642619 -0.05996463 0.1965183

blocks.0.attn.W_V f4 [3, 48, 24]
000000 22 05 cd bd 84 6b 2b be 6e 21 91 bd 62 06 fe bd
       -0.10010745 -0.16740233 -0.07086454 -0.12403561
000010 4e f7 a4 3d 2c 28 d4 3d ed d8 f7 3d d7 c4 24 3e
       0.08054982 0.10359225 0.12101922 0.16090713
000020 b9 d8 34 3e 29 2d 89 3d cc cf 54 3e 95 40 76 be
       0.17660798 0.06698067 0.20782393 -0.24048074
000030 81 1e a7 bc 23 69 8d 3e 84 de 91 3e 51 0f 02 be
       -0.020400288 0.27619275 0.28490078 -0.12701155
000040 38 f6 0f bd 60 2a 33 be c8 9c 78 bd 0b a3 db 3c
       -0.035146922 -0.17496634 -0.060696393 0.026811143
000050 84 f2 08 3e 50 30 da bd 9b 39 37 3e ba 4d 05 3e
       0.13373762 -0.10653746 0.17893068 0.13017932
000060 69 f5 62 bd aa 9c fa 3c ce 80 24 3e e5 ab 51 3d
       -0.055409823 0.030592281 0.1606476 0.051189322
000070 db 33 76 3d a6 93 12 be 9c 0a 05 be dd cb 80 bd
       0.060108047 -0.14314136 -0.12992328 -0.06288884
000080 72 4b 64 bd c0 1c 28 3e aa e3 81 bd f6 3f 9d bd
       -0.055736013 0.16417217 -0.063422516 -0.07678215
000090 3a 06 06 be d5 87 1c 3e 49 cb 28 3e 85 26 b8 bc
       -0.13088313 0.15286191 0.16483797 -0.022479305
0000a0 34 00 ac 3d 94 bc 36 be ec 9c fe bd ef b3 ca bd
       0.08398476 -0.17845374 -0.12432274 -0.09897601
0000b0 81 4b 79 3d 16 c8 5c 3e 64 6a 15 3d e3 5d c2 bc
       0.06086302 0.21560702 0.036478415 -0.02372641
0000c0 c8 49 84 be 25 93 7a be 6b e1 56 3e 22 7f 89 3e
       -0.2583754 -0.24470194 0.20984428 0.26854807
0000d0 42 e2 09 bc 4c 69 9a 3d 6e 2d 24 bc 8e 45 8d 3e
       -0.0084157605 0.07539615 -0.010020597 0.2759213
0000e0 a2 d3 db bd 45 4f 22 be df 24 d1 be 6e 3a f8 bd
       -0.10733725 -0.15850551 -0.40848443 -0.121205196
0000f0 a4 0b e5 bd 59 b6 8e be 7a cc fd bb de 22 01 3d
       -0.11183861 -0.27873495 -0.007745323 0.031527393
000100 b7 53 3b be fc f5 8e 3d 92 73 3c be 13 f0 07 3e
       -0.18293653 0.069805115 -0.18403462 0.13275175
000110 60 55 99 be 90 dd 61 3e dd ca 9b bd 46 47 8c 3e
       -0.29947948 0.22057176 -0.076070525 0.27398127
000120 dc da 1f 3e cc 7a d9 3d 35 f1 49 bc 78 8d 99 be
       0.15610832 0.10619125 -0.012325575 -0.29990745
000130 c4 35 90 bd 74 ce 88 bd 2f 09 ce 3d 56 d5 87 bd
       -0.07041505 -0.06680003 0.100603454 -0.066324875
000140 f0 4a 54 bb 9c 66 c0 bd 15 c3 fb 3d 0e 57 6c be
       -0.00323933 -0.09394571 0.12293068 -0.23080084
000150 fd ec 07 3b 2a b5 30 3d 86 45 34 3c 3f 28 98 bd
       0.0020740621 0.04314152 0.011002904 -0.07429551
000160 4c 93 55 bc b3 2d c8 bd 61 0b 9d 3d 07 5b e6 3a
       -0.013035607 -0.097743414 0.07668186 0.0017574736
000170 2b e0 4f bd 8d 22 0a be 64 6b 44 be a6 db f4 3c
       -0.050750893 -0.13489743 -0.19181591 0.029889893
000180 1b ef 91 3d 9d 40 69 3d db 7a 3b 3e 27 bf 88 3e
       0.07125684 0.056946386 0.18308584 0.26708338
000190 a5 9a 2a be b6 85 52 be 3b b7 92 bd a2 66 03 3e
       -0.16660555 -0.20558819 -0.07163855 0.1283212
0001a0 6b c4 85 3d ab 55 f2 3d df 6a a2 3e e7 f6 ce 3d
       0.065316044 0.11832746 0.3172216 0.10105687
0001b0 32 c0 cc bd 3b a3 9a be f7 4a cf bd 84 bf be bd
       -0.09997596 -0.3020266 -0.1012172 -0.093138725
0001c0 71 e8 98 bc ed c5 81 ba 5e cc 33 be 28 b2 00 bd
       -0.018665524 -0.0009900905 -0.17558429 -0.031419903
0001d0 47 8c be 3d 3d ca 16 3e 94 d7 1c be 59 82 34 3e
       0.093040995 0.14725585 -0.15316612 0.17627849
0001e0 c7 22 50 bd 0f 97 ed bd 23 64 ba 3d 57 8f 0f bc
       -0.050814416 -0.11601078 0.09101131 -0.008762202
0001f0 23 a2 0d be 0e 8d 0d be 02 a1 70 bc 2d 3c 20 3d
       -0.13831381 -0.1382334 -0.014686825 0.039119888
000200 21 ac d7 be b8 9e 68 be 2e da 36 3e 11 67 2e 3c
       -0.4212351 -0.22716796 0.17856666 0.01064469
000210 e8 3c 00 bd 30 60 75 3e 13 dc 7a 3e 75 7e 2e 3a
       -0.031308085 0.23962474 0.24498014 0.0006656417
000220 da 94 89 be 49 29 a1 3d eb 41 a3 be 5e 1a e6 bd
       -0.26871377 0.07869203 -0.3188623 -0.11235498
000230 ea 7e 87 bd 66 fb 8f bc 77 e5 07 be 8a 59 99 3c
       -0.06616004 -0.01757593 -0.13271128 0.018719453
000240 61 1b e1 bd a4 43 d1 bd 6b 05 ed bd 23 b2 2e bd
       -0.1099155 -0.102179796 -0.11573299 -0.042650353
000250 04 3d 8b bd 2d 29 13 bd 29 14 2a be bc 72 b9 3d
       -0.06798747 -0.03592794 -0.16609253 0.09055087
000260 dc a7 7d bd 6b 1f 69 3d a8 9b d0 3c d4 cb f8 3e
       -0.06192766 0.056914728 0.025464848 0.4859301
000270 d6 d1 13 be f4 0e e9 bd 83 eb 9f ba c7 d8 0b bd
       -0.14435515 -0.11379805 -0.0012200925 -0.03414228
000280 43 45 33 be 0c e9 96 3e 66 1e a8 3d 71 5d 5a bc
       -0.1750689 0.29474676 0.08208923 -0.013327942
000290 47 e0 1f bd 1a e1 30 3c 22 05 5e 3e 84 e0 2e 3d
       -0.039032247 0.010795856 0.21681646 0.042694584
0002a0 e9 44 ec 3c 37 5f 04 3e 04 43 56 be 4f 6c 21 bd
       0.028841453 0.12926947 -0.20924002 -0.03940993
0002b0 85 7c 85 3d b1 72 1f be aa df ae bb 3a 97 bb bd
       0.06517891 -0.15571095 -0.0053367214 -0.091597036
0002c0 36 57 07 3e e4 30 1f 3e 4f e7 0f 3e c6 a6 59 bd
       0.13216862 0.15545994 0.14053081 -0.053137563
0002d0 39 fb 74 3e 47 14 b4 3d 6a 20 a6 be 37 04 42 be
       0.23923959 0.0879293 -0.32446605 -0.1894692
0002e0 74 ba 0f be cc 98 6a 3e 91 77 b3 3c 26 62 4d 3d
       -0.1403597 0.2290985 0.0219076 0.05014243
0002f0 ed 06 c4 3d 08 83 7c bd f8 7a 3b 3e 22 42 13 be
       0.095716335 -0.0616484 0.18308628 -0.14380696
000300 a2 03 c7 bd 30 72 4c 3e 7b c9 82 be 3d ab 06 be
       -0.0971749 0.19965434 -0.25544342 -0.1315126
000310 06 42 1a bd d5 14 09 3e 82 7e f1 bc 98 40 03 bd
       -0.03766062 0.13386853 -0.029479269 -0.032044023
000320 13 d7 0b 3e 54 81 5a 3e 9f 98 e1 bd 73 79 23 3d
       0.13656263 0.21338397 -0.11015438 0.039910745
000330 b6 83 b0 bd 8c 43 5a bd 88 4a 16 bd 0c b5 12 3d
       -0.08618872 -0.053287074 -0.036692172 0.03581719
000340 fa fb db bd 8c 30 c1 bc 1f cc d7 3c 07 a2 de bc
       -0.1074142 -0.02358272 0.02634245 -0.02717687
000350 c1 3f 91 bd 91 03 4b be 86 f5 6a 3d f9 9b 18 be
       -0.07092238 -0.19825579 0.057363056 -0.14903249
000360 9d 3b b8 bd ef 51 40 bd 01 81 cf 3d 74 bc f1 3d
       -0.08995745 -0.046953138 0.101320274 0.11803523
000370 87 09 6a be d0 44 d8 bd bd 43 75 be d1 c2 c3 3d
       -0.22855197 -0.1056 -0.23951621 0.09558643
000380 96 34 b6 be 53 a9 6d bc ea 94 a7 3b 1c 80 6f 3d
       -0.35586995 -0.014505702 0.0051141875 0.058471784
000390 4b 8f b4 bd 35 fa 67 bd d8 fe 42 3e 5f 07 bb bd
       -0.088163935 -0.0566351 0.19042528 -0.09132265
0003a0 41 04 22 be 73 16 3b be 3e 88 f8 3d 65 81 48 3c
       -0.15821935 -0.18270282 0.12135361 0.012237881
0003b0 91 ee a7 3d 42 96 d4 3d 00 45 ff 3a 93 2d 5c 3e
       0.081998 0.10380222 0.001947552 0.2150176
0003c0 48 f8 fa 3d 55 73 bb bd 29 0f b0 bd 45 44 10 be
       0.12254387 -0.09152857 -0.085966416 -0.14088543
0003d0 40 b8 e9 bd cd 01 64 bd fb e4 83 be c4 f6 11 3d
       -0.11412096 -0.05566578 -0.25760636 0.035635725
0003e0 5c b4 29 be 9e 9f 3d bd d7 10 3c 3d 7f 69 81 bd
       -0.16572708 -0.0462948 0.045914497 -0.0631895
0003f0 35 ea 95 3d bc 19 be bd 5f c2 26 bc 4f 84 6b be
       0.07320062 -0.09282252 -0.010178178 -0.2299969

blocks.0.attn.W_O f4 [3, 24, 48]
000000 96 5e 80 be e0 08 28 be d8 6e 13 bc 91 8b 85 3d
       -0.25072163 -0.16409636 -0.008998595 0.06520761
000010 ed 30 34 3e 42 bc 94 3d ba 9d d7 b8 59 20 0d 3e
       0.17596789 0.0726247 -0.00010281378 0.13781871
000020 15 02 04 be 8d 26 f5 bd fa f2 57 3d 0b ba 56 3d
       -0.12891419 -0.119702436 0.052721955 0.05242352
000030 bb d6 d1 bd 4b 8d 92 3e 77 c2 03 3e 46 51 ad 3d
       -0.10246035 0.28623423 0.12867151 0.08462767
000040 b7 13 d3 3c 18 b4 33 3e df f4 8e bd ef 53 dc bd
       0.025766237 0.17549169 -0.06980299 -0.107581966
000050 38 38 0c 3e 03 fd 65 3e dd d5 15 be 06 cc 69 bd
       0.13693321 0.22459798 -0.14632364 -0.057079338
000060 de d2 4f 3e 48 de 5e 39 96 f0 ae 3c 57 ce ae bc
       0.20295283 0.00021254376 0.021354955 -0.021338625
000070 45 b2 f7 bd 92 d3 ae 3d bf 6a b5 3c b4 57 7c be
       -0.12094549 0.085364476 0.022145627 -0.24642831
000080 3f 96 8c 3e 41 b1 3f bd 9a 31 32 bd cb 1c 12 be
       0.2745838 -0.046799902 -0.043504335 -0.14268796
000090 8c b7 91 3b 49 af bc be 9a 47 84 bd 60 68 00 bd
       0.0044469293 -0.36852482 -0.064589694 -0.03134954
0000a0 f1 2a 51 bd df ec 40 bb da 86 c0 3d a1 47 4f be
       -0.051066343 -0.0029438061 0.09400721 -0.20242168
0000b0 3d 48 52 be 28 82 f0 bd f4 0f 4d bd 26 f1 97 3a
       -0.20535369 -0.11743575 -0.050064042 0.0011592254
0000c0 39 84 14 bc e8 99 08 3e c5 7c 27 3d 03 58 34 bd
       -0.009064727 0.1333996 0.040890474 -0.044029247
0000d0 b8 12 18 3e e5 be e9 bd a4 af 41 bd ca 1c 6c be
       0.1485089 -0.11413363 -0.047286645 -0.23057857
0000e0 b8 37 54 bc f4 7b 18 3d cd 6f 57 3e f4 a6 f5 3c
       -0.0129527375 0.037227586 0.21038742 0.029986836
0000f0 d6 49 25 be 52 39 16 3d 28 f4 94 be 3f 16 4a 3e
       -0.16141447 0.03667576 -0.29092526 0.19735049
000100 e0 37 e9 bc e7 14 73 be 2f 60 d2 bb ec ab 9f 3d
       -0.028469026 -0.23738442 -0.0064201574 0.07796463
000110 8c eb 86 3d 29 9d 56 bd 4b b4 86 3c 2f 49 cf 3d
       0.06587896 -0.052395973 0.016443392 0.101213805
000120 99 c5 f4 bc c5 af 81 3d 80 70 d0 3d 00 ed bb 3c
       -0.029879378 0.063323535 0.10177708 0.022940159
000130 26 1b e7 be c5 2b c7 bd 09 a0 00 bd 4a a3 bf 3c
       -0.451379 -0.09725145 -0.03140262 0.023393292
000140 3f 37 5d 3b 91 0b 48 3e 6a 24 6f 3e c3 31 56 3e
       0.0033754853 0.19535662 0.23353735 0.2091742
000150 87 b9 fb 3d cb 00 c0 3d 4b cb a6 bb ab 66 08 bd
       0.12291246 0.09375151 -0.0050901524 -0.033301037
000160 3b 43 97 3c 74 ea 30 3e 03 20 b6 bc c2 97 89 bb
       0.018464675 0.17276937 -0.022232061 -0.004198999
000170 2d 0c 30 3d 9d fb 9f bd 71 e7 ae 3d c6 b8 69 3e
       0.04298036 -0.07811663 0.08540238 0.22824392
000180 5a ab 39 3c b4 3e 82 3d ee 57 94 3d fb fc 5a 3d
       0.011332357 0.06359616 0.07243334 0.053463917
000190 fb f7 d7 3d 9a 58 3f be 12 58 c7 3d c3 45 f7 3d
       0.105453454 -0.18686143 0.09733595 0.12073853
0001a0 08 49 04 3d 31 69 88 3d 14 1e b4 3d 5b 0d 89 bd
       0.03229621 0.06660689 0.087947994 -0.066920005
0001b0 7d c7 c0 bd 09 ee c8 3d b2 1d f2 3c b4 98 6e bd
       -0.09413049 0.098110266 0.029555175 -0.058251098
0001c0 44 0f b3 3e aa 88 8a 3e e3 0f dc bc 45 de 2a 3d
       0.34972584 0.2705739 -0.026863044 0.04171588
0001d0 ec 78 84 bc 8b 04 5c be 56 02 4d 3e c7 e8 9a 3d
       -0.016170941 -0.21486108 0.20020422 0.0756393
0001e0 8e 54 6e b9 fc 0d d1 3d cf da 3d bd be ed e7 bc
       -0.00022728948 0.102077454 -0.04635125 -0.028311606
0001f0 3d 59 00 3d 33 74 e9 bd 72 19 ba bd af 64 9d 3c
       0.031335104 -0.11399116 -0.090868846 0.019213049
000200 de fa f1 bc ea 67 2a bd 98 76 1d be 3f 1b 32 3c
       -0.029538568 -0.041603006 -0.15377271 0.010870754
000210 8a 75 09 3d cb c5 52 3e a7 db 12 be b6 a4 6c 3b
       0.03355936 0.20583265 -0.14341603 0.0036108918
000220 a3 57 11 bd 22 8a c7 bc a9 d2 49 be 7b 64 16 be
       -0.035483968 -0.024357859 -0.19709267 -0.14686768
000230 84 52 ec bd d1 84 07 3e a6 26 ef 3d f3 4e 8f 3e
       -0.11539176 0.13234259 0.116772935 0.2798992
000240 88 65 67 bd ec fc d3 3d 22 c7 fe 3d 3e b6 ca bd
       -0.056493312 0.103509754 0.12440325 -0.09898041
000250 71 c3 e1 bd 37 f8 f1 bc 24 b0 4a be b0 27 90 bb
       -0.110236056 -0.029537303 -0.19793755 -0.0043992624
000260 76 f4 29 3d 4c 1c 54 3e 18 62 09 3c 93 06 e9 3d
       0.0414929 0.2071392 0.008385204 0.11378207
000270 2e bd d4 bd 1b 3a d0 bc b7 e5 3f be 2c 0b fa b6
       -0.10387646 -0.025418332 -0.18739973 -7.451881e-06
000280 4c 65 06 3c f9 3b c1 3e 92 e6 7e 3d 98 0b ce 3d
       0.008202862 0.37741068 0.062231608 0.10060805
000290 d7 0a 0c 3e 21 30 88 3c 13 ba 08 3e 6c 72 12 be
       0.1367601 0.016624512 0.13352232 -0.14301461
0002a0 b8 b0 eb 3d a5 79 83 bd 26 49 91 3d e8 38 f8 bd
       0.11508316 -0.06419686 0.0709403 -0.12120229
0002b0 14 80 c4 bd 9c 64 f5 bd ff b9 35 3c fc 81 cb bd
       -0.095947415 -0.1198208 0.011091708 -0.09936902
0002c0 e3 f0 15 bc 12 96 ba bd 01 41 fb bd c4 86 96 be
       -0.00915167 -0.09110655 -0.12268258 -0.29399693
0002d0 b6 23 c1 bd 18 d7 b7 3d a1 b0 de 3d 1a 59 4b be
       -0.094306394 0.08976573 0.10873533 -0.19858208
0002e0 33 1a 05 3e 4c 27 54 be cb c8 9f bd f8 fb 50 bd
       0.12998275 -0.20718116 -0.0780197 -0.051021546
0002f0 e9 9d bf bc 0c a7 ea bd 21 6c 37 be e6 c0 0c 3e
       -0.023390727 -0.11457643 -0.17912342 0.1374546
000300 1c eb 5b 3e 92 cc 62 3e f7 1f 10 be ec df 63 bd
       0.21476406 0.2214835 -0.14074694 -0.05563347
000310 38 da 57 3c 34 96 9b 3d 0b 01 79 bd cb 8b 59 3c
       0.013174586 0.07597008 -0.06079201 0.013277958
000320 a8 88 8c 3d c1 67 1b 3e 85 e9 05 3e 47 f5 d8 bd
       0.068620026 0.15176298 0.13077362 -0.10593658
000330 bb e8 fe 3d 74 37 d0 bc d0 a0 27 be 9f a7 ef 3a
       0.124467336 -0.025417067 -0.16369939 0.0018284208
000340 75 f0 96 3d 28 a1 7a 3d bb 45 6a bc e2 92 75 3d
       0.07370082 0.061188847 -0.014298852 0.05995453
000350 8d 1c 08 bc 7e 75 8f bd 79 41 e1 bd 72 0f 1f be
       -0.008307588 -0.07004832 -0.10998816 -0.15533236
000360 36 e9 b0 bc 5c ca cb bd cd 01 23 be 5a 90 9c bd
       -0.021595579 -0.09950706 -0.15918656 -0.076447204
000370 f2 31 2d 3d 7b 6f 0e 3d 89 df bd 3d 7f 76 62 3d
       0.04228396 0.034774285 0.092711516 0.055288788
000380 a5 61 41 3e 73 a9 00 bc 44 07 c0 bd 91 77 27 3e
       0.18884905 -0.0078529 -0.09376386 0.16354205
000390 cf f3 39 3e 11 21 22 3e bc 21 b7 bd 80 a9 d0 3d
       0.18159412 0.15832926 -0.08941981 0.101885796
0003a0 c2 8e 22 3e 22 3f 71 bd da 34 84 3b b4 43 16 bd
       0.1587477 -0.0588981 0.0040346207 -0.03668566
0003b0 8f ac 91 3d d1 2b a5 bd 09 ad 3b be c9 d1 5a be
       0.07112991 -0.08064998 -0.18327726 -0.21369089
0003c0 6f 59 2d 3e 63 48 97 3d 3b 3a a4 bd e3 2a cd bd
       0.16928647 0.073868535 -0.08018919 -0.100179456
0003d0 26 a6 0d bd 7d de 31 3b 65 81 e0 bd 0c 8e 1d 3d
       -0.03458228 0.002714067 -0.1096218 0.038465545
0003e0 7c 9f 39 3e 6e e4 60 3d 01 8b b9 3d 2d eb aa bc
       0.18127245 0.054905348 0.09059716 -0.020864094
0003f0 2a bd 97 bd d9 de 5d 3d a9 64 aa bd e0 d5 84 bd
       -0.07409127 0.054167602 -0.08319981 -0.06486106

blocks.0.attn.b_Q f4 [3, 24]
000000 32 a1 49 3d 48 62 1e be b2 10 03 3e 2d 18 45 bd
       0.049225993 -0.15467179 0.12799338 -0.04811876
000010 2f b0 08 3e 0a 87 18 3e 59 42 6f be d7 27 ac bc
       0.13348459 0.14895263 -0.23365153 -0.02101509
000020 4b c8 a1 3d c1 ee 27 be 8b 87 8b bc 5f d3 84 be
       0.07899531 -0.16399671 -0.017032405 -0.25942513
000030 5e 7c cc bd 2e 57 90 3d 64 c4 80 3d 12 77 81 3e
       -0.09984659 0.07047878 0.062874585 0.25286156
000040 30 ef cb bc b1 69 0a be 04 51 31 3e 9d a0 bb bd
       -0.024894327 -0.1351688 0.17316061 -0.09161494
000050 72 f9 25 bd 87 9c 9a 3d 9d 2d a4 bc 36 90 71 bc
       -0.040521093 0.075493865 -0.020041281 -0.014743855
000060 44 04 67 3c 57 19 a4 bd de 2f 87 bd e8 fa 61 bd
       0.014100138 -0.08012646 -0.06600927 -0.055170923
000070 26 83 10 3d c1 e9 53 3e 15 88 55 3d 2f 14 0f 3e
       0.035281323 0.20694639 0.05213173 0.13972543
000080 c7 31 c6 3c 91 03 ae 3d fb 17 a2 bd 36 cd 89 3d
       0.024193658 0.08496774 -0.0791473 0.06728594
000090 7a 37 3e bd 63 b2 17 bb 20 93 37 bd da 34 23 3d
       -0.046439625 -0.0023147098 -0.044818044 0.039845325
0000a0 db 4c 4b 3d c1 8e 1b 3d a1 97 e4 3d d9 e4 b9 3d
       0.049633842 0.037977938 0.111617334 0.09076852
0000b0 10 89 e3 bc 18 06 0e bd 91 91 be ba 6c 83 f6 bd
       -0.027775317 -0.03467378 -0.0014539232 -0.120367855
0000c0 0f 68 89 bd 5a 8f b1 bd 09 ca 1f bd 46 a5 3b 3d
       -0.06709301 -0.0866992 -0.039011035 0.045811914
0000d0 61 7e d3 3d 18 23 8a 3b fa 6a 45 bd 28 75 85 3d
       0.10326839 0.0042156093 -0.048197724 0.065164864
0000e0 30 97 2c bd b5 a1 97 bc 78 00 08 bc 73 3d 63 be
       -0.04213637 -0.018509725 -0.008300893 -0.2219141
0000f0 30 b7 6e 3d 6f 7c 05 bd e1 dd 48 3d 73 cc 28 3b
       0.05828017 -0.032589372 0.049039725 0.0025756627
000100 cc 42 a2 3d 23 c7 82 3d 1c e6 d4 3a 38 75 f0 bc
       0.07922897 0.063856386 0.0016242894 -0.02935277
000110 1b 6c 45 3d 01 f0 cc bc 51 01 f9 bd 0c a0 93 bd
       0.0481988 -0.025016787 -0.12158454 -0.07208261

blocks.0.attn.b_K f4 [3, 24]
000000 34 c3 c3 bc 0d c1 82 bd 09 63 3c 3d 24 6e 38 bc
       -0.023896791 -0.06384478 0.045992885 -0.011256728
000010 14 8d 8d 3d ff 58 ea ba 08 ce b3 bd 22 34 94 bd
       0.06911674 -0.0017879306 -0.08779532 -0.07236506
000020 e2 83 e9 bb e3 82 08 bd d4 7f e7 3c f8 cb 3b bc
       -0.0071263174 -0.03332795 0.028259195 -0.011462204
000030 79 92 e5 bb 2d 8a 2a bc 0b 67 b6 bb c1 ed 21 3d
       -0.0070059863 -0.01040892 -0.005566483 0.03953338
000040 cf 8c c2 3b e0 df 51 bc 3b 8f 75 3c fa 3d b1 bc
       0.005937196 -0.012809724 0.014987762 -0.021635998
000050 d9 14 b6 3c af 4b 9e bc 91 e4 11 bc a5 1d bb 3c
       0.022226738 -0.019323198 -0.008904592 0.022841284
000060 40 b4 8d bc 61 d1 12 3c 83 ea 0b bd ec 48 1d 3c
       -0.017297864 0.008961053 -0.034159195 0.009599905
000070 84 eb 83 bc 8a ce ce bb 2e 9d af 3c 81 69 88 bc
       -0.016103514 -0.0063112425 0.021437254 -0.01665187
000080 03 dd 5e 3b af 04 46 bc 52 13 9f 3c 41 ed 51 3c
       0.0034006245 -0.012086078 0.019418392 0.012812913
000090 a0 f0 b9 3b cf 33 7a bc ca 8c 01 3c b6 d5 84 ba
       0.0056744367 -0.015271141 0.007907102 -0.0010134492
0000a0 4a 19 59 ba 38 82 30 bc 52 9b 30 3c c3 88 9f 3c
       -0.00082816614 -0.010773234 0.010779219 0.019474393
0000b0 77 ad c4 3b 0f 5a f2 bc 4c 13 af 3b 46 9c 18 3c
       0.006002124 -0.029583959 0.0053428765 0.009314602
0000c0 5d 4c fb 39 ce 4c e8 3b 7e 05 7f bc 2a 75 11 3b
       0.00047931346 0.007089234 -0.015565274 0.002219508
0000d0 d7 10 8c bc cf 76 81 bc cf 30 28 3c 1b 1c 21 bb
       -0.017097874 -0.015803723 0.010265543 -0.0024583403
0000e0 23 f8 43 bc 6e 84 78 bb 87 7d 4a 3c 6f 63 69 ba
       -0.011961016 -0.003792073 0.01235903 -0.00089030614
0000f0 33 a3 cc bc c5 88 be ba cd 63 7d ba 1c fb 66 bb
       -0.024980163 -0.001453661 -0.00096660556 -0.0035244888
000100 e8 a6 ac bc b1 97 89 bb f9 87 ac 3c ec b6 05 3c
       -0.02107568 -0.004198991 0.02106093 0.008161288
000110 12 c9 73 3b 51 06 a3 ba ea f4 d8 bb 9b d3 9c 3c
       0.0037198705 -0.0012437796 -0.006620993 0.01914387
