chapter1_transformers/exercises/monthly_algorithmic_problems/september23_sum/sum_model_corr_loss.pt (torch, 132811 bytes, 26 tensors)

embed.W_E f4 [13, 48]
0.04713679 0.19252221 0.1402184 -0.16852628 0.09464417 -0.15702893 -0.0041120057 -0.103084564
-0.15236565 0.14923678 -0.075388685 -0.08009507 -0.1810463 -0.009181756 -0.16009012 0.066285275
0.11849368 0.0035267214 0.03249968 0.025499284 -0.03909386 0.12734751 0.10442403 0.20044701
0.02517342 0.14258474 -0.09930249 0.13998292 0.14889564 0.06819238 -0.09346778 0.04472609
-0.11771276 -0.15131678 -0.09048333 0.1731949 0.08757811 -0.037990905 0.017957168 -0.07229185
-0.06894553 0.047919996 -0.0495322 -0.045440312 -0.11068877 0.2335679 -0.12529252 -0.04128736
-0.09278288 0.040539615 0.17312342 -0.017161444 0.015349787 0.042452265 -0.08483653 -0.23834613
-0.14471403 0.042513736 -0.005695846 -0.011737379 -0.10053468 0.24408172 -0.052533347 0.17741606
0.15071848 0.043221325 0.15768585 0.09349133 0.06871625 0.008395297 0.003157051 0.13911954
-0.2123937 0.16563289 -0.054579023 0.023314172 0.01363802 -0.07039608 -0.11358206 -0.039933424
0.022883946 -0.028831966 -0.070714705 0.017177828 0.1348547 0.0015634022 0.14164329 -0.012122553
0.00405568 -0.031617664 -0.12732881 0.050704084 -0.17824621 -0.10151255 -0.043130625 -0.029026277
-0.24581201 0.18084489 0.1805607 0.08918448 0.04658219 0.03683301 0.0605073 -0.22136793
0.005395978 0.17873928 0.070260234 -0.059909783 0.03116862 0.16381381 0.033877507 0.03870842
-0.096212715 -0.014694427 0.016360972 0.05392898 0.071919106 0.010140758 0.04843654 0.07350538
-0.059102967 0.17847219 0.0019685796 0.09048616 0.11205485 0.108756974 0.05981116 -0.024518102
0.27404842 0.09928573 -0.073035166 -0.099522434 -0.04072637 0.028580014 0.05811872 0.05667525
0.023686634 -0.07073197 -0.31472585 0.0750703 -0.032897104 0.0040162285 -0.026816968 0.11204453
-0.13722803 0.07554398 0.20019872 0.083889924 -0.003752842 -0.02784706 0.0098998835 -0.10569084
0.0017746588 0.20989281 -0.02412931 0.13901396 -0.16810432 -0.11925021 0.051949766 0.20700225
-0.19354004 -0.014548467 0.028277945 -0.013726518 0.0033557187 -0.12321716 0.08362273 -0.0804353
-0.29541638 0.08204701 -0.046684403 0.0034577523 -0.015176362 -0.009406453 0.07908989 0.10295165
-0.06154078 0.16538763 -0.016888158 -0.16129342 -0.15574482 -0.12036823 -0.040056713 0.031677276
0.04030672 -0.124627054 -0.33784318 0.023736468 0.10606509 -0.06971386 0.041592635 0.010316609
0.15853702 -0.045262806 0.13994983 0.050190393 -0.10337442 0.13148303 0.061241474 0.14604834
0.027426016 0.17298198 -0.17632253 0.039361257 0.058615472 0.05641517 0.20674564 0.109753326
-0.08394805 -0.16261992 -0.0846925 -0.072677545 -0.09096716 0.03804136 -0.011801653 -0.22962008
-0.17487456 0.0055825147 -0.17894219 0.16867128 0.10549287 -0.059944108 0.0985422 0.09371304
-0.08410742 0.21157467 0.07949105 -0.09942604 -0.12846123 -0.08843774 0.08762885 0.15526238
0.021775452 -0.028642012 -0.15790069 0.0018900543 0.0841557 0.10016078 -0.051318057 0.16386805
-0.044510618 -0.06355017 -0.053317618 0.05952481 -0.13067403 0.1156271 0.0011513556 0.16909584
0.15175109 0.0018879202 0.07672841 0.263074 0.11381072 0.0812031 0.17878003 0.08348168
00000000: 8212 413d 8b24 453e 6a95 0f3e 2792 2cbe
00000010: cdd4 c13d 31cc 20be 01be 86bb 001e d3bd
00000020: be05 1cbe 87d1 183e 6265 9abd e208 a4bd
00000030: 3464 39be 136f 16bc aaee 23be 93c0 873d
00000040: d1ac f23d 9120 673b 621e 053d e0e3 d03c
00000050: e220 20bd 6367 023e 44dc d53d fb41 4d3e
00000060: 7d38 ce3c bc01 123e 1b5f cbbd af57 0f3e
00000070: 1978 183e 72a8 8b3d 096c bfbd b432 373d
00000080: 6313 f1bd c9f2 1abe 534f b9bd 015a 313e
00000090: 275c b33d 5a9c 1bbd e91a 933c c00d 94bd
000000a0: 5033 8dbd c247 443d 47e2 4abd 9f1f 3abd
000000b0: cbb0 e2bd 6c2c 6f3e af4c 00be ef1c 29bd
000000c0: f304 bebd de0c 263d 4447 313e 2896 8cbc
000000d0: ac7d 7b3c 6de2 2d3d c6be adbd 0211 74be
000000e0: ea2f 14be e222 2e3d 38a4 babb 234e 40bc
000000f0: 20e5 cdbd 8ff0 793e 352d 57bd 8eac 353e
00000100: f255 1a3e d808 313d 6678 213e 6278 bf3d
00000110: 1bbb 8c3d 6e8c 093c 87e6 4e3b 5a75 0e3e
00000120: bc7d 59be ab9b 293e 418e 5fbd 5dfd be3c
00000130: 0072 5f3c d22b 90bd b69d e8bd 3b91 23bd
00000140: 1d77 bb3c 0431 ecbc dfd2 90bd 84b8 8c3c
00000150: 5a17 0a3e 13eb cc3a f00a 113e ac9d 46bc
00000160: 82e5 843b 8681 01bd 7c62 02be 16af 4f3d
00000170: 2d86 36be d0e5 cfbd bda9 30bd 84c8 edbc
00000180: 25b6 7bbe 672f 393e e7e4 383e 5aa6 b63d
00000190: f7cc 3e3d 36de 163d 81d6 773d 46ae 62be
000001a0: bfd0 b03b 6e07 373e 99e4 8f3d f663 75bd
000001b0: 5555 ff3c cfbe 273e 24c3 0a3d b88c 1e3d
000001c0: 2c0b c5bd e5c0 70bc 7207 863c a2e4 5c3d
000001d0: 534a 933d 6c25 263c 6565 463d fd89 963d
000001e0: f415 72bd 6ac1 363e 4903 013b cf50 b93d
000001f0: 037d e53d fabb de3d 8cfc 743d 30da c8bc
00000200: 1350 8c3e 5156 cb3d 7693 95bd 6bd2 cbbd
00000210: b2d0 26bd a220 ea3c e50d 6e3d 4f24 683d
00000220: 790a c23c ecdb 90bd bf23 a1be 75be 993d
00000230: 1dbf 06bd 919a 833b 42af dbbc 9a77 e53d
00000240: 8185 0cbe cdb6 9a3d e500 4d3e 7bce ab3d
00000250: 3ef2 75bb 841f e4bc 1f33 223c 7074 d8bd
00000260: ab9b e83a 24ee 563e d5aa c5bc ad59 0e3e
00000270: 8a23 2cbe 7439 f4bd 47c9 543d 66f8 533e
00000280: 5c2f 46be b15c 6ebc 26a7 e73c 30e5 60bc
00000290: 9eeb 5b3b 4759 fcbd 6542 ab3d 43bb a4bd
000002a0: d140 97be 4308 a83d 2538 3fbd 759b 623b
000002b0: 47a6 78bc 861d 1abc e1f9 a13d 51d8 d23d
000002c0: 2f12 7cbd 605b 293e 0959 8abc 1a2a 25be
000002d0: 927b 1fbe 9e83 f6bd 8212 24bd 08c0 013d
000002e0: a918 253d 783c ffbd c8f9 acbe fb72 c23c
000002f0: a738 d93d 24c6 8ebd 0a5d 2a3d ff06 293c
00000300: 8757 223e 7e65 39bd 024f 0f3e 7194 4d3d
00000310: f8b5 d3bd 7da3 063e 57d8 7a3d b28d 153e
00000320: 86ac e03c 3022 313e e58d 34be 4539 213d
00000330: c716 703d 9813 673d 21b5 533e 5ac6 e03d
00000340: f5ec abbd d685 26be 4373 adbd f7d7 94bd
00000350: fe4c babd 42d1 1b3d b85b 41bc 8721 6bbe
00000360: 5112 33be 87ed b63b 9f3c 37be 2ab8 2c3e
00000370: a50c d83d f487 75bd 7ed0 c93d 9fec bf3d
00000380: 8340 acbd 08a7 583e 34cc a23d e19f cbbd
00000390: 578b 03be d91e b5bd c176 b33d 1afd 1e3e
000003a0: 6f62 b23c a7a2 eabc b8b0 21be b3bb f73a
000003b0: d359 ac3d 1821 cd3d e232 52bd 07cd 273e
000003c0: c450 36bd 9726 82bd 9363 5abd 4ad0 733d
000003d0: 6acf 05be e7cd ec3d 15e9 963a 7627 2d3e
000003e0: a364 1b3e 1774 f73a c923 9d3d a3b1 863e
000003f0: 9815 e93d d04d a63d 1d12 373e 71f8 aa3d

pos_embed.W_pos f4 [15, 48]
-0.12499274 0.093403585 -0.067047425 -0.05621497 -0.012302181 0.06180821 0.071708865 -0.05570631
-0.18583421 -0.057211444 0.11098272 0.1525941 -0.011052749 0.26327333 -0.072121166 0.061800778
-0.23490977 -0.05299888 0.40183386 0.030877192 -0.021615967 -0.07684126 -0.14431608 0.069764666
0.09283059 0.046351127 -0.15033872 0.34657076 -0.039720595 -0.01791824 -0.02486721 -0.021482687
-0.13982412 -0.05103159 0.030946055 -0.2777622 0.012335862 0.08964981 -0.13296005 -0.054345462
-0.23258932 -0.07378862 -0.1090987 0.11452714 -0.029572666 0.0064206296 -0.021494757 -0.26507714
0.31457266 -0.16130967 0.04001094 -0.016286833 -0.12711444 0.17488341 -0.04112416 -0.041049026
-0.29207852 0.0025120343 0.19779825 -0.18204083 0.1302123 0.034611028 0.11696664 0.1205862
0.06649603 0.08178058 0.016812893 0.22075024 0.050134547 -0.154873 0.11221476 0.10450602
-0.13522519 0.006021598 0.055610243 -0.13415828 -0.21048512 0.40125546 0.30944306 -0.062152185
-0.03379997 -0.017149052 0.15521006 0.20570222 0.006922683 0.16724378 -0.0008549583 -0.10583168
-0.15739064 -0.0033896782 -0.40293542 0.039378364 0.010170395 -0.059402086 -0.029873524 0.14232266
0.041341905 0.06740972 0.07762883 0.23763512 -0.0016720287 -0.038784575 0.001702842 -0.009267442
-0.032796886 0.32054272 -0.19377886 0.0703413 0.12593356 -0.09968392 -0.31572407 0.03699894
-0.10571499 -0.014787027 0.15903927 0.16514021 0.122196354 0.09978289 -0.1182051 -0.124018736
0.03616774 0.19944412 -0.1805146 0.14975384 0.10557993 -0.03144368 -0.02937928 -0.37394547
0.022481086 -0.091855295 -0.05564342 -0.030149829 0.10767726 0.029850654 -0.11951433 0.29443726
0.12658538 0.07305225 0.1675326 0.16579553 0.18675652 -0.2025285 0.033952415 -0.004226147
-0.034335986 -0.34597984 -0.11331003 -0.20472772 -0.19111694 -0.16193667 -0.08645562 0.04999536
0.2020968 -0.26514968 -0.1696592 0.09792997 -0.18094741 0.006905352 -0.075302936 -0.0869127
0.10886399 0.07480187 0.07664822 0.15427633 0.081144676 -0.39513114 0.059548154 0.31718764
0.06902705 0.02160662 -0.3822578 -0.061534453 0.09276446 0.13722791 -0.00721027 0.026911367
0.3234089 0.04773319 -0.024633631 -0.24578506 -0.10301449 -0.0892539 0.05735381 -0.16968428
0.047437377 0.24407876 0.14064068 -0.23040192 0.010936788 0.022753473 -0.12973143 0.14304927
-0.05686759 -0.11134081 -0.08226301 -0.033338953 -0.07610101 -0.0054276525 0.13523789 -0.11195131
0.34759137 -0.15760149 -0.32372636 0.23492092 -0.3401437 0.20891704 -0.059756212 -0.15423879
-0.054849874 0.10339761 -0.00163646 0.35778454 -0.19495256 0.07424258 -0.18145426 0.00024242252
-0.044692256 -0.12325057 0.16691788 -0.006378396 0.14535858 0.10447688 -0.054215785 0.11528032
-0.011070879 -0.15104161 0.059390306 0.20046228 -0.08043318 0.19221818 0.14573096 0.116085775
-0.15515359 -0.40765798 0.0447606 -0.10587118 0.040653545 0.1420076 0.12843037 0.22798051
-0.116651475 -0.21284361 -0.2110827 -0.0103376545 0.096524104 -0.007466692 0.05951776 -0.3639714
-0.043435544 -0.11753846 0.20715089 0.2082654 -0.029711053 0.010339859 -0.022941766 0.13187052
00000000: 32fc ffbd 614a bf3d 2950 89bd ab41 66bd
00000010: 168f 49bc 9b2a 7d3d 19dc 923d 4d2c 64bd
00000020: 534b 3ebe 8c56 6abd e94a e33d a141 1c3e
00000030: 9716 35bc c3cb 863e 43b4 93bd d022 7d3d
00000040: 308c 70be 5b15 59bd 2bbd cd3e 2af2 fc3c
00000050: f813 b1bc f35e 9dbd 98c7 13be c7e0 8e3d
00000060: f71d be3d aeda 3d3d 65f2 19be b971 b13e
00000070: 10b2 22bd 46c9 92bc 52b6 cbbc 76fc afbc
00000080: 0e2e 0fbe 8006 51bd 9582 fd3c d936 8ebe
00000090: 5b1c 4a3c 529a b73d ae26 08be 5999 5ebd
000000a0: e52b 6ebe 7d1e 97bd 246f dfbd 358d ea3d
000000b0: 6042 f2bc 2564 d23b c615 b0bc 31b8 87be
000000c0: ab0f a13e 5d2e 25be 83e2 233d f76b 85bc
000000d0: 4a2a 02be a314 333e cf71 28bd 0623 28bd
000000e0: 518b 95be f1a0 243b a08b 4a3e e968 3abe
000000f0: 6056 053e 4bc4 0d3d 358c ef3d e6f5 f63d
00000100: 122f 883d 947c a73d 31bb 893c 5a0c 623e
00000110: e259 4d3d 0797 1ebe dad0 e53d 4107 d63d
00000120: 7978 0abe d350 c53b 91c7 633d ca60 09be
00000130: 6989 57be 5b71 cd3e 526f 9e3e 4a93 7ebd
00000140: d671 0abd 2b7c 8cbc 63ef 1e3e 9aa3 523e
00000150: add7 e23b f441 2b3e 481f 60ba 48be d8bd
00000160: 032b 21be 5d25 5ebb 8d4d cebe 354b 213d
00000170: baa1 263c 9a4f 73bd 52b9 f4bc 08bd 113e
00000180: 2156 293d 1b0e 8a3d ddfb 9e3d 9f56 733e
00000190: f927 dbba 93dc 1ebd e531 df3a 78d6 17bc
000001a0: 0756 06bd 2d1e a43e f76d 46be 190f 903d
000001b0: baf4 003e 1527 ccbd 96a6 a1be 338c 173d
000001c0: 1a81 d8bd 4945 72bc 31db 223e 841a 293e
000001d0: 1542 fa3d f95a cc3d 8415 f2bd 89fd fdbd
000001e0: a024 143d 143b 4c3e d2d8 38be 1259 193e
000001f0: 4a3a d83d 17cb 00bd d1ac f0bc c875 bfbe
00000200: 412a b83c a11e bcbd 5bea 63bd c6fc f6bc
00000210: e585 dc3d 5c89 f43c eec3 f4bd 7bc0 963e
00000220: 999f 013e 6b9c 953d aa8d 2b3e 4ec6 293e
00000230: 1a3d 3f3e a263 4fbe b011 0b3d 7e7b 8abb
00000240: e4a3 0cbd 4524 b1be 170f e8bd 25a4 51be
00000250: 29b4 43be bad2 25be a50f b1bd efc7 4c3d
00000260: 77f2 4e3e b3c1 87be 24bb 2dbe 828f c83d
00000270: 474a 39be 4b46 e23b 6d38 9abd 49ff b1bd
00000280: 15f4 de3d b931 993d bef9 9c3d 9dfa 1d3e
00000290: 2e2f a63d a14e cabe c4e8 733d 6b66 a23e
000002a0: 0e5e 8d3d 5e00 b13c 4bb7 c3be 8d0b 7cbd
000002b0: 4bfb bd3d 7985 0c3e 2144 ecbb 3a75 dc3c
000002c0: da95 a53e e183 433d 78cc c9bc 14af 7bbe
000002d0: 43f9 d2bd c0ca b6bd d4eb 6a3d b7c1 2dbe
000002e0: b24d 423d c8ef 793e 1c04 103e 7bee 6bbe
000002f0: 3730 333c 7e65 ba3c 51d8 04be 827b 123e
00000300: fded 68bd a706 e4bd 8279 a8bd 6d8e 08bd
00000310: d9da 9bbd 73da b1bb cd7b 0a3e ba46 e5bd
00000320: 7ff7 b13e 4962 21be 76bf a5be 1c8f 703e
00000330: 5127 aebe 59ee 553e eec2 74bd c6f0 1dbe
00000340: 43aa 60bd 20c2 d33d 7c7e d6ba 892f b73e
00000350: a5a1 47be 7e0c 983d 25cf 39be cd32 7e39
00000360: 3a0f 37bd cb6a fcbd 85ec 2a3e dd01 d1bb
00000370: e1d8 143e f9f7 d53d 5f11 5ebd 1718 ec3d
00000380: a262 35bc a7aa 1abe 4043 733d fc45 4d3e
00000390: 27ba a4bd d8d4 443e 7f3a 153e 61be ed3d
000003a0: 95e0 1ebe 8cb8 d0be e456 373d fdd2 d8bd
000003b0: 5584 263d 716a 113e 4083 033e b973 693e
000003c0: f8e6 eebd adf3 59be 1026 58be 445f 29bc
000003d0: 6eae c53d 27ab f4bb e5c8 733d 765a babe
000003e0: 78e9 31bd 01b8 f0bd 5d1f 543e 8643 553e
000003f0: 9864 f3bc 8368 293c 5ff0 bbbc 1109 073e

blocks.0.ln1.w f4 [48]
1.010239 0.91275185 0.8824296 0.8876513 0.9131329 0.87187797 0.9897482 0.922314
1.0680277 0.94425124 1.0390586 1.0076798 1.0707163 0.9949211 1.0487704 0.8457208
0.8914956 0.81229395 0.9623439 0.99197316 0.9042249 0.9675687 0.9610209 0.9134922
0.91956604 0.9296595 0.9955808 0.90558714 0.90219855 0.91334736 0.90575886 0.99561304
0.96564895 1.0150244 0.7580222 1.0391665 0.85800993 0.93997884 0.872366 0.9419798
0.89559066 1.0099077 0.96110785 0.98020124 0.9443072 0.833703 0.8601881 0.8817768
00000000: 834f 813f 1baa 693f e8e6 613f 1e3d 633f
00000010: 14c3 693f 6533 5f3f 2360 7d3f c51c 6c3f
00000020: 22b5 883f 73ba 713f dfff 843f a7fb 803f
00000030: 3b0d 893f 26b3 7e3f 1c3e 863f 2981 583f
00000040: 0e39 643f 7ff2 4f3f 2b5c 763f f4f1 7d3f
00000050: 487b 673f 95b2 773f 7705 763f a0da 693f
00000060: ae68 6b3f 2afe 6d3f 62de 7e3f 8fd4 673f
00000070: 7cf6 663f 22d1 693f d0df 673f 7fe0 7e3f
00000080: c534 773f 52ec 813f be0d 423f 6803 853f
00000090: 8aa6 5b3f 74a2 703f 6153 5f3f 9725 713f
000000a0: 6e45 653f a844 813f 2a0b 763f 78ee 7a3f
000000b0: 1ebe 713f 8f6d 553f 4a35 5c3f 20bc 613f

blocks.0.ln1.b f4 [48]
-0.01238907 0.09530778 0.025120605 0.009341652 -0.024003055 -0.002868752 -0.0044824816 0.05788234
-0.023303086 0.023744384 -0.09904321 0.086744025 -0.0647249 0.07824768 -0.0067245634 0.012848
-0.040835384 0.06150301 0.069744766 -0.016403088 0.019613462 0.0030891611 -0.032969095 0.07258195
0.0142213665 0.054514524 -0.039557472 -0.16230105 -0.024650205 0.08271719 0.043941136 -0.042297937
0.021985855 -0.14477311 0.030585373 0.020498946 0.020204699 0.03091806 -0.04681371 -0.051478524
-0.052806623 -0.08096348 -0.047628198 -0.029332126 0.09049866 0.013570737 -0.048888575 -0.006487021
00000000: 87fb 4abc ba30 c33d bac9 cd3c ba0d 193c
00000010: 0ea2 c4bc ac01 3cbb c8e1 92bb 0816 6d3d
00000020: 1de6 bebc 9583 c23c 2bd7 cabd daa6 b13d
00000030: 7d8e 84bd 5240 a03d ba59 dcbb 6b80 523c
00000040: 0143 27bd 95ea 7b3d 58d6 8e3d c55f 86bc
00000050: 69ac a03c 8673 4a3b 9a0a 07bd d8a5 943d
00000060: bc00 693c 9f4a 5f3d 0407 22bd 3f32 26be
00000070: 3aef c9bc a167 a93d 9ffb 333d 9a40 2dbd
00000080: ae1b b43c 673f 14be 2d8e fa3c 68ed a73c
00000090: 5384 a53c df47 fd3c bcbf 3fbd 25db 52bd
000000a0: c24b 58bd 2ed0 a5bd c915 43bd ed49 f0bc
000000b0: 5d57 b93d cc57 5e3c 633f 48bd 1491 d4bb

blocks.0.attn.W_Q f4 [3, 48, 24]
-0.23562819 0.015188968 0.071914114 -0.11144372 -0.15117939 0.051144227 -0.24717699 -0.023987662
0.07272498 -0.015623163 -0.11540999 -0.066132315 -0.13803878 -0.26804376 -0.24183597 -0.14016266
0.006533622 0.115685776 0.04404452 0.17984602 -0.052180212 0.14672682 0.06181789 0.059825998
0.02297418 -0.10804767 -0.0031038015 -0.18681207 0.29391995 0.022837035 -0.03734298 0.10711028
0.2335545 -0.08505761 0.35271272 -0.23475108 -0.21279275 0.05560775 -0.057574518 0.029099314
-0.042846184 -0.009549728 0.046282317 -0.021849416 0.1073358 -0.09830107 0.24925376 -0.26820084
-0.17623666 -0.0028956803 0.10317293 -0.11131957 0.11908511 -0.040541925 -0.13600409 0.20262924
0.18357626 -0.13078284 0.21852101 -0.16557857 0.031016106 0.04953453 0.17084837 0.18863752
-0.0009607002 -0.21702942 -0.12196257 0.03863382 -0.17394683 -0.058070283 -0.012984534 -0.022577584
0.091486946 0.009674431 0.0045848 -0.09833857 -0.09137985 0.19068557 -0.069906645 0.33715454
-0.2521756 0.09050294 0.18542108 -0.15100811 0.0023810742 -0.017557478 0.2719763 0.008359864
-0.07254487 -0.04069434 0.043578885 0.21194768 0.0015137583 -0.21284541 0.49819937 -0.2895412
0.060274698 -0.05004027 -0.25795683 -0.0068595074 0.03992645 0.11185395 -0.07573816 0.28592923
-0.13101417 0.13504246 0.068650074 -0.058510724 0.040817592 -0.021759085 -0.08913796 0.15427084
0.111182265 -3.060778e-05 0.27231577 -0.081313625 -0.013869774 0.009616148 -0.06719924 -0.29161897
0.047290955 0.15063709 -0.09556771 0.18475004 0.0479037 0.13700806 -0.12494112 0.13708106
-0.20991752 -0.02369468 -0.010207952 0.1620491 -0.13811608 -0.14958245 0.027865654 0.19877325
0.07165981 -0.18411711 -0.0031617682 0.12551242 0.16472028 0.0010835949 -0.29956487 -0.2328606
0.20245065 -0.3250815 -0.013700834 0.02456079 0.18523815 -0.008915387 -0.020092709 -0.033071663
0.026138881 -0.29524657 -0.03281681 -0.05007672 -0.0179871 0.02373827 0.14743996 0.16605677
0.072242446 0.0048434758 -0.12614621 0.031909492 0.079954475 -0.053916138 -0.05120898 -0.22702697
-0.15760593 -0.041092563 -0.09416072 -0.09486057 -0.16384698 -0.11153118 -0.08785447 0.19569118
-0.17890993 -0.11107211 0.06965798 0.16235054 -0.00753386 -0.017773401 -0.08226955 0.09915069
-0.008831142 0.13746116 -0.09629201 -0.30039054 0.24157734 0.08760256 -0.07405185 0.15744193
-0.18828315 0.001087914 -0.07619275 -0.0844285 -0.13083243 -0.08355599 -0.15969972 -0.55688924
0.23808149 0.014181773 -0.06893848 0.07344456 0.10487226 0.48536733 0.107900254 -0.0258748
-0.070932135 -0.06838483 0.39332607 -0.040134355 -0.094612636 -0.0034112467 0.0048880195 0.11283687
-0.17663294 -0.15718253 -0.049479157 0.10737708 0.062429782 0.07689653 0.0320198 -0.0133764
0.083005324 -0.1378857 -0.13531385 -0.17476104 -0.045526415 -0.09230775 0.18242271 -0.08067102
-0.0121125765 -0.14310466 -0.07620416 0.14038566 0.08237782 0.07221337 -0.043545324 -0.032455947
-0.24575484 0.1419352 0.08722468 0.16209908 -0.2534032 -0.07059754 0.0033907164 0.049137697
-0.036339737 0.28372234 -0.06278978 0.04161524 0.051592212 0.3046341 0.1003556 -0.107114844
00000000: 8448 71be 26db 783c b547 933d 9b3c e4bd
00000010: c5ce 1abe 9c7c 513d f71b 7dbe c681 c4bc
00000020: d6f0 943d 4cf8 7fbc 135c ecbd 6170 87bd
00000030: 0a5a 0dbe 083d 89be d9a3 77be cd86 0fbe
00000040: fe17 d63b aaec ec3d 0768 343d 8e29 383e
00000050: ebba 55bd 8e3f 163e c134 7d3d 1b0c 753d
00000060: 5934 bc3c 1948 ddbd 2669 4bbb aa4b 3fbe
00000070: ad7c 963e bc14 bb3c f4f4 18bd a25c db3d
00000080: e928 6f3e af32 aebd c396 b43e 9662 70be
00000090: 58e6 59be f4c4 633d 42d3 6bbd af61 ee3c
000000a0: 7b7f 2fbd 7676 1cbc 8792 3d3d 8cfd b2bc
000000b0: dfd2 db3d 1252 c9bd 613c 7f3e 9f51 89be
000000c0: 6277 34be 74c5 3dbb 544c d33d 84fb e3bd
000000d0: e5e2 f33d 4a0f 26bd a844 0bbe 0a7e 4f3e
000000e0: 6afb 3b3e f0eb 05be f9c3 5f3e 6e8d 29be
000000f0: 7d15 fe3c b8e4 4a3d e0f2 2e3e 322a 413e
00000100: 80d7 7bba f63c 5ebe 83c7 f9bd 7f3e 1e3d
00000110: 1e1f 32be 1bdb 6dbd 15bd 54bc a0f4 b8bc
00000120: 825d bb3d 8181 1e3c 173c 963b bb65 c9bd
00000130: 5c25 bbbd 1443 433e 372b 8fbd 859f ac3e
00000140: 291d 81be 9b59 b93d 06df 3d3e dfa1 1abe
00000150: cc0b 1c3b b3d4 8fbc 7a40 8b3e d0f7 083c
00000160: 6892 94bd 1caf 26bd c67f 323d d008 593e
00000170: 4d69 c63a 26f4 59be fd13 ff3e bf3e 94be
00000180: 9ae2 763d 07f7 4cbd eb12 84be b8c5 e0bb
00000190: eb89 233d af13 e53d 9c1c 9bbd 5165 923e
000001a0: 9428 06be 9248 0a3e 6998 8c3d f1a8 6fbd
000001b0: 5930 273d 1c40 b2bc f68d b6bd 2df9 1d3e
000001c0: 87b3 e33d db60 00b8 f96c 8b3e c287 a6bd
000001d0: 0c3e 63bc 0c8d 1d3c c19f 89bd 154f 95be
000001e0: 29b4 413d 9c40 1a3e 01b9 c3bd 1d2f 3d3e
000001f0: ac36 443d d74b 0c3e 21e1 ffbd fa5e 0c3e
00000200: 9ef4 56be 581b c2bc 413f 27bc 33f0 253e
00000210: 4d6e 0dbe 242c 19be 8346 e43c 378b 4b3e
00000220: 61c2 923d 3289 3cbe ab35 4fbb 5486 003e
00000230: 6fac 283e 6907 8e3a 9160 99be 0273 6ebe
00000240: 394f 4f3e 1571 a6be 7679 60bc b633 c93c
00000250: 12af 3d3e d811 12bc 7799 a4bc 2776 07bd
00000260: 3521 d63c 8f2a 97be eb6a 06bd 3f1d 4dbd
00000270: af59 93bc c376 c23c 80fa 163e c90a 2a3e
00000280: d9f3 933d 05b6 9e3b 792c 01be 87b3 023d
00000290: 2cbf a33d 2bd7 5cbd 82c0 51bd c279 68be
000002a0: 7363 21be ad50 28bd 56d7 c0bd 4246 c2bd
000002b0: 81c7 27be 766a e4bd 0bed b3bd 4563 483e
000002c0: 2a34 37be c679 e3bd d8a8 8e3d 383f 263e
000002d0: 99de f6bb 8699 91bc f07c a8bd 840f cb3d
000002e0: 7fb0 10bc 9ec2 0c3e bf34 c5bd cacc 99be
000002f0: 0d60 773e f968 b33d 7fa8 97bd 7538 213e
00000300: 4ccd 40be 5698 8e3a f20a 9cbd d9e8 acbd
00000310: f0f8 05be 671f abbd 5388 23be 4b90 0ebf
00000320: a2cb 733e ab5a 683c 9e2f 8dbd 1a6a 963d
00000330: 44c7 d63d 1182 f83e cffa dc3d 63f7 d3bc
00000340: de44 91bd 590d 8cbd 0962 c93e ec63 24bd
00000350: 45c4 c1bd 398f 5fbb ae2b a03b 0417 e73d
00000360: 44df 34be 75f4 20be a8aa 4abd 84e8 db3d
00000370: 5fb6 7f3d ee7b 9d3d 3227 033d b028 5bbc
00000380: b2fe a93d e931 0dbe b78f 0abe 8ff4 32be
00000390: e879 3abd d80b bdbd 05cd 3a3e d936 a5bd
000003a0: d473 46bc 078a 12be ed10 9cbd 42c1 0f3e
000003b0: b4b5 a83d 9ae4 933d 955c 32bd 87f0 04bd
000003c0: 28a7 7bbe 7657 113e daa2 b23d 4dfd 253e
000003d0: 10be 81be 7195 90bd c836 5e3b 9c44 493d
000003e0: fad8 14bd 0e44 913e ee97 80bd be74 2a3d
000003f0: 5b52 533d 00f9 9b3e 3d87 cd3d 075f dbbd

blocks.0.attn.W_K f4 [3, 48, 24]
-0.11253057 0.26311085 0.18464798 0.20569059 -0.025742326 -0.12736747 0.028606018 -0.22125575
0.16754492 -0.30023935 -0.09304598 -0.03997177 0.31822908 0.110179074 -0.29922298 -0.06899596
-0.040948056 -0.19725372 -0.13947585 0.22496921 -0.06725272 0.23390567 0.17444296 -0.014291279
0.22460417 -0.08526081 0.11164275 0.16508389 0.0036457086 0.27470517 -0.34671167 -0.21806937
0.09206023 0.06632118 0.36526847 0.18402958 -0.19430353 -0.22199763 -0.047135267 0.06957712
0.012138913 0.14226165 -0.1046706 0.13512662 -0.16161938 -0.2631917 0.11932041 0.025538316
-0.15976278 0.059835117 -0.022783464 -0.17055224 -0.14449374 -0.039662853 -0.107464544 -0.27238923
0.01748078 0.11423358 0.122172944 -0.25261396 0.19461149 -0.23436557 -0.11357925 -0.22932109
-0.08472478 -0.064472966 0.15823771 0.19685903 0.10693794 0.030802973 -0.11210944 -0.13304313
-0.2934426 0.09157626 0.1579416 0.06403647 -0.060277566 -0.12599315 0.0996749 0.5723235
0.040975753 0.06777806 -0.27012163 -0.021845186 -0.1040459 -0.06796686 0.17504339 -0.1199714
-0.1538463 0.13767017 0.228835 0.124970004 0.02691515 -0.08142733 -0.18333092 0.032757554
0.0070613865 -0.25197306 0.22272123 -0.2155694 -0.15344146 0.10292164 -0.009625842 0.116952926
-0.15113299 -0.017038668 -0.03472307 0.12595104 0.048638612 0.1818142 -0.0918317 -0.061125763
0.055204183 0.14083496 -0.17639971 0.14547768 -0.104716085 0.013504103 0.10256064 0.13984126
0.06367544 0.073874116 0.07116259 0.1701179 -0.11708683 0.078902975 -0.281731 -0.028323216
-0.08478838 0.24298833 0.071292594 -0.13316146 -0.134729 0.12336766 0.05809795 -0.0301187
-0.13622029 -0.007516444 -0.04268702 -0.07758744 0.08488605 0.014240568 -0.08130629 -0.039528526
-0.13090986 0.016594 -0.15696399 -0.16879152 0.09435997 -0.033774383 -0.09905353 0.0895984
0.055692293 0.056178153 0.13613002 -0.20872171 -0.119977415 -0.3430107 0.28358757 0.2310981
-0.18433288 -0.0255871 0.12231076 0.12510711 -0.044242047 0.02471077 -0.011271372 0.32448202
-0.011856604 0.16563098 0.19834517 0.06493427 -0.28959343 -0.010233443 -0.032516155 -0.14412844
0.18186457 0.19222715 -0.0343953 0.1428425 -0.05284637 0.04948429 -0.017255181 -0.14812219
-0.007390275 -0.10553722 0.060615405 0.11062254 -0.043056037 0.1328469 0.066285945 0.015134884
0.12745826 0.056746256 -0.14035639 -0.22216783 0.066472456 -0.15329659 -0.016184222 0.29460573
-0.11987847 0.1383703 -0.20913476 0.17495906 -0.048587337 0.035079885 -0.05186632 0.0076108538
-0.018442923 -0.055055875 -0.25988162 -0.16188334 0.11523529 0.18979849 0.0833991 -0.19372535
-0.17097847 0.111993745 -0.29954982 -0.015320104 0.059582673 -0.09711821 0.19768414 -0.04112239
0.08266282 0.0715953 -0.06191141 0.18660846 0.28840265 -0.10882669 0.10224511 -0.004169129
-0.101516284 0.42653865 -0.027860325 -0.10151835 0.09883814 -0.10401398 -0.039026484 0.4375368
0.026841503 -0.15833227 -0.035342578 -0.11390467 0.1473452 -0.11205355 0.05280392 0.1126449
-0.06625626 0.2301195 0.14725128 -0.14871193 -0.072658174 0.35874432 -0.028208636 0.095904306
00000000: 6d76 e6bd 77b6 863e 5c14 3d3e 8ea0 523e
00000010: 92e1 d2bc 9e6c 02be 2b57 ea3c de90 62be
00000020: e590 2b3e f9b8 99be e48e bebd 70b9 23bd
00000030: ecee a23e 91a5 e13d c133 99be c14d 8dbd
00000040: 26b9 27bd e1fc 49be c2d2 0ebe 545e 663e
00000050: cbbb 89bd f884 6f3e 2da1 323e f825 6abc
00000060: a3fe 653e 389d aebd f4a4 e43d c00b 293e
00000070: d7ec 6e3b 28a6 8c3e 3184 b1be 944d 5fbe
00000080: 138a bc3d 66d3 873d 7804 bb3e 4072 3c3e
00000090: 81f7 46be 5953 63be e910 41bd 737e 8e3d
000000a0: 4be2 463c 0aad 113e 8a5d d6bd a25e 0a3e
000000b0: 8d7f 25be 10c1 86be 425e f43d bb35 d13c
000000c0: db98 23be ab15 753d 63a4 babc 3fa5 2ebe
000000d0: 2bf6 13be 8475 22bd 5f16 dcbd 9a76 8bbe
000000e0: da33 8f3c 4cf3 e93d cf35 fa3d 9e56 81be
000000f0: 3c48 473e 87fd 6fbe 3d9c e8bd 26d3 6abe
00000100: 2f84 adbd 670a 84bd 1109 223e 6a95 493e
00000110: 4702 db3d 8456 fc3c a299 e5bd 753c 08be
00000120: 1c3e 96be 568c bb3d 71bb 213e 8e25 833d
00000130: 9ce5 76bd 5904 01be 5b22 cc3d cb83 123f
00000140: 31d6 273d 39cf 8a3d 624d 8abe adf4 b2bc
00000150: 0416 d5bd 3632 8bbd 933e 333e 91b3 f5bd
00000160: e289 1dbe 69f9 0c3e b953 6a3e 46f0 ff3d
00000170: 297d dc3c 5fc3 a6bd 1abb 3bbe c92c 063d
00000180: 3463 e73b 9d02 81be 0911 643e 3abe 5cbe
00000190: c21f 1dbe 95c8 d23d b5b5 1dbc 0485 ef3d
000001a0: 9bc2 1abe ad94 8bbc c739 0ebd 4ff9 003e
000001b0: 4839 473d 802d 3a3e 4212 bcbd 025f 7abd
000001c0: c81d 623d 0a37 103e 20a2 34be 1af8 143e
000001d0: 6375 d6bd 5040 5d3c 500b d23d 8c32 0f3e
000001e0: 4568 823d 504b 973d b1bd 913d 6333 2e3e
000001f0: 38cb efbd e297 a13d 0c3f 90be 1706 e8bc
00000200: 88a5 adbd efd1 783e da01 923d 7a5b 08be
00000210: 66f6 09be 2fa8 fc3d 1ef8 6d3d 7ebb f6bc
00000220: 557d 0bbe 814c f6bb 96d8 2ebd 2ae6 9ebd
00000230: bdd8 ad3d 4551 693c ea83 a6bd aae8 21bd
00000240: 3c0d 06be 24f0 873c 2bbb 20be afd7 2cbe
00000250: cd3f c13d 0257 0abd 94dc cabd 5e7f b73d
00000260: 9a1d 643d 101b 663d ab65 0b3e 25bb 55be
00000270: b8b6 f5bd 199f afbe 6432 913e fba4 6c3e
00000280: c2c1 3cbe 0a9c d1bc 107e fa3d 141c 003e
00000290: 2637 35bd 3e6e ca3c 90ab 38bc 8222 a63e
000002a0: 3442 42bc 2b9b 293e ff1a 4b3e 42fc 843d
000002b0: 9745 94be 2caa 27bc a92f 05bd 6896 13be
000002c0: b53a 3a3e 32d7 443e 16e2 0cbd 4e45 123e
000002d0: 6f75 58bd 0ab0 4a3d bd5a 8dbc 58ad 17be
000002e0: 1f2a f2bb e623 d8bd dc47 783d 128e e23d
000002f0: 875b 30bd 0509 083e edc0 873d 4ef8 773c
00000300: 6b84 023e c36e 683d 96b9 0fbe f77f 63be
00000310: b622 883d c8f9 1cbe c694 84bc 90d6 963e
00000320: d882 f5bd f2b0 0d3e 6c27 56be 7828 333e
00000330: 8403 47bd edaf 0f3d c771 54bd 7864 f93b
00000340: 9d15 97bc 4582 61bd 340f 85be bfc4 25be
00000350: 7b00 ec3d 895a 423e 26cd aa3d f05f 46be
00000360: fb14 2fbe fa5c e53d 985e 99be 2c01 7bbc
00000370: f60c 743d e9e5 c6bd b66d 4a3e f46f 28bd
00000380: 204b a93d 8fa0 923d d296 7dbd 4a16 3f3e
00000390: 83a9 933e 87e0 debd e265 d13d 309d 88bb
000003a0: c5e7 cfbd 4663 da3e 563b e4bc dae8 cfbd
000003b0: a76b ca3d 4805 d5bd 3cda 1fbd d304 e03e
000003c0: b6e2 db3c db21 22be 61c3 10bd da46 e9bd
000003d0: a9e1 163e 557c e5bd ec48 583d 5fb2 e63d
000003e0: 5db1 87bd 72a4 6b3e 0ac9 163e f147 18be
000003f0: cfcd 94bd 56ad b73e cc15 e7bc 7a69 c43d

blocks.0.attn.W_V f4 [3, 48, 24]
-0.103960596 -0.16968763 -0.04353086 -0.131181 0.09008949 0.122135594 0.14613259 0.20640461
0.22518338 0.08142923 0.190968 -0.2709592 -0.03257894 0.22451796 0.24543229 -0.19025499
-0.11196788 -0.06817821 -0.18485199 -0.011833532 0.07475685 -0.07658075 0.16917948 0.034448933
-0.16347104 -0.076534644 0.12599066 0.07519154 0.06997696 -0.058376763 -0.09638665 -0.006750105
-0.13922739 0.04179146 -0.06698783 -0.15549573 -0.20015621 0.14538175 0.22010998 0.0016570258
0.029025363 -0.18918064 -0.13245086 -0.08841095 0.19717373 0.27589768 -0.061126966 0.09241026
-0.02021096 -0.11285162 0.14879002 0.27209836 0.10686323 0.10498022 0.15809835 0.067730375
-0.019111127 -0.1528335 -0.18164092 0.042784486 0.020893125 -0.14058083 -0.17315415 0.08095293
-0.115501076 0.10037947 -0.2959369 -0.040129416 -0.0073215947 0.040272567 -0.08907713 0.15539512
-0.01219771 0.18630747 0.085833 -0.33399534 0.021293812 -0.082484335 0.14748551 -0.07306122
-0.24426034 -0.12607418 0.08675272 -0.20732352 -0.060625535 0.10837232 0.16198562 0.08017371
-0.14803457 -0.16060065 -0.059179813 0.05643156 0.12646794 -0.16478834 -0.17390376 0.12972276
0.03962454 0.26062408 0.20716517 0.27677512 -0.18207906 -0.1496913 -0.12528679 0.17391399
-0.08916067 0.17611407 0.34107628 0.032140404 -0.058990985 -0.2129445 -0.12986524 -0.12822662
-0.026230583 -0.09753115 -0.24067365 -0.06804565 0.2669913 0.21484616 -0.20565611 0.34728724
-0.05509393 -0.1589603 0.08028808 -0.03184371 -0.14430848 -0.21890116 -0.1423826 0.13083532
-0.38853353 -0.21361107 0.096569784 -0.105423346 -0.011760944 0.15527104 0.17475492 0.08529092
-0.2266652 0.08159552 -0.18133791 -0.10078845 0.035907336 -0.04583871 -0.006309594 -0.03462663
-0.16823322 -0.22569315 -0.3086959 0.1760017 0.08764221 -0.013539186 -0.20188278 -0.05409152
-0.31103933 0.24637984 -0.052237805 0.23611833 0.07285865 -0.0039327927 -0.33504787 -0.15210041
0.18776739 0.19009653 0.20069176 -0.10682502 -0.0027450002 -0.14806995 0.2782797 0.20195639
0.02822858 -0.037218925 -0.29684275 -0.03207402 0.11378817 -0.1993146 -0.05148794 -0.14935845
0.13681558 0.090140015 0.1826757 -0.2122627 0.18980186 0.06768051 -0.07143853 -0.10940151
-0.23806725 0.3354512 0.37435624 0.20539229 -0.25945407 -0.033232693 0.30968022 -0.14577137
-0.00088835193 0.21460487 -0.2521199 -0.1078114 0.0120089 0.12382166 0.08447524 -0.1848243
0.07235241 0.3770687 -0.12941222 0.27732664 0.103272706 0.18700157 -0.10362079 0.011408498
-0.06448754 -0.08864219 -0.105149694 -0.13906595 -0.15104069 -0.362226 0.31028086 -0.04130521
-0.068087325 -0.06591973 0.18071525 0.24041013 -0.1284901 -0.12348612 -0.10966007 0.05238551
-0.34497678 -0.09305778 -0.05864039 0.0800385 -0.12706904 -0.0778747 0.12254384 -0.08849895
-0.058234386 -0.14230458 -0.116665535 0.016560465 0.27621353 0.060180686 -0.10100651 0.0259151
0.056011315 -0.16058749 -0.11458303 -0.21373598 -0.14644119 -0.22605643 -0.46973056 0.122846045
-0.10704791 -0.19169994 0.04326932 -0.032094702 0.006145064 -0.123118 0.10703041 -0.09205935
00000000: 4be9 d4bd 98c2 2dbe 6a4d 32bd 5054 06be
00000010: d780 b83d 3a22 fa3d c8a3 153e bb5b 533e
00000020: 7996 663e 5ec4 a63d 1e8d 433e 2abb 8abe
00000030: 7f71 05bd 09e8 653e 9a52 7b3e 34d2 42be
00000040: 6a4f e5bd 04a1 8bbd d749 3dbe 6ee1 41bc
00000050: 1f1a 993d 5ed6 9cbd 633d 2d3e 531a 0d3d
00000060: f464 27be 32be 9cbd b203 013e 06fe 993d
00000070: 1550 8f3d 791c 6fbd 5d66 c5bd fc2f ddbb
00000080: a091 0ebe 862d 2b3d ea30 89bd 463a 1fbe
00000090: c0f5 4cbe f4de 143e 8364 613e 8f30 d93a
000000a0: 99c6 ed3c 92b8 41be 33a1 07be cd10 b5bd
000000b0: e9e7 493e 7642 8d3e 4560 7abd 9741 bd3d
000000c0: 7591 a5bc c01e e7bd 695c 183e 7a50 8b3e
000000d0: 1cdb da3d dfff d63d 89e4 213e 39b6 8a3d
000000e0: f08e 9cbc 6380 1cbe 1400 3abe c93e 2f3d
000000f0: 0f28 ab3c 6cf4 0fbe 524f 31be a6ca a53d
00000100: d48b ecbd c093 cd3d 0b85 97be be5e 24bd
00000110: fde9 efbb d9f4 243d 126e b6bd e61f 1f3e
00000120: e7d8 47bc 63c7 3e3e 36c9 af3d 7001 abbe
00000130: 5c70 ae3c 8ced a8bd 7106 173e 1fa1 95bd
00000140: 621f 7abe 9719 01be 69ab b13d 9e4c 54be
00000150: 7b52 78bd 4ff2 dd3d 8fdf 253e 1d32 a43d
00000160: 6096 17be 7f74 24be 8866 72bd c824 673d
00000170: d080 013e 46be 28be d413 32be 0bd6 043e
00000180: 574d 223d 8570 853e 1b23 543e 78b5 8d3e
00000190: ef72 3abe ad48 19be 2e4b 00be 8216 323e
000001a0: df99 b6bd 3f57 343e 8da1 ae3e a8a5 033d
000001b0: 88a0 71bd 1f0e 5abe 65fb 04be d74d 03be
000001c0: 85e1 d6bc 69be c7bd 2773 76be 855b 8bbd
000001d0: 15b3 883e a200 5c3e 8497 52be a2cf b13e
000001e0: 2caa 61bd 7dc6 22be 146e a43d 8d6e 02bd
000001f0: 9ac5 13be a027 60be bfcc 11be b2f9 053e
00000200: deed c6be dcbc 5abe 61c6 c53d 32e8 d7bd
00000210: f9b0 40bc 5fff 1e3e f4f2 323e 02ad ae3d
00000220: ec1a 68be 8d1b a73d a5b0 39be 2d6a cebd
00000230: 9213 133d 5fc1 3bbd b6c0 cebb a7d4 0dbd
00000240: 5445 2cbe 1b1c 67be 640d 9ebe ca39 343e
00000250: c27d b33d 76d3 5dbc 5cba 4ebe 128f 5dbd
00000260: 8c40 9fbe ff4a 7c3e 4ff7 55bd 01c9 713e
00000270: ea36 953d a8de 80bb 658b abbe 36c0 1bbe
00000280: 1846 403e aaa8 423e 2482 4d3e 13c7 dabd
00000290: 76e5 33bb a69f 17be ad7a 8e3e a8cd 4e3e
000002a0: 9f3f e73c df72 18bd c6fb 97be 0c60 03bd
000002b0: c609 e93d 2019 4cbe 05e5 52bd 6cf1 18be
000002c0: 6219 0c3e 549b b83d 570f 3b3e 655b 59be
000002d0: 6b5b 423e 149c 8a3d 5d4e 92bd e60d e0bd
000002e0: e7c7 73be 42c0 ab3e 9fab bf3e 5b52 523e
000002f0: 2ad7 84be 011f 08bd 688e 9e3e 1745 15be
00000300: 4ae0 68ba 61c1 5b3e dc15 81be 39cc dcbd
00000310: fac0 443c 3696 fd3d 5b01 ad3d 9542 3dbe
00000320: 802d 943d 260f c13e a384 04be c2fd 8d3e
00000330: a480 d33d 577d 3f3e 2337 d4bd b5ea 3a3c
00000340: 0b12 84bd 098a b5bd b958 d7bd 4e67 0ebe
00000350: 69aa 1abe b075 b9be 22dd 9e3e a72f 29bd
00000360: 5e71 8bbd ec00 87bd 6b0d 393e 132e 763e
00000370: e992 03be 4ae6 fcbd 7595 e0bd 3092 563d
00000380: cca0 b0be 1495 bebd e830 70bd 3aeb a33d
00000390: 631e 02be c57c 9fbd 44f8 fa3d f03e b5bd
000003a0: 2e87 6ebd 4bb8 11be 57ee eebd d0a9 873c
000003b0: dc6b 8d3e 0680 763d 80dc cebd e74b d43c
000003c0: 1f6c 653d 0c71 24be 82aa eabd 9bdd 5abe
000003d0: aef4 15be 567b 67be 8680 f0be b596 fb3d
000003e0: ef3b dbbd fd4c 44be 2c3b 313d bc75 03bd
000003f0: 885c c93b 4a25 fcbd c232 db3d 9d89 bcbd

blocks.0.attn.W_O f4 [3, 24, 48]
-0.0647668 -0.35020825 -0.09036478 0.06899187 0.103099085 0.1897835 0.038241986 -0.013259337
-0.08209354 -0.02758648 0.020014204 -0.031689957 0.11860547 0.11330479 0.15408279 0.18334743
0.071993984 0.1339918 -0.17942546 -0.06784019 0.15426709 0.2970396 -0.19034 0.1444395
0.16059698 -0.031042567 -0.102506064 0.06613977 -0.12702678 -0.06193154 -0.11511458 -0.20539981
0.026102064 -0.21790074 0.036650017 -0.17811647 -0.023735717 -0.27270725 0.06298574 0.087404646
-0.20793742 -0.040577292 -0.029729672 -0.03407185 -0.1792649 -0.09622105 0.060932543 -0.015615064
0.05821432 -0.17132227 -0.05721866 -0.1567104 0.093513854 -0.31940693 -0.04997855 -0.4664268
-0.09129195 0.051309466 0.06922015 -0.010378203 -0.20883758 0.064892456 -0.1991504 0.12457276
0.08622574 -0.17102003 -0.08415855 0.013574959 0.036515877 0.146021 0.14437583 0.044170048
0.10600194 0.13406542 0.072227575 -0.08966869 -0.5672043 -0.033441555 -0.05417014 0.108342305
-6.832448e-05 0.20476063 0.23225117 0.07321555 0.14528182 0.11610611 -0.1220594 -0.0050595896
-0.03906327 0.4008407 -0.040187333 0.068730295 0.122394405 -0.08301358 0.098248616 0.28579837
-0.16410154 0.038922884 0.14457141 -0.010432508 0.1513144 -0.231477 0.0031142347 0.14726041
0.07694961 0.0019995072 0.15825284 -0.12255995 -0.14017838 0.06269704 0.0062084156 0.004856341
0.23770349 0.25395972 -0.045778703 -0.0012422089 0.05947035 -0.19083643 0.12405441 0.035524566
0.11688571 0.0028944141 -0.15929039 -0.16308688 0.050941195 0.010614498 -0.12360846 -0.11966824
0.019782992 -0.04865853 -0.14295936 0.12379997 0.18586834 0.17832445 -0.2808905 -0.0050711995
-0.05013573 0.18338393 -0.14203528 -0.029933888 -0.21826524 0.070954606 0.19017492 0.21667616
0.003144398 0.23071085 0.20814343 -0.25648546 -0.024103701 -0.22117007 -0.21146056 0.030824715
0.09783934 0.14624415 -0.04653956 0.009804009 -0.14928198 -0.019078508 -0.027723214 -0.048315227
-0.030666899 0.32120347 0.09096246 -0.1428849 0.017851345 -0.017845994 0.13341595 -0.32336944
0.25514427 -0.012277296 -0.056415077 -0.124391265 0.1699864 -0.15969712 -0.11590789 -0.27334535
0.003960759 -0.1650109 -0.025543744 -0.10932721 0.02292541 0.18496335 0.15494117 -0.1905141
-0.010951298 -0.10998574 0.09566611 0.21442191 0.111929454 -0.03075164 -0.074115165 0.085619554
0.18591177 0.1616939 -0.1984176 -0.012405387 0.1441277 -0.020210419 -0.18908188 0.002288613
-0.0036024125 0.21716928 0.10930216 -0.019269679 -0.16731395 0.028964207 -0.084539 0.02325141
0.11493285 0.09788078 0.008307896 0.08068571 -0.13794357 -0.16805449 -0.1621409 -0.18651815
-0.03266652 -0.109046765 -0.20451213 -0.007811533 0.22641788 0.22848552 0.20660299 0.12987691
0.09318106 -0.0066405204 -0.118241236 0.10902776 0.15126477 0.10173372 -0.032845158 0.16784887
0.12344836 -0.1853902 -0.09068078 -0.00044912627 0.046067983 -0.11186193 -0.034957834 -0.3065042
-0.023813426 -0.18202513 0.112926014 -0.15941519 0.12095641 0.091797665 -0.13214579 -0.053359896
0.14041656 0.09754863 0.054245185 -0.06459361 -0.3760942 0.1356266 0.0035140552 0.13904718
00000000: 75a4 84bd 7f4e b3be 2b11 b9bd 9c4b 8d3d
00000010: 9d25 d33d 9b56 423e a1a3 1c3d b13d 59bc
00000020: a820 a8bd 0bfd e1bc d4f4 a33c 54cd 01bd
00000030: 6de7 f23d 570c e83d e1c7 1d3e 6ebf 3b3e
00000040: 9571 933d 2535 093e 4fbb 37be ccef 8abd
00000050: 31f8 1d3e 9315 983e 7de8 42be f3e7 133e
00000060: 8973 243e fb4c febc b3ee d1bd 4a74 873d
00000070: 4f13 02be edab 7dbd 31c1 ebbd 5454 52be
00000080: ffd3 d53c 5f21 5fbe 541e 163d 2a64 36be
00000090: 6871 c2bc 49a0 8bbe abfe 803d 3501 b33d
000000a0: 8ced 54be 6034 26bd a48b f3bc ed8e 0bbd
000000b0: 3891 37be 8b0f c5bd 6794 793d 53d6 7fbc
000000c0: 2472 6e3d 1b6f 2fbe 1d5e 6abd b178 20be
000000d0: 3184 bf3d 4e89 a3be 4fb6 4cbd 7ecf eebe
000000e0: 46f7 babd e029 523d 4bc3 8d3d 5709 2abc
000000f0: 85d9 55be 56e6 843d 15ee 4bbe 0120 ff3d
00000100: 1f97 b03d e01f 2fbe 515b acbd 8169 5e3c
00000110: ac91 153d 8786 153e 42d7 133e a7eb 343d
00000120: 8c17 d93d 7248 093e 0dec 933d 38a4 b7bd
00000130: 4d34 11bf 03fa 08bd 82e1 5dbd 92e2 dd3d
00000140: 6d49 8fb8 c5ac 513e 40d3 6d3e 09f2 953d
00000150: c2c4 143e 0ac9 ed3d 47fa f9bd eaca a5bb
00000160: cf00 20bd fe3a cd3e 799b 24bd 78c2 8c3d
00000170: eba9 fa3d 0603 aabd 9236 c93d 2a54 923e
00000180: 3c0a 28be 9a6d 1f3d 870a 143e 1ced 2abc
00000190: 29f2 1a3e 4f08 6dbe 3018 4c3b 6fcb 163e
000001a0: c297 9d3d 2a0a 033b 080d 223e b600 fbbd
000001b0: ec8a 0fbe 4e67 803d f76f cb3b f121 9f3b
000001c0: 8b68 733e 0207 823e 7382 3bbd 9dd1 a2ba
000001d0: 2f97 733d a06a 43be 3d10 fe3d 3582 113d
000001e0: c661 ef3d 36b0 3d3b 051d 23be 3f00 27be
000001f0: b7a7 503d 6ee8 2d3c 6f26 fdbd 9f14 f5bd
00000200: f10f a23c 2b4e 47bd f063 12be d78a fd3d
00000210: 4554 3e3e af9a 363e e1d0 8fbe 4e2c a6bb
00000220: 205b 4dbd ffc8 3b3e b271 11be ea37 f5bc
00000230: ec80 5fbe a650 913d 37bd 423e 5be0 5d3e
00000240: 3f12 4e3b 773f 6c3e 8d23 553e 1052 83be
00000250: 2075 c5bc 687a 62be 1e89 58be 1d84 fc3c
00000260: fe5f c83d 07c1 153e 44a0 3ebd ffa0 203c
00000270: 60dd 18be 884a 9cbc cb1b e3bc 30e6 45bd
00000280: 2639 fbbc c874 a43e 874a ba3d 6b50 12be
00000290: fc3c 923c c331 92bc 319e 083e ae90 a5be
000002a0: 45a2 823e b626 49bc 7f13 67bd d9c0 febd
000002b0: ea10 2e3e a487 23be 1e61 edbd ecf3 8bbe
000002c0: 41c9 813b 9ef8 28be 1d41 d1bc f2e6 dfbd
000002d0: 12ce bb3c 0867 3d3e e6a8 1e3e 2116 43be
000002e0: 136d 33bc 3440 e1bd 98ec c33d 6b91 5b3e
000002f0: 453b e53d ddea fbbc b1c9 97bd 4e59 af3d
00000300: a85f 3e3e 1693 253e fc2d 4bbe f73f 4bbc
00000310: 3696 133e 5290 a5bc ae9e 41be 8efc 153b
00000320: 7416 6cbb a061 5e3e d0d9 df3d 72db 9dbc
00000330: 5954 2bbe 5846 ed3c c922 adbd be79 be3c
00000340: ea61 eb3d b875 c83d d71d 083c 8d3e a53d
00000350: 1441 0dbe 7a16 2cbe 4408 26be 9dfe 3ebe
00000360: 54cd 05bd e953 dfbd a16b 51be e3f7 ffbb
00000370: 17da 673e 1cf8 693e bc8f 533e 74fe 043e
00000380: b6d5 be3d b998 d9bb 7628 f2bd f249 df3d
00000390: 27e5 1a3e c559 d03d a588 06bd 93e0 2b3e
000003a0: 7ed2 fc3d eed6 3dbe d8b6 b9bd b578 ebb9
000003b0: c8b1 3c3d de17 e5bd f22f 0fbd 1eee 9cbe
000003c0: 6014 c3bc cc64 3abe c145 e73d bc3d 23be
000003d0: ffb7 f73d 6a00 bc3d 3a51 07be e88f 5abd
000003e0: 5cc9 0f3e 93c7 c73d 3330 5e3d a849 84bd
000003f0: 6b8f c0be b3e1 0a3e 104c 663b 6262 0e3e

blocks.0.attn.b_Q f4 [3, 24]
-0.01943952 -0.09594406 0.078950636 0.017828261 0.040915415 -0.18120046 -0.12969182 0.19206093
-0.00022971148 -0.029082501 -0.059010733 -0.106345214 -0.07110195 -0.11320235 -0.017839655 0.10382709
-0.14857607 -0.13200861 -0.01676458 -0.043944146 -0.015661376 -0.045666914 0.123948194 -0.013806773
0.03341285 -0.08209845 -0.035973087 -0.016647985 -0.008401509 0.04570656 0.005016806 0.13640024
0.081564784 -0.058388393 -0.031465743 -0.02113485 0.037180487 -0.070593014 0.048298474 -0.020855112
0.0023712292 0.0034896287 -0.02846804 -0.010294865 0.002679404 0.029107518 -0.019003736 -0.025192909
0.033287104 -0.1272565 0.06478573 -0.038735513 -0.026994886 -0.011053084 0.0009734321 0.0072099967
0.12439582 0.022067912 -0.103212066 0.08851715 0.042906724 -0.15923655 -0.13001712 0.05119051
-0.03384257 0.020730728 -0.027357507 -0.017872546 0.0106533775 -0.055586167 0.0076449844 0.04789725
00000000: a13f 9fbc 527e c4bd dfb0 a13d 930c 923c
00000010: ec96 273d 9d8c 39be efcd 04be 9fab 443e
00000020: b5de 70b9 6d3e eebc 3db5 71bd 85cb d9bd
00000030: e69d 91bd a2d6 e7bd 7824 92bc 4ca3 d43d
00000040: 5324 18be 442d 07be df55 89bc c7fe 33bd
00000050: 494c 80bc 3b0d 3bbd 8dd8 fd3d ce35 62bc
00000060: eadb 083d 3b23 a8bd 8458 13bd 5b61 88bc
00000070: 7ca6 09bc cd36 3b3d 0564 a43b 81ac 0b3e
00000080: 700b a73d ab28 6fbd 39e2 00bd fe22 adbc
00000090: 914a 183d 1293 90bd 9fd4 453d 57d8 aabc
000000a0: a066 1b3b 41b2 643b cf35 e9bc cbab 28bc
000000b0: f198 2f3b e472 ee3c b9ad 9bbc 5c61 cebc
000000c0: 0f58 083d 874f 02be 61ae 843d 21a9 1ebd
000000d0: 6124 ddbc ff17 35bc ec2d 7f3a d641 ec3b
000000e0: 3cc3 fe3d c4c7 b43c d960 d3bd 7b48 b53d
000000f0: f6be 2f3d e80e 23be 3523 05be 24ad 513d
00000100: 829e 0abd 7dd3 a93c da1c e0bc 7269 92bc
00000110: 818b 2e3c 52ae 63bd c782 fa3b e82f 443d

blocks.0.attn.b_K f4 [3, 24]
0.023516724 -0.0069480306 0.021361668 -0.004091017 0.06969481 -0.014828573 -0.04631837 0.039052457
-0.0045245 0.05390206 0.040649556 0.0338686 0.036752317 -0.0048834197 -0.039155032 0.076030485
-0.042454176 -0.0041971747 -0.0018664472 0.0114580365 0.05822759 -0.029504573 0.033194818 -0.033515062
-0.019319292 -0.0014716445 -0.061579213 0.08899015 0.04896167 -0.0018211827 0.035361797 -0.11803028
-0.030041894 0.018620335 -0.032137044 0.042744737 0.0029440226 0.094955534 0.038650826 0.03133734
0.10475578 -0.03980719 0.047635112 0.0814513 -0.014336067 -0.107883096 0.011139186 0.07006747
-0.06058092 -0.029484732 0.076768726 -0.077906564 0.054508597 -0.039183516 0.021056848 -0.05737442
0.015141671 -0.055914097 0.025660053 -0.071410984 -0.06991446 0.0106726615 0.04749993 0.004948011
0.0051319073 0.027739482 0.0154274115 0.0033690743 0.050526883 0.06749426 -0.042782966 -0.060213532
00000000: 25a6 c03c 4eac e3bb aafe ae3c f00d 86bb
00000010: 27bc 8e3d 8bf3 72bc 55b8 3dbd 78f5 1f3d
00000020: 4242 94bb 68c8 5c3d 2680 263d cdb9 0a3d
00000030: 9989 163d 1805 a0bb 0761 20bd dfb5 9b3d
00000040: 6ee4 2dbd 7488 89bb 93a3 f4ba 7dba 3b3c
00000050: 0e80 6e3d 93b3 f1bc 4af7 073d 1747 09bd
00000060: 7e43 9ebc 32e4 c0ba 7c3a 7cbd 7840 b63d
00000070: 088c 483d c0b4 eeba 88d7 103d dcb9 f1bd
00000080: 6b1a f6bc ac89 983c 22a2 03bd 1b15 2f3d
00000090: 81f0 403b 0c78 c23d 5450 1e3d 955b 003d
000000a0: 338a d63d dd0c 23bd 091d 433d f0cf a63d
000000b0: d3e1 6abc d0f1 dcbd 2281 363c 897f 8f3d
000000c0: b323 78bd f789 f1bc ec38 9d3d 7a8d 9fbd
000000d0: 6844 5f3d e57e 20bd 697f ac3c 7101 6bbd
000000e0: c514 783c 2e06 65bd 0835 d23c ec3f 92bd
000000f0: 502f 8fbd 63dc 2e3c 498f 423d ed22 a23b
00000100: 8f29 a83b e93d e33c 41c3 7c3c b0cb 5c3b
00000110: 47f5 4e3d 6e3a 8a3d 313d 2fbd 77a2 76bd

blocks.0.attn.b_V f4 [3, 24]
-0.110327266 0.05182446 -0.036667213 0.0135603985 0.07174521 0.09568689 0.0109689925 -0.049097225
-0.012745454 -0.062315073 0.033781867 0.023953404 0.051617958 0.015214728 -0.06076335 0.027759952
-0.00046145526 -0.020678425 0.052739948 -0.04832579 0.05071589 -0.07464609 0.0071623405 -0.0025647378
0.03797038 -0.06568266 -0.109613806 0.068981715 0.005228398 0.09429537 0.004275095 0.014213269
-0.011733608 -0.07500519 -0.056375198 0.06948642 0.06479085 -0.019190516 -0.0040884493 -0.0074324002
0.06153616 0.04384275 -0.040754203 -0.007591967 0.08676969 -0.013562791 -0.1019028 -0.0033018359
0.06825084 0.16258176 0.08319952 -0.020657994 0.07415095 -0.09410633 0.061963692 -0.030727006
-0.04342827 -0.136885 0.043464474 -0.033490896 -0.012373152 -0.117967 -0.11091083 -0.07968227
-0.0074389237 -0.09686588 -0.07492123 0.09741321 -0.029966943 -0.019499397 -0.08143288 0.07560636
00000000: 43f3 e1bd e345 543d 5c30 16bd 6f2c 5e3c
00000010: 27ef 923d 7df7 c33d 4ab7 333c 2c1a 49bd
00000020: 4fd2 50bc 173e 7fbd db5e 0a3d ee39 c43c
00000030: 5a6d 533d 3247 793c fee2 78bd d768 e33c
00000040: 7aef f1b9 cd65 a9bc d805 583d 43f1 45bd
00000050: 77bb 4f3d 0de0 98bd 11b2 ea3b 2915 28bb
00000060: d486 1b3d a184 86bd 347d e0bd 4946 8d3d
00000070: fb52 ab3b ee1d c13d 1916 8c3b c5de 683c
00000080: 523e 40bc 529c 99bd aee9 66bd e54e 8e3d
00000090: 11b1 843d 6e35 9dbc 66f8 85bb 7e8b f3bb
000000a0: 570d 7c3d 7594 333d e1ed 26bd 09c6 f8bb
000000b0: 4fb4 b13d 7836 5ebc 6ab2 d0bd 9d63 58bb
000000c0: 19c7 8b3d d57b 263e 8364 aa3d f43a a9bc
000000d0: 74dc 973d d2ba c0bd a4cd 7d3d 34b7 fbbc
000000e0: d7e1 31bd 952b 0cbe ce07 323d c02d 09bd
000000f0: c3b8 4abc af98 f1bd 3825 e3bd 7530 a3bd
00000100: 37c2 f3bb 9e61 c6bd 4d70 99bd 9480 c73d
00000110: 3c7d f5bc 33bd 9fbc 48c6 a6bd 82d7 9a3d

blocks.0.attn.b_O f4 [48]
0.05160813 -0.024828946 -0.0013849665 -0.058216725 0.025638966 -0.019711653 -0.12139472 -0.028494703
-0.0309779 0.10982029 -0.02123616 -0.0028758978 -0.16806811 0.024725731 0.0539965 0.13459761
-0.0021293873 -0.023414144 0.0871055 -0.012479414 -0.04136089 -0.081128806 -0.076105185 -0.016099004
-0.10659526 -0.052278303 -0.008632354 0.017665923 0.11015942 0.026705656 0.011208266 0.10015656
-0.013165982 -0.020019485 0.05227782 -0.11308693 -0.03086377 -0.044393912 0.06800058 0.040595904
0.05777321 -0.06796226 -0.042738862 0.1014679 -0.06446581 -0.011819147 0.05490418 -0.082974516
00000000: 0c63 533d 1366 cbbc c487 b5ba a974 6ebd
00000010: cf08 d23c 557a a1bc cc9d f8bd b96d e9bc
00000020: 5dc5 fdbc 76e9 e03d 75f7 adbc 8f79 3cbb
00000030: 0c1a 2cbe 9e8d ca3c 6f2b 5d3d f5d3 093e
00000040: 318d 0bbb 05cf bfbc 5e64 b23d 7576 4cbc
00000050: 096a 29bd dc26 a6bd 09dd 9bbd 0fe2 83bc
00000060: 9e4e dabd c621 56bd b86e 0dbc 20b8 903c
00000070: 439b e13d d2c5 da3c e0a2 373c e21e cd3d
00000080: 22b6 57bc e7ff a3bc 4421 563d 1f9a e7bd
00000090: 04d6 fcbc 64d6 35bd e343 8b3d e447 263d
000000a0: 9aa3 6c3d cc2f 8bbd f20e 2fbd 67ce cf3d
000000b0: a706 84bd 18a5 41bc 35e3 603d 8bee a9bd

blocks.1.ln1.w f4 [48]
1.0529978 0.93525326 1.1516854 0.94535905 0.966114 0.92000246 1.0947338 0.9540895
0.98980886 1.1402975 1.0838168 1.0151044 0.9880028 1.0213678 0.9359028 1.0601068
0.92149156 0.9399422 1.0258474 0.9953115 1.1262633 1.0546486 1.0119592 1.0554265
0.973621 1.1080117 1.0576743 1.0624014 0.9115518 0.99360245 0.9196288 1.1602874
1.0270823 1.0351063 1.0320965 0.97402555 1.032246 1.0031403 1.0968034 0.97035426
0.9638507 0.8919719 1.063831 1.021208 1.0130963 1.1087219 0.963205 1.0289425
00000000: a2c8 863f c26c 6f3f 6d6a 933f 0d03 723f
00000010: 3f53 773f 4885 6b3f 3d20 8c3f 363f 743f
00000020: 1d64 7d3f 45f5 913f 82ba 8a3f f1ee 813f
00000030: c0ed 7c3f 2ebc 823f 5397 6f3f 94b1 873f
00000040: dfe6 6b3f 0da0 703f f84e 833f bccc 7e3f
00000050: 6529 903f bafe 863f e187 813f 3718 873f
00000060: 3a3f 793f 54d3 8d3f df61 873f c5fc 873f
00000070: 755b 693f bb5c 7e3f cb6c 6b3f 4c84 943f
00000080: 6f77 833f 5d7e 843f bd1b 843f bd59 793f
00000090: a320 843f e766 803f 0e64 8c3f 2369 783f
000000a0: ebbe 763f 4558 643f 9d2b 883f f2b6 823f
000000b0: 24ad 813f 99ea 8d3f 9a94 763f 63b4 833f

blocks.1.ln1.b f4 [48]
-0.067480154 -0.018244095 0.0034178102 -0.061033145 -0.06371155 -0.08038496 0.032287724 0.048459068
0.16248038 0.029635105 0.12668145 0.0054455777 -0.04594242 0.1928378 -0.17276952 0.0047432114
-0.06110592 -0.040841743 -0.077302895 0.045020636 0.16425562 -0.052328594 -0.03793637 -0.029662794
0.0051304144 -0.03888023 -0.0025164564 0.06550255 -0.041675914 0.03849139 -0.13146022 -0.037640117
0.08448608 -0.01730049 0.007918433 -0.01958583 0.02950469 -0.048871048 0.08298101 -0.034253415
0.21339302 0.17581053 -0.062420774 -0.014821182 -0.110545285 0.003928472 0.0002306278 -0.105763845
00000000: 0933 8abd a474 95bc 57fd 5f3b e4fd 79bd
00000010: 337b 82bd dfa0 a4bd 2240 043d 047d 463d
00000020: 4261 263e 52c5 f23c c8b8 013e d170 b23b
00000030: 1e2e 3cbd 4677 453e 7eea 30be f16c 9b3b
00000040: 334a 7abd ac49 27bd fb50 9ebd 8f67 383d
00000050: a032 283e 8256 56bd 2b63 1bbd 63ff f2bc
00000060: 091d a83b e040 1fbd 22eb 24bb 3326 863d
00000070: 5db4 2abd 26a9 1d3d 829d 06be 862c 1abd
00000080: 0a07 ad3d c2b9 8dbc 51bc 013c 7672 a0bc
00000090: d2b3 f13c 022d 48bd f3f1 a93d 4f4d 0cbd
000000a0: b383 5a3e ad07 343e edac 7fbd 8bd4 72bc
000000b0: 9165 e2bd 69ba 803b aed4 7139 b79a d8bd
