chapter1_transformers/exercises/monthly_algorithmic_problems/september23_sum/sum_model.pt (torch, 131915 bytes, 26 tensors)

embed.W_E f4 [12, 48]
0.0030012608 0.10022242 0.0026021292 -0.025107771 0.004319827 0.0041119484 -0.0015425329 -0.018570943
-0.026928032 0.07538391 -0.043231547 -0.10771036 -0.0011920314 0.010191928 -0.057771597 0.0196505
0.016262066 0.036787525 -0.016692758 -0.017771982 -0.024720753 0.02857769 0.06696883 0.11348637
0.053109474 0.02990914 0.015966346 0.08236367 0.047548123 -0.031632535 0.0018497224 0.024226815
0.019399017 -0.060063146 -0.037037805 0.025194576 0.004309633 0.0076416926 0.06696431 -0.010860951
0.01506254 -0.0058617154 -0.048286986 -0.0026721563 -0.010913057 0.02318129 -0.047610637 -0.03971246
-0.09882238 0.060645647 0.0045035784 -0.020015147 0.009406264 0.044594135 0.0023949076 -0.025968987
-0.0466786 0.06327888 -0.023998404 -0.008802056 0.043795682 0.0390476 -0.021714732 0.02101307
0.008878353 0.011113291 0.029971726 -0.024352802 -0.006220676 0.00051072804 -0.034319222 0.11525095
-0.022532867 0.02448086 0.007652882 0.04241608 0.042710375 0.009594446 0.0031771823 0.032550376
0.010896281 0.0027921973 -0.053533897 -0.05481341 -0.010039836 0.021152044 0.07416109 0.020723779
-0.0024614867 -0.0021320223 -0.10610337 0.0075478912 -0.016094469 -0.07305192 0.034345094 0.013723847
-0.11936593 0.07149891 0.01428393 0.040870164 0.045559336 0.07321257 0.011061046 -0.0031007775
-0.02189346 0.08799498 0.018330215 0.07424691 0.042513866 0.04050509 6.073722e-06 -0.010558257
-0.044596218 0.002048389 -0.017942278 -0.0010003147 0.00870794 -0.0071809213 0.010974319 0.051696837
-0.06919839 0.034870367 0.019155491 0.028605461 0.005958466 0.029135477 0.00885241 0.053674173
0.021348305 0.037821103 -0.026158746 -0.08265827 0.017317172 0.029264307 0.06758495 0.020566298
0.016424457 0.013252092 -0.12739012 0.016743949 0.021516781 -0.009062928 -0.021986205 0.045460448
-0.057426043 0.053969003 0.004278899 0.04122119 0.010333064 0.03586511 -0.0011763141 0.005701753
-0.003221301 0.09216695 -0.012743111 0.093608715 -0.01673214 -0.012116044 -0.02315446 0.038728915
-0.07990691 -0.00070466124 -0.073189236 0.0072630355 -0.014867915 -0.0032901422 0.041261334 -0.07716636
-0.13377915 -0.014104909 0.012434971 0.027077548 -0.08108694 -0.005536063 0.021636805 0.06412233
-0.0008720589 0.013053296 -0.031607922 -0.06909405 -0.035907794 -0.0050664763 0.001625889 -0.0339362
0.02148911 -0.03879546 -0.13515787 0.01900167 0.02262456 -0.043970626 -0.026164072 0.031555112
0.13355885 -0.050859235 0.008199254 0.023502236 0.009646933 0.027359106 0.006005894 0.05557579
0.017602263 0.14461507 -0.011789253 0.07453411 0.015359028 -0.003922763 0.055389848 0.07021503
-0.039015744 0.026926504 -0.0382923 0.0043666186 0.004268266 -0.003620833 0.022630917 -0.17716724
-0.06438992 0.024863344 -0.0025241529 0.054929283 -0.0059722112 -0.007895833 0.010053356 0.10427866
-0.006401521 0.037497506 0.04218767 -0.041404836 0.020867333 -8.898492e-05 0.0073750964 0.054825485
0.029533071 -0.043518562 -0.13883403 0.011258191 -0.0030917847 0.021228652 0.055629373 0.043290418
0.10536239 -0.08681469 0.0029000903 -0.027068997 0.0042516156 -0.019665414 0.0017998413 0.045237627
0.050916933 0.011634931 0.098546036 0.20550531 0.0073656146 0.014457174 0.022848994 0.047607545
00000000: cdb0 443b 6a41 cd3d 7c88 2a3b d0ae cdbc
00000010: 568d 8d3b 86bd 863b d12e caba 1722 98bc
00000020: 2d98 dcbc e162 9a3d 9013 31bd 4097 dcbd
00000030: f03d 9cba 0bfc 263c e9a1 6cbd 16fa a03c
00000040: 0638 853c 84ae 163d 40bf 88bc 8c96 91bc
00000050: 2d83 cabc c21b ea3c f426 893d 8b6b e83d
00000060: 5289 593d 0304 f53c dbcb 823c 49ae a83d
00000070: d2c1 423d 1e91 01bd 6272 f23a 5077 c63c
00000080: b0ea 9e3c c604 76bd f4b4 17bd db64 ce3c
00000090: d237 8d3b 2a67 fa3b 9624 893d 21f2 31bc
000000a0: dfc8 763c a213 c0bb 93c8 45bd 581f 2fbb
000000b0: aecc 32bc b0e6 bd3c 5f03 43bd 88a9 22bd
000000c0: 6363 cabd 9267 783d c192 933b cef6 a3bc
000000d0: bb1c 1a3c 57a8 363d e2f3 1c3b eabc d4bc
000000e0: 0f32 3fbd 5c98 813d 4d98 c4bc 8036 10bc
000000f0: 1a63 333d 60f0 1f3d 18e3 b1bc 9a23 ac3c
00000100: 8376 113c 8514 363c 4487 f53c 877f c7bc
00000110: d0d6 cbbb 61e2 053a 5092 0cbd b108 ec3d
00000120: d996 b8bc 168c c83c 07c5 fa3b 7cbc 2d3d
00000130: 13f1 2e3d 0632 1d3c 4638 503b 8b53 053d
00000140: 5186 323c 4cfd 363b 5c46 5bbd 0784 60bd
00000150: 207e 24bc 0d47 ad3c c5e1 973d eac4 a93c
00000160: e550 21bb 66b9 0bbb b94c d9bd 4d54 f73b
00000170: 8cd8 83bc 3f9c 95bd 71ad 0c3d fdd9 603c
00000180: 2076 f4bd 056e 923d 2507 6a3c 7967 273d
00000190: 6d9c 3a3d 79f0 953d 6439 353c 6a36 4bbb
000001a0: ea59 b3bc b636 b43d 3f29 963c c40e 983d
000001b0: 0523 2e3d aae8 253d e0cc cb36 8afc 2cbc
000001c0: 86aa 36bd 443e 063b affb 92bc fe1c 83ba
000001d0: bfab 0e3c ef4d ebbb a1cd 333c 10c0 533d
000001e0: e3b7 8dbd 3bd4 0e3d faeb 9c3c 0056 ea3c
000001f0: 3c3f c33b 86ad ee3c b309 113c 73d9 5b3d
00000200: a4e2 ae3c 4dea 1a3d de4a d6bc bd48 a9bd
00000210: bedc 8d3c b3bb ef3c fa69 8a3d a77a a83c
00000220: 958c 863c 4d1f 593c 8e72 02be 9b2a 893c
00000230: f643 b03c ad7c 14bc 6a1c b4bc bc34 3a3d
00000240: 9237 6bbd 9a0e 5d3d 0236 8c3b 8dd7 283d
00000250: 034c 293c 4be7 123d 8d2e 9aba c5d5 ba3b
00000260: 761c 53bb 07c2 bc3d 7bc8 50bc edb5 bf3d
00000270: d711 89bc 5f82 46bc 6cae bdbc 36a2 1e3d
00000280: 3ca6 a3bd 04b9 38ba 3de4 95bd c2fe ed3b
00000290: 8e98 73bc 6d9f 57bb a501 293d 6609 9ebd
000002a0: 67fd 08be 4718 67bc 0cbc 4b3c bcd1 dd3c
000002b0: e910 a6bd dd67 b5bb ab3f b13c 9152 833d
000002c0: e29a 64ba 7edd 553c 4f77 01bd 2e81 8dbd
000002d0: 0d14 13bd af04 a6bb c81b d53a af00 0bbd
000002e0: ee09 b03c fde7 1ebd d366 0abe 64a9 9b3c
000002f0: 2457 b93c 8b1a 34bd 0956 d6bc ef3f 013d
00000300: a7c3 083e c651 50bd 2a56 063c c387 c03c
00000310: 2b0e 1e3c 3420 e03c 17cd c43b 71a3 633d
00000320: 9f32 903c f915 143e b627 41bc 57a5 983d
00000330: 6fa4 7b3c 858a 80bb 77e0 623d e6cc 8f3d
00000340: f9ce 1fbd f994 dc3c 63d8 1cbd da15 8f3b
00000350: cfdc 8b3b 7f4b 6dbb 7964 b93c 546b 35be
00000360: ddde 83bd 36ae cb3c 426c 25bb 87fd 603d
00000370: 8ab2 c3bb 865d 01bc d5b6 243c 0d90 d53d
00000380: dac3 d1bb fc96 193d facc 2c3d 1e98 29bd
00000390: f8f1 aa3c 6a9d bab8 cbaa f13b b090 603d
000003a0: 57ef f13c 8540 32bd 822a 0ebe 4774 383c
000003b0: 8a9f 4abb b6e7 ad3c a0db 633d 4b51 313d
000003c0: 3dc8 d73d e6cb b1bd 710f 3e3b cdbf ddbc
000003d0: 2351 8b3b 5d19 a1bc a7e8 eb3a 174b 393d
000003e0: 468e 503d 70a0 3e3c 81d2 c93d fc6f 523e
000003f0: 415b f13b c8dd 6c3c d02d bb3c 2100 433d

pos_embed.W_pos f4 [14, 48]
-0.10984654 -0.14454521 -0.011566971 -0.08738706 -0.05492343 -0.037686873 -0.0069406764 0.20516881
0.013264708 -0.1764008 0.032080248 0.076582916 -0.06692348 -0.018857175 -0.11712618 -0.043075077
0.012823961 0.07539202 0.052079003 0.009179183 -0.14613035 0.03900911 0.035001915 -0.15406233
0.1172986 -0.024981981 0.038531877 0.0041411943 0.03376789 -0.0152408555 0.024503747 0.041338783
-0.13977484 0.17532228 -0.023502775 0.08651376 0.003093923 -0.18029234 0.21282311 -0.014766106
-0.061943673 0.045312848 0.13068853 -0.0030971805 0.016374124 0.04375155 0.02928774 0.14925519
-0.044099715 0.0046053464 -0.0019522901 -0.049901582 0.0022958824 0.052389883 0.0163655 -0.015739646
-0.15182723 -0.031474795 0.0064052716 0.34477714 -0.022761734 0.10845615 0.09573312 0.13145927
-0.05767389 -0.048163272 0.092296325 -0.0014479058 -0.062203534 -0.10665156 -0.06532844 0.037556227
0.016658831 0.013775703 -0.034623224 0.2787281 0.061287947 0.038542762 -0.0076040234 -0.02067527
0.028204653 -0.21888937 -0.04046225 -0.25853208 -0.009928679 0.04629264 -0.020664087 -0.012068461
-0.03741715 0.0071455752 -0.06405144 0.036031324 -0.048430145 0.07906159 -0.06190759 -0.12573588
0.11819264 0.034585334 0.0078060506 -5.0938732e-05 0.012957063 0.019440418 0.008977731 0.050587736
-0.18833283 -0.010227357 0.14145775 -0.064459056 0.06435976 -0.04675434 -0.08871685 -0.119821236
0.026348932 0.12789777 -0.06718913 0.013404652 0.18910904 -0.0013081998 0.040942848 0.03397481
-0.09164311 -0.0026069034 -0.02844968 -0.12247623 -0.05415545 0.03668009 0.003507612 -0.071093
0.021115735 0.08310138 0.03129821 0.028930025 0.0033206518 0.03234643 -0.054150965 0.024999062
-0.0029036023 -0.00394042 -0.031267352 0.0070561776 0.009555944 -0.011400875 0.14019099 -0.044429235
0.0438872 0.07238331 0.011779032 0.19143668 0.017133502 -0.0017710574 0.0146549335 0.019406827
0.109307304 0.18310164 -0.021626912 -0.034717374 0.05542324 -0.05870676 -0.058414984 -0.062239584
0.009101367 -0.16415969 0.08797918 0.018946884 0.026321812 0.031441614 -0.06787544 -0.11079523
0.04930935 0.017531818 0.014425115 -0.10026854 0.06401832 0.047714997 0.008974665 -0.19056024
-0.0046867025 0.010128237 -0.08825128 0.049054593 0.015567801 0.048369676 -0.074435875 0.07128463
0.0051955977 0.073797114 0.16003871 0.012449318 0.021532172 -0.14107044 0.0037340855 0.020090928
0.024490926 -0.32160923 -0.013564373 -0.04065167 -0.022499721 -0.012207503 -0.011012558 -0.06404247
0.15199871 -0.084429115 -0.08109536 0.06964368 -0.096838064 0.016302831 0.0077673406 -0.06163156
-0.046608053 -0.011020983 0.015561742 0.007643778 0.011975464 -0.06384655 0.016902082 0.12195426
-0.08041842 0.023696415 -0.05801465 0.09370507 0.02339669 0.102221094 0.00012443212 -0.017907616
0.027063148 0.03642821 0.0677127 -0.10539585 -0.021943953 -0.0045600175 -0.039393418 -0.047426645
-0.031830877 0.037729297 0.025873382 -0.016435875 0.008121728 -0.06517143 -0.121559255 0.18431614
-0.056903403 -0.19942792 -0.0010824654 -0.03316053 -0.010519457 -0.09687526 0.0031036732 0.0069867517
0.17334908 -0.07335175 -0.019112462 0.120579496 -0.05905132 0.030040221 -0.045190074 -0.023951527
00000000: 39f7 e0bd a903 14be 6583 3dbc fdf7 b2bd
00000010: 64f7 60bd 8d5d 1abd 9d6e e3bb c617 523e
00000020: 3854 593c 69a2 34be 9466 033d 81d7 9c3d
00000030: 2d0f 89bd 5d7a 9abc dadf efbd 7e6f 30bd
00000040: 971b 523c 2267 9a3d cb50 553d 4964 163c
00000050: 32a3 15be 04c8 1f3d 2b5e 0f3d 84c2 1dbe
00000060: 403a f03d 03a7 ccbc 9ad3 1d3d dbb2 873b
00000070: 3350 0a3d c8b4 79bc 15bc c83c db52 293d
00000080: 2321 0fbe af87 333e e488 c0bc 202e b13d
00000090: 6ac3 4a3b 8e9e 38be 4dee 593e 8aed 71bc
000000a0: a6b8 7dbd f799 393d 37d3 053e 11fa 4abb
000000b0: 0723 863c d334 333d d8ec ef3c 5ad6 183e
000000c0: e7a1 34bd 72e8 963b fce3 ffba 9a65 4cbd
000000d0: 8476 163b c696 563d f110 863c 6ef0 80bc
000000e0: 9978 1bbe b7eb 00bd 50e3 d13b a186 b03e
000000f0: d176 babc 421e de3d ba0f c43d 429d 063e
00000100: 753b 6cbd da46 45bd db05 bd3d a8c7 bdba
00000110: 22c9 7ebd 226c dabd ebca 85bd 8fd4 193d
00000120: 1a78 883c 7cb3 613c 15d1 0dbd 73b5 8e3e
00000130: 1209 7b3d 04df 1d3d 2c2b f9bb 2f5f a9bc
00000140: 720d e73c 8924 60be bfbb 25bd 515e 84be
00000150: e6ab 22bc 5a9d 3d3d bb47 a9bc cbba 45bc
00000160: ba42 19bd 6e25 ea3b 672d 83bd 9595 133d
00000170: b05e 46bd 0beb a13d d092 7dbd e8c0 00be
00000180: fc0e f23d 5aa9 0d3d e6c9 ff3b 0ca7 55b8
00000190: dc49 543c 8341 9f3c 5517 133c 1635 4f3d
000001a0: 52da 40be a590 27bc 4dda 103e 1c03 84bd
000001b0: 0dcf 833d 7b81 3fbd 2eb1 b5bd d664 f5bd
000001c0: b7d9 d73c a2f7 023e 749a 89bd 2f9f 5b3c
000001d0: cda5 413e e777 abba b0b3 273d 2c29 0b3d
000001e0: 62af bbbd 95d8 2abb 4e0f e9bc d1d4 fabd
000001f0: 1bd2 5dbd dd3d 163d f7df 653b 3599 91bd
00000200: e8fa ac3c 0e31 aa3d 8d32 003d a9fe ec3c
00000210: 4b9f 593b b17d 043d 67cd 5dbd d5ca cc3c
00000220: 5d4a 3ebb a41e 81bb 3212 00bd 8237 e73b
00000230: 8990 1c3c bcca 3abc 3a8e 0f3e 6efb 35bd
00000240: 11c3 333d b33d 943d d7fc 403c fa07 443e
00000250: 8f5b 8c3c d322 e8ba 3f1b 703c 11fb 9e3c
00000260: 82dc df3d ff7e 3b3e ec2a b1bc ce33 0ebd
00000270: 7b03 633d 8076 70bd 8d44 6fbd efee 7ebd
00000280: e61d 153c 7a19 28be 6e2e b43d 7f36 9b3c
00000290: d7a0 d73c ecc8 003d 4702 8bbd 9ce8 e2bd
000002a0: 9af8 493d e39e 8f3c 5157 6c3c 9859 cdbd
000002b0: 091c 833d cd70 433d 790a 133c 3922 43be
000002c0: e992 99bb e8f0 253c 16bd b4bd 78ed 483d
000002d0: 1710 7f3c 481f 463d d671 98bd adfd 913d
000002e0: d53f aa3b f122 973d 30e1 233e 39f8 4b3c
000002f0: 3d64 b03c c574 10be 8fb7 743b bb95 a43c
00000300: 32a1 c83c f7a9 a4be 1b3d 5ebc 5e82 26bd
00000310: 5651 b8bc fb01 48bc 046e 34bc b328 83bd
00000320: 8da5 1b3e 2ce9 acbd 5315 a6bd 58a1 8e3d
00000330: 0953 c6bd 848d 853c 2d85 fe3b 6071 7cbd
00000340: 16e8 3ebd 5a91 34bc adf6 7e3c a878 fa3b
00000350: bd34 443c fbc1 82bd 3c76 8a3c 28c3 f93d
00000360: 6ab2 a4bd fc1e c23c c5a0 6dbd 72e8 bf3d
00000370: 6aaa bf3c 4b59 d13d fe79 0239 feb2 92bc
00000380: 89b3 dd3c bf35 153d f5ac 8a3d c8d9 d7bd
00000390: cec3 b3bc 336c 95bb fe5a 21bd 7142 42bd
000003a0: 1861 02bd 098a 1a3d 6af4 d33c 87a4 86bc
000003b0: ff10 053c 9978 85bd 0ff4 f8bd 5fbd 3c3e
000003c0: 8b13 69bd d536 4cbe 83e1 8dba 56d3 07bd
000003d0: cd59 2cbc 8966 c6bd ff66 4b3b 1ff1 e43b
000003e0: 6c82 313e 7139 96bd bd91 9cbc 62f2 f63d
000003f0: ccdf 71bd e916 f63c 3a19 39bd fe35 c4bc

blocks.0.ln1.w f4 [48]
0.8209423 0.8987462 0.00031684156 0.7402033 0.24563569 0.7923579 2.683854e-09 0.7356919
0.90652454 0.8955648 0.7731806 0.99831015 0.5473859 0.5566584 0.91922927 0.8332781
0.45673913 1.2092854 0.8131047 0.22208665 0.8431963 0.39111105 0.5830081 0.90572757
0.85175717 0.123345114 0.45072845 0.98953855 0.7807061 0.4561718 0.06579513 1.4430597
0.34106204 0.8358092 0.5678656 0.7191465 0.110945754 0.41297022 0.87744516 0.59573406
0.25458482 0.4856832 0.7707718 0.028226312 0.118721016 0.69354105 0.76181954 0.9206516
00000000: 4629 523f 3b14 663f c11d a639 f77d 3d3f
00000010: ec87 7b3e f8d7 4a3f dc6e 3831 4e56 3c3f
00000020: fe11 683f bc43 653f 2aef 453f 4191 7f3f
00000030: 7b21 0c3f 2a81 0e3f 9c52 6b3f b751 553f
00000040: b6d9 e93e ddc9 9a3f a127 503f af6a 633e
00000050: b6db 573f b53f c83e 0540 153f c3dd 673f
00000060: c20c 5a3f 5d9c fc3d e1c5 e63e 6652 7d3f
00000070: 5bdc 473f 5a8f e93e 99bf 863d 2eb6 b83f
00000080: af9f ae3e 97f7 553f a45f 113f fc19 383f
00000090: 8737 e33d d570 d33e 3fa0 603f 0782 183f
000000a0: f158 823e 78ab f83e 4d51 453f de3a e73c
000000b0: 0124 f33d e88b 313f 9b06 433f d3af 6b3f

blocks.0.ln1.b f4 [48]
0.07296512 0.012725178 -0.00038027822 0.07893095 0.03955513 -0.07134464 1.5126441e-09 -0.0990111
-0.0023927 0.0007337487 0.0044427966 -0.13712195 0.1064487 -0.059540648 -0.016347583 -0.03608239
0.027532483 -0.11710168 -0.001469753 -0.002067527 -0.06164265 0.009614337 -0.028783614 0.071283415
-0.009486269 -0.009542451 -0.0061255638 0.13339561 -0.0125217205 -0.09691433 -0.04117256 0.13063528
0.015761686 -0.052844133 -0.01055979 0.0030761552 0.03125173 0.061417304 -0.05223656 -0.06742234
0.0021707993 -0.008388415 -0.04723347 -0.020721233 -0.016808752 -0.0034387652 0.0012355233 0.0823461
00000000: bd6e 953d 447d 503c 1460 c7b9 8da6 a13d
00000010: 8f04 223d 231d 92bd 6fe5 cf30 55c6 cabd
00000020: d8ce 1cbb 0b59 403a e194 913b b269 0cbe
00000030: c701 da3d e5e0 73bd 5eeb 85bc 21cb 13bd
00000040: cd8b e13c 01d3 efbd baa4 c0ba 597f 07bb
00000050: 017d 7cbd 7485 1d3c 9dcb ebbc 0afd 913d
00000060: 4c6c 1bbc f157 1cbc f4b8 c8bb dc98 083e
00000070: e727 4dbc 057b c6bd 8fa4 28bd 41c5 053e
00000080: a71e 813c 1773 58bd f802 2dbc 5299 493b
00000090: d001 003d b690 7b3d 01f6 55bd b914 8abd
000000a0: f843 0e3b 906f 09bc e277 41bd 93bf a9bc
000000b0: 82b2 89bc e85c 61bb 48f1 a13a 12a5 a83d

blocks.0.attn.W_Q f4 [3, 48, 24]
-0.01503881 0.015293241 -0.009584399 -0.033979103 -0.0057233456 -0.008467993 -0.021186495 0.048490614
-0.033017334 -0.023705408 0.005369059 0.020824913 0.019211866 -0.031431075 0.055813618 0.010798803
-0.013307157 -0.048002772 0.0043389183 0.06230477 -0.025214054 0.041728914 -0.011015884 -0.00012320862
0.085507795 0.0580488 0.0046616453 -0.06797654 0.027291486 -0.045946736 -0.05994614 -0.090927616
-0.06743932 -0.059783746 0.03300929 -0.09153038 0.074495584 0.022334294 0.02050558 -0.002281405
-0.028844085 -0.100143835 0.08783494 -0.096506484 0.078825265 0.06911608 0.0623138 -0.03128915
4.042269e-06 3.0279125e-08 -4.5189818e-06 -3.1035674e-05 -8.751422e-07 -6.11087e-07 -4.695746e-05 4.367405e-05
-1.0057935e-05 -2.0359172e-05 1.661013e-05 3.1498268e-05 1.1690168e-05 -4.1365365e-06 4.017778e-05 1.4154185e-05
-1.1096876e-05 -3.8329912e-05 1.5826361e-05 5.5164146e-05 -2.0647878e-05 1.9938532e-05 5.847405e-06 2.1675512e-06
-0.009885098 0.050578926 -0.04877284 0.030133829 -0.048908833 -0.048783515 0.007847846 -0.041980594
-0.0068486915 0.048183203 -0.06516546 -0.05512854 0.013143105 0.030320108 0.0043310616 -0.060934618
0.03020175 0.016656525 -0.0357085 -0.054167397 0.018887177 0.00018934761 -0.041275743 0.020826321
0.0021891561 0.0037541403 -0.0021455125 0.0048080343 -0.0012734324 -0.0029923702 0.004115624 -0.007815031
-0.0011455148 0.0034773601 -0.005157372 -0.00833547 0.0001926466 0.0010362018 -0.002213616 -0.005202575
0.00058681815 0.003902314 -0.0041291714 -0.0090953745 0.004741595 -0.0009541227 -0.002198338 0.0009442211
0.04279365 -0.08816213 0.10808014 -0.069396056 0.09877005 0.08961713 0.04472933 0.033124167
0.0073286886 -0.13057092 0.14894578 0.05851947 -0.0046839477 0.009889076 0.0015440251 0.096741825
-0.047519844 -0.06806513 0.055828467 0.031938385 -0.0032428722 0.007547233 0.0898416 -0.1169263
-9.969735e-11 -2.8923839e-11 1.0631813e-10 3.7501738e-12 2.0708565e-11 8.5827935e-11 2.941816e-10 -7.345338e-11
4.370678e-11 1.3490841e-11 4.8766546e-11 1.7058641e-11 4.8058055e-12 6.8832724e-11 -1.7677348e-10 5.4424864e-11
7.500256e-11 7.3993284e-11 -1.2768224e-11 -6.3437644e-11 6.4221704e-11 -2.7795953e-12 3.954715e-12 -7.4376116e-11
-0.014061585 0.03383684 -0.023691285 -0.09646578 -0.020193791 -0.02767045 -0.10295789 0.06775863
-0.060669012 -0.046290476 0.020858757 0.025924526 0.05479957 -0.009880969 0.086154 0.022330701
-0.008745021 -0.14210346 0.06111258 0.08541203 -0.032196913 0.0934082 -0.0032595315 -0.009755901
-0.018112825 0.021533953 -0.04021825 0.0067200502 -0.05322085 -0.039330546 -0.008799755 -0.03683303
0.029399337 0.05076518 -0.036958046 -0.005676593 0.010603077 0.08118562 -0.030642372 -0.03470592
0.055383425 0.012349556 0.017999249 -0.054012425 0.01628442 -0.027089518 -0.018201083 0.009009347
-0.00026372602 0.013134929 0.00544188 -0.019809652 0.010438797 -0.011549724 -0.028299987 -0.03496551
-0.024418792 -0.0068687587 0.01713552 -0.020973282 0.0118457265 -0.020410575 -0.012680115 0.016018642
0.004356459 -0.01237384 0.05151617 -0.036753934 0.021026943 0.0075458027 0.024845885 0.011552694
0.02216294 0.0366157 -0.006704776 -0.045131426 0.009068219 -0.02530444 -0.04091736 -0.01025753
-0.05833679 -0.03368897 0.011690506 -0.029206287 0.038874596 -0.030961491 0.03994483 0.0055068233
00000000: 5765 76bc 8090 7a3c e207 1dbc ac2d 0bbd
00000010: e78a bbbb 56bd 0abc 4d8f adbc 189e 463d
00000020: 2f3d 07bd d831 c2bc eeee af3b 0299 aa3c
00000030: 3462 9d3c dfbd 00bd d29c 643d 76ed 303c
00000040: 4306 5abc 8e9e 44bd 7c2d 8e3b 4933 7f3d
00000050: b48d cebc f0eb 2a3d f77b 34bc 9031 01b9
00000060: b61e af3d 94c4 6d3d b7c0 983b 4937 8bbd
00000070: 6592 df3c a532 3cbd 158a 75bd 4238 babd
00000080: a01d 8abd cddf 74bd c034 073d 4874 bbbd
00000090: 2491 983d 69f6 b63c 51fb a73c a083 15bb
000000a0: 6e4a ecbc 3618 cdbd cee2 b33d 31a5 c5bd
000000b0: 246f a13d bb8c 8d3d c13c 7f3d 0d29 00bd
000000c0: d4a2 8736 400c 0233 c2a1 97b6 4d2c 02b8
000000d0: 50eb 6ab5 9409 24b5 30f4 44b8 a72e 3738
000000e0: 80be 28b7 fdc8 aab7 fc55 8b37 021d 0438
000000f0: e420 4437 94cc 8ab6 9084 2838 c377 6d37
00000100: b82c 3ab7 6ec4 20b8 dac2 8437 0d60 6738
00000110: fb34 adb7 ac41 a737 d434 c436 3f76 1136
00000120: 1bf5 21bc d92b 4f3d 08c6 47bd 38db f63c
00000130: a154 48bd 39d1 47bd 4094 003c d8f3 2bbd
00000140: fd6a e0bb c05b 453d 7875 85bd 77ce 61bd
00000150: 2e56 573c e061 f83c 94eb 8d3b 9496 79bd
00000160: a969 f73c 4473 883c 1343 12bd a2de 5dbd
00000170: 48b9 9a3c 9d8b 4639 c110 29bd f69b aa3c
00000180: f277 0f3b 0608 763b ba9b 0cbb b78c 9d3b
00000190: 4de9 a6ba a41b 44bb 5bdc 863b 9e0a 00bc
000001a0: 1925 96ba 6ce4 633b 2cff a8bb 7f91 08bc
000001b0: 2e01 4a39 2ad1 873a 5012 11bb 5d7a aabb
000001c0: b3d4 193a f7bd 7f3b 004e 87bb c404 15bc
000001d0: 625f 9b3b 171e 7aba fe11 10bb 9b85 773a
000001e0: 6548 2f3d 598e b4bd 1f59 dd3d 851f 8ebd
000001f0: f447 ca3d 3089 b73d 1a36 373d 35ad 073d
00000200: 7f25 f03b 62b4 05be 3e85 183e 1db2 6f3d
00000210: cd7b 99bb cb05 223c e360 ca3a 9420 c63d
00000220: 2ba4 42bd bb65 8bbd 64ac 643d d3d1 023d
00000230: 5e86 54bb c74e f73b dffe b73d 0e77 efbd
00000240: 9e3c dbae b26a fead c9cb e92e 90f2 832c
00000250: 8b27 b62d d5bc bc2e 61ba a12f 9486 a1ae
00000260: 7639 402e 5955 6d2d 407a 562e a50c 962d
00000270: d916 a92c 615d 972e 505d 42af f35c 6f2e
00000280: b0ee a42e 84b6 a22e f89e 60ad 3880 8bae
00000290: 9b39 8d2e bd98 43ac e824 8b2c 088e a3ae
000002a0: 9062 66bc 8098 0a3d 3a14 c2bc da8f c5bd
000002b0: 736d a5bc 24ad e2bc 96db d2bd 09c5 8a3d
000002c0: 1280 78bd 159b 3dbd fcdf aa3c ac5f d43c
000002d0: 8475 603d cae3 21bc 8271 b03d e0ee b63c
000002e0: 4747 0fbc 9283 11be 2f51 7a3d 81ec ae3d
000002f0: e9e0 03bd cc4c bf3d dd9d 55bb 37d7 1fbc
00000300: 5961 94bc f967 b03c e4bb 24bd de33 dc3b
00000310: 1bfe 59bd 1119 21bd d92c 10bc 3bde 16bd
00000320: e1d6 f03c 26ef 4f3d 5261 17bd b702 babb
00000330: 87b8 2d3c a544 a63d b605 fbbc cb27 0ebd
00000340: bbd9 623d cb55 4a3c 2973 933c 223c 5dbd
00000350: e766 853c d6ea ddbc 701a 95bc f19b 133c
00000360: b544 8ab9 e333 573c cc51 b23b da47 a2bc
00000370: 7d07 2b3c 0e3b 3dbc 60d5 e7bc ff37 0fbd
00000380: eb09 c8bc 5313 e1bb ca5f 8c3c 29d0 abbc
00000390: 9414 423c 1434 a7bc 42c0 4fbc 8739 833c
000003a0: a0c0 8e3b a6bb 4abc 9f02 533d 4b8b 16bd
000003b0: b240 ac3c c842 f73b 9989 cb3c 8347 3d3c
000003c0: 0e8f b53c 58fa 153d bdb3 dbbb bbdb 38bd
000003d0: de92 143c 424b cfbc f698 27bd 330f 28bc
000003e0: 8ff2 6ebd 72fd 09bd 8989 3f3c 0642 efbc
000003f0: f83a 1f3d f4a2 fdbc 319d 233d 9572 b43b

blocks.0.attn.W_K f4 [3, 48, 24]
0.07177537 -0.120860346 0.11346995 -0.12335333 0.12430003 0.1141788 -0.05997809 0.16599211
0.005605859 -0.17660649 0.1927901 0.15811855 0.00010074474 -0.02800417 0.10888188 0.13115884
-0.088765785 -0.10389326 0.07026923 0.18942654 -0.07649801 0.01828983 0.12531048 -0.100711785
0.09728132 0.1026876 0.010420418 -0.05119804 0.03318743 -0.080772296 -0.0021600984 -0.24291
-0.11048415 -0.044059448 0.014767099 -0.22758454 0.099340126 0.048095293 -0.06541122 -0.030655392
-0.011490883 -0.100500055 0.123245515 -0.27430984 0.17847568 0.088618614 0.078706644 -0.053617515
-7.0980093e-07 -9.3165784e-07 9.672311e-07 1.499755e-06 3.762788e-07 9.322097e-07 3.7269479e-06 -1.7917835e-06
7.228048e-07 6.1740707e-07 -2.1967361e-07 -1.1030666e-06 -9.876215e-07 3.9219583e-07 -2.3676575e-06 -2.1280394e-07
5.714801e-07 1.889812e-06 -1.066379e-06 -2.2780844e-06 9.999693e-07 -1.1286782e-06 -1.7753345e-07 -7.829085e-07
0.04489669 0.008756919 0.04415188 -0.013816149 0.050627925 0.0008634981 0.06630425 -0.109304614
-0.028655335 -0.052119076 0.04792895 -0.08660868 0.02517963 0.03599958 -0.04050998 0.009302528
-0.0045067845 -0.022959277 0.03912926 -0.1286161 0.081574954 0.012621295 0.060526174 -0.07146629
-0.0013234875 -0.003785184 0.004556398 -0.00041964036 0.0036718638 0.0041697845 0.0067768865 0.00091545476
0.00032611168 -0.004305212 0.0048200986 0.0013495523 -0.0017079451 -0.00024608287 -0.0016463114 0.003191312
-0.000964956 -0.00076203555 -0.0005128077 0.0008004506 -0.00045136537 -0.0002447956 0.0014179617 -0.0058573256
-0.030176844 -0.018067818 0.020279154 -0.014319866 0.027967937 0.020194378 -0.0035222676 0.014191934
-0.012109669 -0.020141695 0.031037087 0.012257397 -0.005647177 -0.05586325 -0.0010573076 0.03043149
-0.0066718603 -0.010114158 0.014109129 0.018056357 -0.00861781 0.008863769 0.005140996 -0.006122443
-7.089729e-11 -2.9845428e-11 2.9141183e-11 -3.7915732e-13 1.2479572e-11 2.8072532e-11 4.1844417e-11 8.665448e-11
2.3768876e-11 -1.5000527e-11 1.7022925e-11 5.0118243e-11 -1.644091e-11 2.3476249e-11 -2.3762364e-11 1.0507704e-11
6.590813e-11 -7.342731e-12 -2.7346645e-12 5.770253e-11 -6.981121e-11 -8.239524e-12 -1.8457926e-12 -4.6263035e-11
-0.02936649 0.0473543 -0.07531061 -0.024975399 -0.070819505 -0.051229667 -0.12756257 0.07247077
-0.018129556 0.035827626 -0.05849929 0.035786264 0.019441782 -0.03782703 0.08841398 -0.026529735
0.0054100496 -0.043099873 -0.007115507 0.091145694 -0.057585325 0.03277053 -0.056074288 0.08261191
0.04498515 -0.024842914 -0.0010391446 0.1301272 0.010541173 0.005907975 0.02465702 -0.10778512
0.083771914 0.10615937 -0.060420472 -0.047902815 -0.07002737 0.009814296 -0.092293784 -0.056631774
0.017347049 0.20656265 -0.06116078 -0.13097839 0.05287447 -0.148941 0.024469988 0.081138395
0.12640409 -0.027344989 0.055762473 -0.034391224 0.10584855 0.023839433 -0.12386686 -0.06785906
-0.019847335 -0.047654584 0.086751685 -0.03386114 0.006384066 -0.06352656 -0.029906752 0.054681744
-0.0857742 0.010289259 0.1108062 -0.07494534 0.057009783 -0.013274646 0.1402901 0.023863543
-0.00023150563 0.033614416 -0.05099451 -0.07751463 -0.026322585 -0.029084967 -0.15350227 0.13336666
-0.0561307 -0.02285107 -0.005970747 0.07622092 0.036341596 -0.083189584 0.14514281 0.014097433
00000000: f7fe 923d a185 f7bd ef62 e83d aca0 fcbd
00000010: 0491 fe3d 93d6 e93d 96ab 75bd d6f9 293e
00000020: 5bb1 b73b 55d8 34be c56a 453e d4e9 213e
00000030: ec46 d338 0069 e5bc 77fd de3d 814e 063e
00000040: d6ca b5bd fdc5 d4bd 50e9 8f3d 08f9 413e
00000050: fdaa 9cbd 8ed4 953c 6451 003e fb41 cebd
00000060: 6e3b c73d e04d d23d 67ba 2a3c 09b5 51bd
00000070: 8bef 073d f26b a5bd 7090 0dbb 66bd 78be
00000080: 8445 e2bd ae77 34bd b4f1 713c ec0b 69be
00000090: d672 cb3d 92ff 443d 51f6 85bd 0421 fbbc
000000a0: 4244 3cbc f9d2 cdbd 2568 fc3d 5772 8cbe
000000b0: 54c2 363e ad7d b53d f330 a13d 0a9e 5bbd
000000c0: 2689 3eb5 0a17 7ab5 cfd1 8135 304b c935
000000d0: 5d03 ca34 f63c 7a35 7a1c 7a36 367d f0b5
000000e0: c506 4235 e4bb 2535 6cdf 6bb4 140d 94b5
000000f0: 6b8e 84b5 fc8e d234 0ce4 1eb6 1a7f 64b4
00000100: d067 1935 72a5 fd35 8120 8fb5 31e1 18b6
00000110: af36 8635 167d 97b5 06a0 3eb4 1029 52b5
00000120: 97e5 373d 2e79 0f3c 9ad8 343d 215d 62bc
00000130: 3a5f 4f3d 605c 623a 86ca 873d 19db dfbd
00000140: 98be eabc d07a 55bd 2651 443d e45f b1bd
00000150: 8345 ce3c 4c74 133d cbed 25bd a169 183c
00000160: a6ad 93bb 1815 bcbc 0146 203d f0b3 03be
00000170: c510 a73d 8cc9 4e3c 4bea 773d eb5c 92bd
00000180: df78 adba d910 78bb d64d 953b 2d03 dcb9
00000190: a7a3 703b b0a2 883b a510 de3b 21fb 6f3a
000001a0: f8f9 aa39 bc12 8dbb ebf1 9d3b 76e3 b03a
000001b0: 21dd dfba af04 81b9 0bc9 d7ba 5525 513b
000001c0: 1af5 7cba 57c3 47ba f16d 06ba 55d5 513a
000001d0: 3ca5 ecb9 e957 80b9 e6da b93a cfee bfbb
000001e0: 6e35 f7bc f602 94bc 7820 a63c df9d 6abc
000001f0: 041d e53c ae6e a53c d8d5 66bb 4985 683c
00000200: a267 46bc 3200 a5bc 7d41 fe3c 40d3 483c
00000210: f40b b9bb ddd0 64bd 5b95 8aba 764b f93c
00000220: 9f9f dabb dab5 25bc fa29 673c edea 933c
00000230: b731 0dbc 5739 113c cd75 a83b c69e c8bb
00000240: a0e7 9bae f742 03ae 0e2a 002e 5472 d5aa
00000250: ff8a 5b2d b9ed f62d a008 382e 238e be2e
00000260: c012 d12d 2ff2 83ad 38bc 952d 206c 5c2e
00000270: a39d 90ad d07f ce2d 1604 d1ad 7eda 382d
00000280: fbee 902e b82c 01ad 566f 40ac 46c7 7d2e
00000290: 3884 99ae 84f3 10ad d8e2 01ac 8c77 4bae
000002a0: fe91 f0bc 95f6 413d 733c 9abd 3599 ccbc
000002b0: d109 91bd 33d6 51bd c39f 02be 8e6b 943d
000002c0: 6f84 94bc fdbf 123d f49c 6fbd 9e94 123d
000002d0: 5f44 9f3c 84f0 1abd 6412 b53d e354 d9bc
000002e0: c946 b13b 7e89 30bd 3329 e9bb 98aa ba3d
000002f0: 97de 6bbd 643a 063d 27ae 65bd 6f30 a93d
00000300: 5942 383d 5e83 cbbc e833 88ba 1140 053e
00000310: e2b4 2c3c b097 c13b 85fd c93c 72be dcbd
00000320: 9c90 ab3d 156a d93d 757b 77bd be35 44bd
00000330: 826a 8fbd 24cc 203c 8604 bdbd b8f6 67bd
00000340: 661b 8e3c 2985 533e ba83 7abd 331f 06be
00000350: e692 583d fd83 18be 4975 c83c e32b a63d
00000360: 1370 013e 9902 e0bc 3167 643d d0dd 0cbd
00000370: 20c7 d83d ea4a c33c e9ad fdbd b1f9 8abd
00000380: e196 a2bc 7431 43bd deaa b13d fbb1 0abd
00000390: 6d31 d13b 371a 82bd 01ff f4bc f7f9 5f3d
000003a0: 62aa afbd 4894 283c 5cee e23d f17c 99bd
000003b0: 1783 693d e77d 59bc 35a8 0f3e 7a7d c33c
000003c0: 52c0 72b9 45af 093d 9fdf 50bd febf 9ebd
000003d0: 76a2 d7bc 9943 eebc b32f 1dbe 4591 083e
000003e0: 4ee9 65bd 2b32 bbbc 42a6 c3bb b719 9c3d
000003f0: edda 143d 4d5f aabd 51a0 143e ebf8 663c

blocks.0.attn.W_V f4 [3, 48, 24]
0.038670503 -0.0018796385 -0.05299353 -0.071658626 -0.03043968 -0.018195603 0.03608827 -0.015389368
0.018263059 0.010722407 0.011836686 -0.011944404 0.00049808156 0.063678816 0.072996676 0.22133362
-0.045083016 0.09474466 -0.02221893 -0.01609674 0.16165888 -0.04769105 0.061184738 0.061838035
-0.0434996 -0.0013976817 0.033717994 -0.01821155 0.05430519 -0.0026550982 -0.021008663 0.03471097
-0.069039986 0.10940188 0.030728525 -0.06004324 -0.0198509 0.009566036 0.0037607544 0.010201836
-0.04654501 0.024602953 0.04324133 0.03584198 -0.03314998 0.04737591 0.0057994802 0.00061235356
2.4652762e-05 -5.008515e-06 -2.3198218e-05 1.0602054e-05 -3.3427412e-05 -1.3406048e-05 3.3532133e-06 1.1924505e-05
-3.5423357e-06 -9.9213685e-06 3.0518815e-06 7.7116065e-06 -6.735028e-06 -2.5006024e-05 6.2774634e-06 1.4949634e-06
-9.726265e-06 -3.6459773e-05 -2.4093706e-06 -1.1208925e-05 2.033908e-05 -1.3177234e-06 -1.9832847e-05 1.4654494e-05
-0.060133033 0.025832862 0.017522728 0.022818787 -0.014697097 0.00084366533 0.0104288645 -0.017291369
0.0065115965 -0.014821056 0.03894638 -0.03353037 0.04741122 0.059552606 -0.012804287 0.02709013
-0.009919399 0.015143469 0.013520451 0.06138441 -0.016397942 0.0010225779 -0.030313829 0.012976049
-0.0074291057 -0.0033673472 0.0061590006 -0.008952862 0.010240625 0.002409378 5.127024e-05 -0.0032098787
0.0153273465 0.006745971 -0.0053780517 -0.0020027696 -0.022038255 0.0396679 0.030395463 -0.015438918
-0.0013150433 -0.01282311 -0.004360968 -0.00089550973 -0.0063372864 -0.0014472897 0.0057441955 -0.000730142
-0.01140691 -0.017037017 0.05607032 -0.012114414 0.029085733 0.013108914 -0.047581308 -0.0013281252
-0.05274515 0.010474286 0.0030075458 -0.036855128 0.029033745 -0.004846819 0.04442376 -0.038291074
-0.010951997 -0.011565813 -0.00020507768 0.022873659 -0.015199929 0.0204977 0.010825302 -0.021636084
4.4427395e-10 9.70591e-10 -1.3016822e-09 1.0996697e-09 2.1388191e-09 -3.572053e-10 -1.5376057e-09 2.4401695e-10
-2.6342708e-09 8.253483e-10 -3.3205766e-10 -5.4393684e-10 -3.5223756e-08 -8.01918e-09 -3.5438876e-09 -1.6768699e-09
1.3016445e-10 1.2301035e-09 3.4554096e-10 8.189216e-10 2.9128462e-09 4.852867e-10 2.6487512e-09 -3.0000416e-10
0.023983309 0.007454109 0.0106205605 -0.052945446 -0.04200278 0.012648757 0.015042052 -0.032171965
-0.016870534 -0.040940832 0.010170064 -0.04992196 -0.036184818 0.004073325 -0.0106878495 -0.018627495
-0.024399828 0.03669871 0.028576575 -0.0012665748 -0.03697704 -0.021960871 -0.009620677 0.009843528
0.085769966 -0.021815654 -0.044134 0.09245012 -0.102496795 -0.05774584 0.026064707 0.048356183
0.020371543 0.0027231467 0.043885734 0.06107299 -0.080933385 -0.096258655 -0.053384513 -0.05203556
0.0094051575 -0.07607743 0.01647071 -0.028731886 0.07939506 0.00901169 -0.07871659 0.016779458
0.001177753 -0.07934856 0.09375148 -0.04009423 -0.0053557577 0.0026638394 -0.034913965 0.0033707237
-0.08846723 0.033296797 0.029986827 0.004709874 -0.09278196 0.07011254 0.11654543 -0.012199895
-0.07506614 -0.051531274 -0.013167209 -0.016272608 0.009069741 0.06581039 0.008012787 -0.01829976
0.0013278795 0.021819865 -0.04167279 0.02213405 0.015051373 0.0070973258 0.030487245 -0.0066413255
0.06497189 -0.017718488 -0.022199862 0.02432364 0.027789842 0.05174622 -0.08173354 0.0334058
00000000: f664 1e3d 345e f6ba be0f 59bd c2c1 92bd
00000010: a35c f9bc f20e 95bc 4bd1 133d b023 7cbc
00000020: 699c 953c 09ad 2f3c a9ee 413c 76b2 43bc
00000030: b091 023a 0a6a 823d 487f 953d 48a5 623e
00000040: f8a8 38bd 7d09 c23d 7904 b6bc 4fdd 83bc
00000050: e889 253e b157 43bd d99c 7a3d e149 7d3d
00000060: a32c 32bd 6a32 b7ba e11b 0a3d 6330 95bc
00000070: 1e6f 5e3d 2801 2ebb 5c1a acbc 172d 0e3d
00000080: d664 8dbd 180e e03d 63ba fb3c e7ef 75bd
00000090: 5b9e a2bc ddba 1c3c fd76 763b 9a25 273c
000000a0: fba5 3ebd 228c c93c d21d 313d 0acf 123d
000000b0: 46c8 07bd 3e0d 423d 9109 be3b 5a86 203a
000000c0: 67cd ce37 d10e a8b6 cb99 c2b7 7adf 3137
000000d0: 6934 0cb8 8aea 60b7 c407 6136 5c0f 4837
000000e0: ddb8 6db6 f473 26b7 edce 4c36 1961 0137
000000f0: 73fd e1b6 07c4 d1b7 00a3 d236 8da6 c835
00000100: fd2d 23b7 62ec 18b8 acb0 21b6 f70d 3cb7
00000110: d79d aa37 a2dc b0b5 b75e a6b7 93dc 7537
00000120: 0e4e 76bd 709f d33c d38b 8f3c 77ee ba3c
00000130: 18cc 70bc 6c29 5d3a d4dd 2a3c a1a6 8dbc
00000140: 3b5f d53b 04d4 72bc 3d86 1f3d 2457 09bd
00000150: 4432 423d 6fed 733d 12c9 51bc 1fec dd3c
00000160: fa84 22bc 501c 783c e284 5d3c 386e 7b3d
00000170: fa54 86bc 0508 863a b554 f8bc 7f99 543c
00000180: db6f f3bb b6ae 5cbb 71d1 c93b 06af 12bc
00000190: 4bc8 273c a8e6 1d3b 000b 5738 d45c 52bb
000001a0: 8d1f 7b3c 4e0d dd3b 5e3a b0bb e640 03bb
000001b0: 9289 b4bc cf7a 223d e8ff f83c 84f3 7cbc
000001c0: 885d acba 0618 52bc 73e6 8ebb a4c0 6aba
000001d0: 03a9 cfbb fcb2 bdba ce39 bc3b 0067 3fba
000001e0: 0ce4 3abc 3791 8bbc fea9 653d 897b 46bc
000001f0: 3445 ee3c c5c6 563c 9ee4 42bd 7d14 aeba
00000200: 4c0b 58bd 579c 2b3c 3f1a 453b 67f5 16bd
00000210: 2dd8 ed3c 11d2 9ebb b0f5 353d 1ad7 1cbd
00000220: 0170 33bc 897e 3dbc 1f0a 57b9 8a61 bb3c
00000230: 1f09 79bc cbea a73c 9c5c 313c 283e b1bc
00000240: 003e f42f a365 8530 dfe6 b2b0 3023 9730
00000250: 81fa 1231 2d60 c4af b153 d3b0 5526 862f
00000260: 9506 35b1 b9de 6230 f68c b6af 2784 15b0
00000270: ee48 17b3 bac4 09b2 bb88 73b1 9d77 e6b0
00000280: 091e 0f2f 6b10 a930 91f6 bd2f 7c1a 6130
00000290: 552b 4831 0465 0530 5305 3631 d5ed a4af
000002a0: a578 c43c 9941 f43b dc01 2e3c 53dd 58bd
000002b0: 1b0b 2cbd bb3c 4f3c f072 763c c0c6 03bd
000002c0: 1334 8abc 93b1 27bd 57a0 263c f87a 4cbd
000002d0: 8836 14bd 8779 853b 171c 2fbc b098 98bc
000002e0: 26e2 c7bc 6351 163d 6c19 ea3c 3303 a6ba
000002f0: 3d75 17bd 49e7 b3bc 0ba0 1dbc c046 213c
00000300: 2aa8 af3d beb6 b2bc dac5 34bd 7d56 bd3d
00000310: d7e9 d1bd e786 6cbd a785 d53c 2211 463d
00000320: 39e2 a63c d276 323b 87c1 333d ac27 7a3d
00000330: 67c0 a5bd 4223 c5bd b8a9 5abd 3d23 55bd
00000340: 1718 1a3c 7cce 9bbd 95ed 863c 225f ebbc
00000350: e199 a23d c4a5 133c 2a36 a1bd 1375 893c
00000360: d55e 9a3a 7f81 a2bd c700 c03d d939 24bd
00000370: 5a7f afbb cf93 2e3b f201 0fbd 5ce7 5c3b
00000380: 4f2e b5bd 3962 083d efa6 f53c 4955 9a3b
00000390: 7804 bebd 2a97 8f3d 5faf ee3d 12e2 47bc
000003a0: 47bc 99bd 7512 53bd 47bb 57bc 224e 85bc
000003b0: 4099 143c 99c7 863d 1148 033c 61e9 95bc
000003c0: 3e0c ae3a 93bf b23c 16b1 2abd 7852 b53c
000003d0: 099a 763c af90 e83b 63c0 f93c 7a9f d9bb
000003e0: fb0f 853d 5d26 91bc 7cdc b5bc 5f42 c73c
000003f0: 86a7 e33c d8f3 533d ea63 a7bd 85d4 083d

blocks.0.attn.W_O f4 [3, 24, 48]
0.0008250207 0.026001384 0.0014489789 0.022956623 0.003520333 0.066358335 0.0014916067 0.01743077
0.002784309 0.004926078 -0.0016427697 0.0020846915 -0.059235383 -0.06282764 -0.032436654 -0.012014889
-0.015498938 -0.0062024933 0.0058310702 0.0009816283 -0.058550265 -0.004458781 -0.004002596 -0.027972257
-0.0037950114 -0.026063561 0.019753605 -0.019419886 -0.0011805117 0.026892249 0.0008601466 0.059904177
-0.08351869 0.0532564 -0.000184356 0.0068652285 0.018535549 -0.018864727 0.027815731 -0.009812031
-0.01792531 0.014817018 -0.0251731 -0.004631409 0.0019653349 -0.009752452 0.03154484 -0.06371081
-0.00019172112 0.007882453 0.0006824293 0.046296123 0.0011963607 -0.04581103 0.00073569233 -0.02575464
-0.025476292 0.0051153027 -0.0041525895 -0.0077540884 0.005229325 -0.022439511 -0.03186938 0.0063094827
0.0058833873 -0.008548317 0.006296344 0.027200747 0.019117443 0.0031671452 0.022888549 0.003005895
-0.007396464 0.027132332 -0.0010601414 -0.04708478 -0.0001358351 0.052468613 0.0012649746 -0.024943741
0.068681255 -0.01861533 0.00016551696 0.0005916802 0.00253201 0.100255616 -0.0056565613 -0.007055265
0.042008683 -0.013610142 0.0034077154 -0.00039648733 0.0067655095 -0.009969179 0.0114962505 0.020879872
-0.0151063865 -0.016486578 -0.0016783054 -0.08726057 -0.00415103 -0.009900054 -0.0029617054 0.008807466
0.007283369 -0.006469366 0.0045775604 -0.019318486 0.0219619 0.071634635 0.13230708 -0.0038625598
0.020209983 0.009141645 -0.017277364 -0.020182451 0.08130928 0.012474829 0.019629426 0.020397719
0.027892027 -0.022009427 0.0021568283 0.06069158 -0.008692277 -0.054557726 -0.0005222591 -0.002885538
0.030058166 -0.02838094 -0.009417833 0.0035474217 -0.030433768 -0.048589543 -0.046555445 -0.034117423
-0.058840886 -0.0005567928 0.027423441 -0.0006629892 0.0003552027 0.0289614 -0.06297073 0.03854513
0.03251047 0.007590897 0.0011794077 0.031993568 0.0028255489 -0.010411085 0.0020731217 -0.031585597
-0.027783599 0.013044839 -0.012218146 -0.0010698839 -0.016049506 -0.041343108 -0.06077199 0.0064815767
-0.005053168 0.0063388026 -0.0033892202 -0.0039922176 -0.03250774 -0.013092611 0.010101772 -0.03267922
-0.03126132 0.07662772 0.048727725 -0.012909071 0.007931501 0.02130607 -0.00044766287 0.011659263
-0.039542962 0.0071138274 0.007362083 0.0013822388 0.02077774 0.05312766 0.08416753 0.01780609
0.0018353176 0.0043004355 -0.024917943 -0.004513266 -0.0090957945 -0.019733097 0.026496062 -0.026732886
0.0041740933 -0.042419147 -0.0012797018 0.016606731 -0.003666265 -0.08993282 -0.0018207498 0.03002034
-0.013115813 0.005605947 7.4047515e-05 -0.008453393 0.07737566 0.029064285 0.06193606 0.025529852
0.005115664 0.002244006 -0.022224132 -0.006729557 0.06385611 -0.035351515 0.017099807 -0.012723286
-0.010079191 -0.11703595 -0.0012425232 0.03943724 -0.01443509 -0.010396211 -0.00022992806 0.0059915385
0.050841596 -0.027654506 -0.011503465 -0.011186483 0.02782937 -0.0028397152 -0.073111184 -0.06392485
-0.05211323 0.071724564 0.029339224 -0.0015595893 0.029036587 -0.022838235 0.01826377 0.09173792
-0.0052039847 -0.008512803 -0.00054530485 -0.017739136 -0.0026251376 0.0015277837 -0.0012718342 0.005765334
-0.041608863 -0.0045356317 0.0016174517 0.010513904 -0.009246418 -0.0017319266 -0.005442445 0.0065937573
00000000: 3446 583a db00 d53c aaeb bd3a 870f bc3c
00000010: 63b5 663b e1e6 873d 0482 c33a f9ca 8e3c
00000020: f478 363b f06a a13b 3452 d7ba 529f 083b
00000030: cda0 72bd c7ab 80bd 4cdc 04bd 19da 44bc
00000040: 42ef 7dbc 493e cbbb 9012 bf3b fba9 803a
00000050: 67d2 6fbd f71a 92bb 3528 83bb 1326 e5bc
00000060: bab5 78bb 4083 d5bc 50d2 a13c 7416 9fbc
00000070: 66bb 9aba 224d dc3c 767b 613a 155e 753d
00000080: d90b abbd 6223 5a3d b04f 41b9 b6f5 e03b
00000090: ddd7 973c 338a 9abc d1dd e33c a4c2 20bc
000000a0: 1ad8 92bc 14c3 723c d137 cebc 13c3 97bb
000000b0: d9cc 003b c0c8 1fbc 2a35 013d d07a 82bd
000000c0: bf08 49b9 6725 013c 0ee5 323a 01a1 3d3d
000000d0: 34cf 9c3a 59a4 3bbd 7adb 403a 65fb d2bc
000000e0: a8b3 d0bc 459e a73b 7212 88bb 0216 febb
000000f0: c25a ab3b 11d3 b7bc 7889 02bd c7bf ce3b
00000100: 6ec9 c03b 3d0e 0cbc 9051 ce3b 1ad4 de3c
00000110: 2f9c 9c3c e18f 4f3b c480 bb3c 8dfe 443b
00000120: 095e f2bb a044 de3c 71f4 8aba f8db 40bd
00000130: f56e 0eb9 54e9 563d 81cd a53a d156 ccbc
00000140: c2a8 8c3d 2d7f 98bc 9f8e 2d39 fc1a 1b3a
00000150: 14f0 253b d152 cd3d ad5a b9bb da2f e7bb
00000160: 4c11 2c3d 13fd 5ebc fa53 5f3b a1df cfb9
00000170: 35b1 dd3b c455 23bc c55a 3c3c 440c ab3c
00000180: c780 77bc dc0e 87bc 96fa dbba abb5 b2bd
00000190: 5d05 88bb d633 22bc 2c19 42bb 314d 103c
000001a0: 54a9 ee3b fafc d3bb 5cff 953b cd41 9ebc
000001b0: 71e9 b33c 2eb5 923d 827b 073e 0023 7dbb
000001c0: 688f a53c d7c6 153c 4289 8dbc ab55 a5bc
000001d0: 7b85 a63d 3a63 4c3c e4cd a03c 1e19 a73c
000001e0: d27d e43c 1d4d b4bc 9359 0d3b bc97 783d
000001f0: 0d6a 0ebc ec77 5fbd 37e8 08ba 4b1b 3dbb
00000200: 8b3c f63c 257f e8bc 414d 1abc dc7b 683b
00000210: 3d50 f9bc d405 47bd ecb0 3ebd b6be 0bbd
00000220: 2403 71bd bbf5 11ba 20a7 e03c 74cc 2dba
00000230: 803a ba39 7540 ed3c ccf6 80bd 80e1 1d3d
00000240: b329 053d 0fbd f83b 5b96 9a3a b00b 033d
00000250: d82c 393b 4193 2abc 36dd 073b e65f 01bd
00000260: 6e9a e3bc 05ba 553c 9e2e 48bc 593b 8cba
00000270: 417a 83bc 6457 29bd 0dec 78bd 6863 d43b
00000280: 0c95 a5bb bbb5 cf3b ae1d 5ebb 26d1 82bb
00000290: d626 05bd 6482 56bc e781 253c a5da 05bd
000002a0: df0b 00bd feee 9c3d b996 473d 9180 53bc
000002b0: 20f3 013c 118a ae3c 4bb4 eab9 7e06 3f3c
000002c0: cdf7 21bd 1c1b e93b a13d f13b 3d2c b53a
000002d0: 1436 aa3c 649c 593d 0760 ac3d 14de 913c
000002e0: 0a8f f03a abea 8c3b b720 ccbc 05e4 93bb
000002f0: 8706 15bc 4ea7 a1bc 450e d93c edfe dabc
00000300: d5c6 883b b3bf 2dbd abbb a7ba d70a 883c
00000310: b845 70bb b32e b8bd 3aa6 eeba 37ed f53c
00000320: b5e3 56bc 18b2 b73b f549 9b38 1a80 0abc
00000330: 2177 9e3d 3918 ee3c abb0 7d3d fb23 d13c
00000340: 4da1 a73b 2c10 133b 620f b6bc 9e83 dcbb
00000350: fec6 823d c0cc 10bd e514 8c3c 5475 50bc
00000360: 3123 25bc 8bb0 efbd 29dc a2ba f288 213d
00000370: 2881 6cbc df54 2abc d818 71b9 ab54 c43b
00000380: 473f 503d b48b e2bc 0779 3cbc 8347 37bc
00000390: 6bfa e33c 841a 3abb 51bb 95bd 08eb 82bd
000003a0: af74 55bd 54e4 923d d058 f03c 226b ccba
000003b0: 23de ed3c 4017 bbbc e79d 953c 17e1 bb3d
000003c0: 3086 aabb 4979 0bbc caf2 0eba aa51 91bc
000003d0: 800a 2cbb ea3f c83a adb3 a6ba 20eb bc3b
000003e0: 0e6e 2abd a39f 94bb ac00 d43a 8242 2c3c
000003f0: 4a7e 17bc d001 e3ba 8a56 b2bb 7210 d83b

blocks.0.attn.b_Q f4 [3, 24]
-0.01084019 0.019208174 0.01490667 0.09778438 0.0074701565 -0.003139922 0.15471332 -0.14162178
0.00792682 0.043238398 -0.050078947 -0.13198812 -0.020733759 0.026592894 -0.08779847 -0.061248463
0.030384216 0.09791612 -0.087459005 -0.16291878 0.084777296 -0.039733704 -0.028932262 -0.027726267
0.075162105 0.06360291 0.0688279 -0.1326134 0.011068095 0.0106923515 -0.015800092 -0.072451636
-0.09491699 -0.0123828575 0.12356135 -0.113852896 0.031956814 -0.052036665 0.12122164 0.058785144
0.0027777061 0.037204236 -0.08277132 -0.15110959 0.057767782 -0.11300039 -0.037744973 0.033631407
-0.009424712 -0.11924135 0.11259265 0.049421508 -0.0008325553 0.08463133 0.01203195 0.04350896
-0.05240515 0.00014709827 0.09379335 0.0687821 0.13139492 -0.10251712 0.0018066121 -0.055664208
-0.034583274 -0.0627627 -0.0071146763 0.10322821 -0.07369682 -0.027185433 0.020039583 0.13085777
00000000: 0d9b 31bc 765a 9d3c 1b3b 743c 2d43 c83d
00000010: 37c8 f43b 26c7 4dbb 2b6d 1e3e 4d05 11be
00000020: 7edf 013c bf1a 313d 951f 4dbd e527 07be
00000030: d8d9 a9bc 57d9 d93c afcf b3bd abdf 7abd
00000040: 52e8 f83c 3f88 c83d b51d b3bd 2ed4 26be
00000050: b89f ad3d cfbf 22bd 5a03 edbc 3222 e3bc
00000060: 97ee 993d 3e42 823d a4f5 8c3d cfcb 07be
00000070: f556 353c f92e 2f3c 326f 81bc 8661 94bd
00000080: d763 c2bd 78e1 4abc bc0d fd3d b52b e9bd
00000090: 26e5 023d 6624 55bd 0d43 f83d b1c8 703d
000000a0: 2d0a 363b 7863 183d 0384 a9bd 79bc 1abe
000000b0: e99d 6c3d c06c e7bd 799a 1abd 16c1 093d
000000c0: 1b6a 1abc cf34 f4bd fa96 e63d 356e 4a3d
000000d0: d73f 5aba 3153 ad3d a821 453c 7436 323d
000000e0: c8a6 56bd 643e 1a39 ba16 c03d a1dd 8c3d
000000f0: 648c 063e 7ff4 d1bd d8cb ec3a 2700 64bd
00000100: 31a7 0dbd bb89 80bd 3b22 e9bb 5069 d33d
00000110: 5cee 96bd fcb3 debc 0d2a a43c 94ff 053e

blocks.0.attn.b_K f4 [3, 24]
8.9048376e-07 -6.6949144e-07 1.0584733e-06 -1.9492097e-07 6.3182404e-07 -2.849631e-07 -4.0178747e-07 2.9196747e-07
-5.421836e-07 -1.0074192e-06 1.5122966e-06 -1.7114693e-06 1.2591606e-06 1.4226223e-06 3.8650649e-07 8.833172e-08
-1.1406139e-06 -8.4893713e-07 7.129446e-07 -1.3207091e-06 1.2297156e-06 1.1975903e-06 8.1754496e-07 -1.0671231e-06
-9.2463347e-07 8.115381e-07 -2.0487438e-08 3.8861463e-06 3.739361e-07 -1.7462635e-06 -3.20882e-07 -2.0136913e-06
1.7302484e-06 -9.50165e-08 1.4268531e-06 -1.1518114e-06 -1.7040372e-06 1.6659737e-07 4.3343687e-07 1.1709266e-06
1.9095296e-07 2.8607733e-06 -3.6888423e-08 1.7219954e-06 5.777656e-08 1.4914845e-06 -2.170295e-06 4.120839e-06
-1.0152701e-06 8.0062136e-07 7.448931e-07 1.6400089e-06 -7.653792e-08 2.7186294e-07 -3.610105e-06 -1.0185537e-06
9.96738e-08 -2.667323e-07 3.6151704e-09 8.179102e-07 3.9854564e-07 1.3500802e-06 1.3163799e-06 2.094926e-06
-1.1133912e-06 -1.5783155e-07 1.4532989e-06 4.916835e-07 -2.8570912e-07 -2.7094887e-07 -1.0111125e-06 -3.6033703e-07
00000000: 9409 6f35 1ab7 33b5 de10 8e35 784b 51b4
00000010: 9e9a 2935 08fd 98b4 40b5 d7b4 b4bf 9c34
00000020: 938a 11b5 a936 87b5 1efa ca35 a3b5 e5b5
00000030: 6e00 a935 eef0 be35 0c81 cf34 e0b0 bd33
00000040: 3217 99b5 84e2 63b5 2e61 3f35 3843 b1b5
00000050: b50c a535 e4bc a035 4375 5b35 123a 8fb5
00000060: 5434 78b5 79d8 5935 5afc afb2 be65 8236
00000070: 63c1 c834 2861 eab5 b045 acb4 f422 07b6
00000080: e23a e835 e00b ccb3 4d82 bf35 f097 9ab5
00000090: 46b6 e4b5 f0e1 3234 1cb3 e834 bb28 9d35
000000a0: c008 4d34 b6fb 3f36 406f 1eb3 501f e735
000000b0: 0026 7833 042f c835 62a5 11b6 bd45 8a36
000000c0: 6a44 88b5 48ea 5635 aaf4 4735 471e dc35
000000d0: 2b5d a4b3 8ff4 9134 2245 72b6 3db5 88b5
000000e0: 400c d633 6833 8fb4 c06e 7831 5c8e 5b35
000000f0: b2f7 d534 6734 b535 78ae b035 8e96 0c36
00000100: d56f 95b5 6878 29b4 f80e c335 3cfc 0335
00000110: 9063 99b4 ee76 91b4 90b5 87b5 5874 c1b4

blocks.0.attn.b_V f4 [3, 24]
-0.043789383 0.030810544 0.0007283021 -0.041468892 0.01126551 0.021850796 0.03935373 -0.019761408
0.02766218 0.00047843505 0.005080893 0.0119008655 0.0094217025 0.0625339 0.012598498 0.055993926
0.0096390005 0.019742787 -0.00883104 0.009356137 -0.002349462 -0.025515955 0.037334926 0.014960151
0.025987744 -0.042611856 0.007528355 -0.004367127 0.0036371783 0.019713735 0.024526233 -0.045909777
0.017867474 0.0009850034 -0.023910305 0.021601671 -0.012195029 -0.0016848041 -0.029371578 0.0006624853
0.0022992156 0.0049594035 -0.009965596 0.0056188116 -0.007229419 -0.0054143197 -0.023915177 0.02358698
0.02809411 0.026776915 0.031409282 0.0059469044 -0.020362282 -0.024542678 0.05627631 0.010668183
0.043392006 -0.028085787 -0.011190694 -0.011192686 -0.07160534 -0.06954226 0.00080471986 -0.032830913
-0.0049637426 -0.011827005 -0.07637362 0.027606364 -0.0076423762 0.06249913 0.0055266866 0.045700278
00000000: 7f5c 33bd 6566 fc3c 87eb 3e3a 49db 29bd
00000010: f992 383c 7100 b33c 6031 213d ade2 a1bc
00000020: cc9b e23c 77d6 fa39 9f7d a63b d9fb 423c
00000030: 7c5d 1a3c c611 803d ee69 4e3c e359 653d
00000040: e6ec 1d3c a0bb a13c 11b0 10bc 7c4a 193c
00000050: 6ef9 19bb d606 d1bc 82ec 183d 6c1b 753c
00000060: 40e4 d43c c589 2ebd 6bb0 f63b 1e1a 8fbb
00000070: ba5d 6e3b b37e a13c 3deb c83c e40b 3cbd
00000080: cf5e 923c 3b1b 813a 8bdf c3bc fdf5 b03c
00000090: a9cd 47bc a5d4 dcba aa9c f0bc a3aa 2d3a
000000a0: 70ae 163b 7e82 a23b bd46 23bc 021e b83b
000000b0: c3e4 ecbb 9b6a b1bb c3e9 c3bc 7b39 c13c
000000c0: 9e25 e63c 435b db3c 05a7 003d 40de c23b
000000d0: cdce a6bc ba0d c9bc fd81 663d 9ac9 2e3c
000000e0: d1bb 313d 2a14 e6bc 2c59 37bc 8761 37bc
000000f0: d2a5 92bd 2c6c 8ebd d6f3 523a b579 06bd
00000100: e4a6 a2bb 0ec6 41bc c669 9cbd be26 e23c
00000110: e66c fabb 16ff 7f3d 3519 b53b 3730 3b3d

blocks.0.attn.b_O f4 [48]
-0.0077857263 0.043147713 -0.0007891309 -0.0021171845 0.0023854044 0.021747008 3.8878876e-05 0.038899396
-0.048644647 0.008092139 0.010492409 0.007249793 0.021309074 -0.0097986255 -0.11026067 -0.011385852
0.03808125 -0.010888682 0.035663757 0.030988904 0.05101898 0.016062835 0.009591883 -0.02178313
-0.04916385 -0.003061446 -0.04920863 -0.036121458 0.054269608 0.024135565 -0.0061161793 -0.065095514
-0.044390254 -0.041614696 -0.017768003 0.007534731 -0.013328704 0.034678914 0.01502055 0.059066243
0.0295926 -0.036153227 0.059514236 -0.011652282 0.01944342 0.0025982016 0.027165188 -0.017672844
00000000: 681f ffbb a8bb 303d aedd 4eba 76c0 0abb
00000010: 7254 1c3b c826 b23c e011 2338 f954 1f3d
00000020: 9c3f 47bd e494 043c 5ae8 2b3c ac8f ed3b
00000030: 5e90 ae3c 6a8a 20bc 59d0 e1bd b98b 3abc
00000040: 16fb 1b3d 7166 32bc 2914 123d 71dc fd3c
00000050: 47f9 503d 3596 833c 4627 1d3c 8972 b2bc
00000060: 0860 49bd 8aa2 48bb fd8e 49bd 18f4 13bd
00000070: cf49 5e3d f3b7 c53c 3b6a c8bb cc50 85bd
00000080: 8ed2 35bd 2c74 2abd 348e 91bc e8e5 f63b
00000090: a360 5abc 7a0b 0e3d c118 763c 72ef 713d
000000a0: 2e6c f23c 6815 14bd 33c5 733d 37e9 3ebc
000000b0: cf47 9f3c 9746 2a3b 8789 de3c a4c6 90bc

blocks.1.ln1.w f4 [48]
0.19897969 1.7557313e-07 -5.550631e-09 0.7303111 -7.269607e-36 0.79372406 5.9363515e-06 1.0029896
0.9809561 -9.905291e-25 7.118628e-08 0.09097974 0.90424937 0.81550545 1.0859404 2.214848e-07
0.23548461 6.223005e-05 5.0926764e-07 0.7417582 1.2689897 0.28616026 0.18790144 0.01878687
0.44111988 0.78521734 0.8629835 0.8889541 0.19241877 0.94483036 -1.5598944e-11 0.8301495
1.1791162 0.96366864 0.6020722 4.1183048e-05 0.38256717 0.94803697 1.1749592 0.97466844
0.86870605 0.67952186 0.36801618 0.15219662 0.34143937 0.50077885 0.5772549 1.0670425
00000000: 55c1 4b3e 2d85 3c34 deb7 beb1 abf5 3a3f
00000010: 819b 1a85 8031 4b3f df30 c736 f761 803f
00000020: f01f 7b3f e646 9997 12df 9833 9653 ba3d
00000030: e37c 673f f7c4 503f 1800 8b3f 47d1 6d34
00000040: e122 713e 8181 8238 9bb4 0835 dee3 3d3f
00000050: 416e a23f 9983 923e 3c69 403e ece6 993c
00000060: 77da e13e 0104 493f 7dec 5c3f 7f92 633f
00000070: 6d09 453e 67e0 713f b335 89ad ad84 543f
00000080: 48ed 963f fdb2 763f 6721 1a3f f6bb 2c38
00000090: d8df c33e 8db2 723f 1065 963f df83 793f
000000a0: 8563 5e3f 25f5 2d3f 9e6c bc3e 6ed9 1b3e
000000b0: 24d1 ae3e 0b33 003f fac6 133f d994 883f

blocks.1.ln1.b f4 [48]
-0.02426974 7.800868e-07 -4.872601e-06 0.08438677 1.3976523e-34 -0.060903184 -6.307457e-05 0.14004433
-0.076187275 -1.8605309e-26 -7.0334175e-07 0.0076464377 0.064908266 -0.112322934 -0.007263501 3.552284e-06
-0.058235563 0.000409373 -8.300384e-06 -0.033111725 -0.016749615 -0.021927904 -0.016881766 0.0014410687
-0.0024745308 -0.03970263 0.051266007 0.0028461092 0.032485668 -0.084706865 -8.804536e-11 0.096391246
-0.025362248 0.0111909835 0.002666415 3.9210383e-05 0.023330545 -0.02838806 0.12712316 -0.055665053
-0.036932923 0.0030543315 -0.0810221 0.042361055 -0.0345191 -0.016083263 0.016641814 0.033209972
00000000: 55d1 c6bc 2867 5135 537f a3b6 f9d2 ac3d
00000010: a5c7 3907 9e75 79bd e746 84b8 c867 0f3e
00000020: 1308 9cbd 1042 b894 47cd 3cb5 f88e fa3b
00000030: a0ee 843d 9109 e6bd aa02 eebb c663 6e36
00000040: 6a88 6ebd 1da1 d639 e141 0bb7 29a0 07bd
00000050: 7d36 89bc 26a2 b3bc a14b 8abc 3ee2 bc3a
00000060: bd2b 22bb 3a9f 22bd 4efc 513d ca85 3a3b
00000070: b10f 053d cb7a adbd 229d c1ae c668 c53d
00000080: 7dc4 cfbc 635a 373c 05bf 2e3b d475 2438
00000090: b31f bf3c 148e e8bc 932c 023e 0a01 64bd
000000a0: fa46 17bd 2e2b 483b eaee a5bd c982 2d3d
000000b0: e663 0dbd 0cc1 83bc 6a54 883c 2e07 083d
